prepared_data/best_model_epoch.pt (torch, 269280 bytes, 17 tensors)

encoder.conv.0.weight f4 [64, 5, 5]
000000 17 71 cf 3d 73 af 31 be c7 aa 9c bd d5 f2 a5 3d
       0.10128992 -0.17352085 -0.07649761 0.08102957
000010 7a 22 59 3e 45 f9 2b be 37 9b 47 3e c2 5b 2b 3e
       0.21204558 -0.16794308 0.19492804 0.16734222
000020 8e 11 2f bd a7 02 64 3d 41 b4 26 bd b1 4a aa bc
       -0.04274135 0.055666592 -0.040699247 -0.020787569
000030 fc 72 58 3e 43 00 ff 3d 95 21 9b bd ea e3 df 3d
       0.21137613 0.12451222 -0.07574765 0.10932143
000040 d4 df 7f bc 22 5a b4 bd 5a f5 45 3d 73 15 b8 3d
       -0.01561733 -0.08806254 0.04832969 0.08988466
000050 59 ef bf bd 26 b7 0c be 2a 88 0f 3d 05 54 16 be
       -0.09371824 -0.1374174 0.035041966 -0.14680488
000060 89 22 15 3d e0 ee c1 3d a6 08 f6 3c 6d 55 c1 bd
       0.03640989 0.0946939 0.03003342 -0.09440122
000070 58 11 61 3d fe bc ff bd f1 82 fc 3c 9b cc 57 3e
       0.05494818 -0.12487219 0.030824156 0.21074145
000080 33 7d 5b bd f2 0e 56 3e 0b 44 c1 3d a5 6a 1f bd
       -0.053586196 0.20904139 0.09436806 -0.038920064
000090 7c 3a 13 be 3b 6c 1f 3e 6c a4 2b be 04 dd 86 bd
       -0.14377779 0.1556863 -0.1676194 -0.06585124
0000a0 a5 2e 0a be 76 12 60 3e 71 48 4c 3e 93 28 38 3e
       -0.13494356 0.21882042 0.19949509 0.17984228
0000b0 9d 2e 05 3c 2a 33 1e bd e0 e1 34 3e e7 da 33 be
       0.008128789 -0.038623013 0.1766429 -0.17563973
0000c0 6c 9d ef 3d ce 73 57 be 3a 84 6a bd 70 d1 84 3d
       0.11699948 -0.2104027 -0.057255007 0.064852595
0000d0 70 e5 91 3d 27 7e 3f bd 9d c6 b7 3d b7 0a 38 be
       0.0712384 -0.046751168 0.08973429 -0.17972837
0000e0 00 4e 7a bd 1d b2 a6 3d dd 54 d8 bd a7 7d d7 bd
       -0.061109543 0.08139441 -0.105630614 -0.10522013
0000f0 b2 08 05 be b8 9e 44 3e 80 ae 6e 3d 1b 7e 2a be
       -0.12991598 0.19201171 0.058271885 -0.16649668
000100 0a 1c 8f 3d 10 16 12 3e d3 e0 aa bd a7 45 d3 bd
       0.0698777 0.14266229 -0.08343663 -0.103160195
000110 2f b0 08 be 0d e8 a6 3c 1a 81 34 3d b3 85 91 bd
       -0.13348459 0.020374322 0.044068433 -0.07105579
000120 1d ef a4 bd e7 92 84 3c 00 40 2e 3d c0 c8 6a 3e
       -0.0805342 0.01618333 0.042541504 0.22928143
000130 c2 89 20 3e 69 36 44 3e c2 c5 23 3e e8 e3 fb bd
       0.1567755 0.19161381 0.15993407 -0.12299329
000140 1f 3d 76 3e ed a9 30 bd c6 52 f3 39 1b 11 dc 3c
       0.24046753 -0.043130804 0.00046410243 0.026863625
000150 eb 53 67 bc eb 22 54 3e 97 bf 8c 3d 3a 35 16 3e
       -0.014119129 0.20716445 0.0687248 0.14668742
000160 e0 26 88 bd 94 8b a8 3d 82 3b 36 3e 73 d2 ce 3d
       -0.0664804 0.082297474 0.17796138 0.10098734
000170 aa a8 69 3e 04 64 1f 3d 97 8e 06 3d 46 a1 91 bd
       0.22818246 0.03891374 0.032850828 -0.071108386
000180 3a bc 1e be e4 e6 49 be 4f 81 9e bd 0c 3b 0b 3e
       -0.1550149 -0.19716984 -0.077395074 0.13596743
000190 2d 93 51 3d a7 a8 a5 bc e5 dd 01 bc a5 8c cd bc
       0.05116575 -0.020222021 -0.007926439 -0.025091479
0001a0 f2 54 3b 3d b1 0b dc 3c b5 1a 59 3c 37 00 06 bd
       0.045735307 0.026861044 0.013250996 -0.03271505
0001b0 b4 ac 92 bd 81 3e c9 3d 42 35 5b 3e f1 de 32 bd
       -0.07161847 0.09826375 0.21407035 -0.043669645
0001c0 97 6b 00 3e cd 9c 93 bd f9 fe 83 bd 2b b6 8c 3d
       0.12541042 -0.07207642 -0.064451165 0.06870683
0001d0 37 18 8d bb 42 54 9f 3c 3c ab a9 bd ef 5a 12 be
       -0.004305865 0.019449357 -0.082846135 -0.14292501
0001e0 e9 6f 3c 3e 9c 55 cb 3c 99 e9 5a 3d b7 41 8e 3d
       0.18402065 0.024821095 0.053445432 0.06946128
0001f0 97 b2 f1 bd ad 0e 00 3e 1d b2 7c bd ff d6 03 bd
       -0.118016414 0.12505598 -0.0616933 -0.032187458
000200 fc b6 12 3e fd 64 00 3e 69 35 45 bd df 2a 2b 3c
       0.14327615 0.12538524 -0.04814664 0.010447233
000210 1f d6 9a 3b 39 17 b6 3d 56 e6 10 3e 0c 36 a7 3d
       0.0047252323 0.08891148 0.14150366 0.081646055
000220 41 f6 6f bd b4 93 a0 3d f8 a4 66 3e 24 53 c2 bd
       -0.058584455 0.07840672 0.22523868 -0.09488514
000230 5f 8b 21 be 27 77 17 be 11 1c 79 3a 73 4f 37 3e
       -0.15775822 -0.14791547 0.00095027784 0.17901401
000240 6e 67 cc 3a bd 1b 4c 3e b6 65 99 3d 8e 8a 06 be
       0.0015594789 0.19932456 0.07490103 -0.13138792
000250 78 da 40 3e 97 da 25 3e 83 4f 1b 3e 58 93 b5 bd
       0.18833339 0.16196667 0.1516705 -0.08865994
000260 89 0c b3 ba e3 b6 7d 3d 2d 26 42 bd 88 a7 0a be
       -0.0013660352 0.061941992 -0.04739969 -0.1354047
000270 9e a6 e0 bd e4 73 6e bd 47 05 80 3d 12 6a b4 3d
       -0.1096928 -0.05821599 0.062510066 0.08809294
000280 76 94 76 bd 7b 71 9e bc 67 e4 0d be 9d 97 57 3e
       -0.060200177 -0.019341221 -0.1385666 0.2105393
000290 a6 1a 51 3e 6d 19 08 3d d6 52 8c bd a8 28 03 3e
       0.20420322 0.033227373 -0.06851737 0.12808478
0002a0 6d 9c 12 3e c6 83 e8 3d 33 a6 08 3e 82 76 34 3e
       0.14317484 0.11353259 0.1334465 0.17623332
0002b0 3f aa 9d 3a 6a c6 31 be 02 bf 69 3e 1d c4 c5 bc
       0.0012028887 -0.17360845 0.2282677 -0.024141366
0002c0 22 18 ff bd b0 76 56 3e fc d8 2f 3e e3 b7 33 3e
       -0.12455775 0.20943713 0.17172617 0.17550616
0002d0 2e 8d 98 3d 9f b7 37 3d f3 1f 05 bd 71 c9 6e bd
       0.07448803 0.04485285 -0.032501172 -0.05829758
0002e0 b3 e5 d0 3c ed 8b 31 3c 67 78 45 bd 4d 78 61 3e
       0.025500154 0.010836584 -0.048210528 0.22018547
0002f0 77 36 46 3e 3a 3a aa 3c 68 25 1e 3e 1b 98 5a 3a
       0.19356714 0.020779718 0.15443957 0.00083387055
000300 22 a5 e8 bd 4e 70 5d 3d 3c 93 97 bc 7f ad 5d 3e
       -0.113596216 0.05406218 -0.018502824 0.21648215
000310 e1 53 2e 3c 22 ee 39 3e 0e 7d 27 3e 7d 27 3d bd
       0.0106401155 0.18157247 0.16356298 -0.046180237
000320 6a 2f 92 bd b5 6c 01 3d 9b 30 01 be 4d 9b b1 bc
       -0.0713795 0.03159781 -0.12616198 -0.021680498
000330 62 c1 b7 bd ed dc 18 be c9 4d 19 be f9 cd 57 3e
       -0.08972432 -0.14928026 -0.14971079 0.21074666
000340 c9 8d 72 bd 8f a2 53 bd e2 9a 3c 3d 70 54 1e be
       -0.059217248 -0.0516687 0.046046145 -0.15461898
000350 37 5e c6 3d 23 2d 17 3e 04 28 21 be e1 b3 00 3e
       0.09685939 0.14763312 -0.15737921 0.12568618
000360 7c 0b 46 3e 4d b1 c1 bd d7 23 20 3e ac aa 5a 3d
       0.19340318 -0.094576456 0.15638672 0.05338542
000370 e1 32 6b 3c 3e 71 88 3d a7 c5 02 3e 7d 61 0f be
       0.014355392 0.06662224 0.12770711 -0.14002033
000380 57 6f 12 3e 9d 11 bc 3d e5 dc 8e 3d 13 44 b7 bc
       0.14300285 0.09183047 0.06975726 -0.022371328
000390 56 91 f8 3d 12 65 cc bd 21 02 cd 3d c6 34 ef bc
       0.12137096 -0.09980215 0.10010172 -0.029199969
0003a0 81 bd b5 bc fb eb f9 bd ac 25 37 be 6f c0 da bd
       -0.022185089 -0.12203213 -0.17885464 -0.10681235
0003b0 97 49 f6 bd 8a 16 bf 3d 07 7d 82 bd 93 29 93 be
       -0.12025755 0.09330471 -0.06371503 -0.28742656
0003c0 c3 40 6f 3e 22 11 57 3e c1 34 b0 3d a8 38 d9 3d
       0.23364548 0.2100263 0.08603812 0.106065094
0003d0 e2 2d 40 bd 68 fb 3e 3e dc 17 12 3e 65 44 0d 3e
       -0.046918757 0.18650591 0.14266914 0.13795622
0003e0 81 3c a1 3d c4 05 4b be 61 72 60 3e b4 ae 21 be
       0.07872868 -0.19826418 0.21918632 -0.157893
0003f0 af 88 15 3e 64 f7 0a be a1 36 f2 bd 3b a3 1e 3e
       0.14602922 -0.13570935 -0.11826826 0.15491955

encoder.conv.0.bias f4 [64]
000000 68 e9 d6 bc 18 a9 8d bd 90 3f ef bd 91 90 72 3d
       -0.026234344 -0.06917018 -0.116820455 0.0592199
000010 18 aa 59 3d ec cc f6 bd dd a5 e5 bc 22 31 16 be
       0.05314073 -0.120508045 -0.028033191 -0.1466718
000020 2d 67 e4 3d 45 a2 dd bc 5e c5 60 3e 51 92 a6 3d
       0.11152492 -0.027054915 0.2195029 0.081333764
000030 00 0e be bd 27 42 31 3d 28 43 87 3e 9d 3e 72 bc
       -0.09280014 0.04327598 0.26418424 -0.014785436
000040 db a6 a1 3c fc 79 8c bc e0 e0 bc bd c5 9f 1b 3d
       0.019732883 -0.01714801 -0.09222579 0.037994165
000050 ef 8f 17 be 5f 44 15 be aa 6a 7b 3e 5e ff 7e 3d
       -0.14801 -0.14576863 0.24552408 0.062255256
000060 1b 2e 8f 3d 7e 47 34 be 6a 8d 57 3e 4a ac 5b 3e
       0.06991216 -0.17605397 0.21050039 0.21452442
000070 af e6 10 3e 5f 96 84 bd 12 6b 89 3d 63 46 f9 bd
       0.14150499 -0.064739935 0.06709875 -0.12171628
000080 80 7d e6 3d c0 1a 4d 3e ae 7c 97 3d 81 57 19 3e
       0.11254406 0.20029736 0.07396828 0.14974786
000090 71 22 b1 bd 31 c5 ac 3d a8 58 c4 3d 9b e6 36 bd
       -0.08649147 0.08436049 0.09587222 -0.044653516
0000a0 07 75 16 be cd c9 10 be 95 75 b4 3d 3f a7 5c 3e
       -0.1469308 -0.14139481 0.088114895 0.21548174
0000b0 b1 7c 16 be ed 33 04 3d 03 c0 b8 3b ab 3b b9 3b
       -0.14696003 0.032276083 0.005638124 0.005652865
0000c0 51 3e 43 3e 78 05 d4 bd c3 8c 51 3e 8d 2a 63 3d
       0.1906674 -0.103526056 0.20463853 0.0554605
0000d0 e0 28 43 3e a5 cb 84 3d 84 93 97 3d 5f 82 68 3e
       0.19058561 0.064841546 0.07401183 0.22705983
0000e0 36 59 18 3e 32 92 bd 3d ad 9b bc bd a6 d9 6a 3e
       0.14877781 0.092564 -0.0920938 0.22934589
0000f0 9e 31 2c 3e c0 99 42 be ad 43 51 3e f6 dc 48 be
       0.16815802 -0.19003963 0.20435973 -0.1961554

encoder.conv.2.weight f4 [64, 64, 5]
000000 0b a0 c0 bc 08 c7 84 3a ab 60 46 3d f8 a2 09 bd
       -0.023513814 0.0010130117 0.048432034 -0.033602685
000010 fe c4 46 bd da de fa 3c c9 f0 5c 3d ff cc 11 bc
       -0.04852771 0.030623842 0.053940568 -0.0088989725
000020 f7 57 a7 bd 9b d2 83 bd cb c6 e2 bc 5d d2 d8 3c
       -0.08171075 -0.06436654 -0.027682682 0.026467497
000030 46 04 2e 3d b8 92 51 bd f9 45 2f bc be cf 7d 3d
       0.042484544 -0.051165313 -0.010697835 0.061965697
000040 ab 8a a5 bb 50 1c 5b bb d3 71 2b 3d e4 1f 1d bc
       -0.005051931 -0.0033433624 0.041856598 -0.009590123
000050 56 01 00 3e 8b 4e f8 3d fa 37 3e 3d e5 a7 fb ba
       0.1250051 0.12124356 0.046440102 -0.0019199817
000060 3c 5f d6 3b c9 22 94 3d c6 48 e5 3c 41 d7 62 bd
       0.0065421145 0.07233197 0.027988803 -0.055381063
000070 84 76 dd bc f4 55 92 bc 0e 70 92 3c 94 dc 6a 3c
       -0.027034052 -0.017863251 0.017875697 0.0143348165
000080 89 7e c1 3c 46 ea b8 3c ca d4 36 bc 62 93 3a 3d
       0.023619907 0.022572648 -0.011159131 0.04555071
000090 88 b1 e0 bc ab 54 c9 bb e0 c7 20 bd bc a2 01 3d
       -0.027428403 -0.0061441264 -0.039253116 0.031649336
0000a0 d2 b3 59 3d 55 c3 18 3d f0 01 34 3d c7 aa 8d 3d
       0.053150006 0.03729566 0.04394716 0.06917339
0000b0 a6 6e 88 3d 75 3c e7 3d 3f a0 17 3d ec dd 2e bd
       0.066617295 0.11290828 0.037018057 -0.04269211
0000c0 e6 d0 8f 3b 8b cf 96 3d 1f 61 a2 3d 8f c3 e6 3d
       0.0043889163 0.073638044 0.07928681 0.112677686
0000d0 fd 8b ba bc 8f 3c 98 bb 74 2d 3f bd db 8b 2f 3d
       -0.02277183 -0.004645891 -0.046674207 0.042857986
0000e0 2e 18 f9 bc a6 3e a8 3b 90 4e 82 3c 9f 0e 68 bc
       -0.030407038 0.0051344214 0.015906602 -0.014163642
0000f0 f4 e9 28 3e 21 55 ca 3d 5d 6d 07 bd cd c7 62 bd
       0.16495496 0.09879518 -0.03306328 -0.055366326
000100 e7 82 e8 3c 04 31 15 bd 9c a0 06 3d 05 c8 5e 3b
       0.028382732 -0.036423698 0.032868013 0.0033993733
000110 d0 57 e2 3c 85 ba 95 3d ca 51 30 bd 93 ba 2b 3d
       0.027629763 0.073109664 -0.04304675 0.041925978
000120 ca ed 5a bb 42 ac 63 3d f8 1c 0a bb cb 65 1e be
       -0.0033405893 0.0555842 -0.0021074396 -0.15468518
000130 2d 46 47 be c6 d0 90 3d 96 9f d1 3d 87 c1 e9 3d
       -0.19460364 0.070710704 0.10235517 0.114138655
000140 42 56 f1 3d 08 84 12 3d 80 e2 57 3d 28 68 19 bd
       0.117840305 0.035770446 0.05270624 -0.037452847
000150 a6 39 44 3d 01 39 8c 3d 56 67 7d 3d 28 c8 45 3d
       0.04790654 0.0684681 0.061866127 0.048286587
000160 b4 22 20 bc e7 ea f0 bb f0 d4 38 3d 7e 9d 3f 3d
       -0.009773899 -0.0073522213 0.045124948 0.046781056
000170 b5 fc 21 3c 81 ac f2 3b 3a ce d1 3c 43 bb bc 3c
       0.00988691 0.007405818 0.025611032 0.023038512
000180 c7 27 94 bb a0 da 98 3c ab 3e 6d 3d 65 1d 23 3d
       -0.0045213434 0.018658936 0.057921093 0.039822955
000190 31 f7 89 bc fc 68 e9 bb 43 5c 74 bd b1 59 8a bc
       -0.016841503 -0.007123111 -0.0596583 -0.016888471
0001a0 a6 9e 3b 3d 71 76 97 3d a5 8e a4 3b 59 a1 cd b7
       0.045805596 0.07395638 0.0050218874 -2.4513038e-05
0001b0 db 83 0b 3c d1 eb 7b bc 9c d9 ab bc 9e bc aa bc
       0.0085153235 -0.015376047 -0.020977788 -0.020841893
0001c0 28 cb a2 bb 7d a3 91 bc bb da 1f bd 2b 7e e4 3c
       -0.004968066 -0.017778153 -0.039026957 0.027892193
0001d0 64 11 a7 bb 32 a5 a5 3b 96 64 0a 3c 91 ca 7d bc
       -0.0050985087 0.005055093 0.008446833 -0.01549019
0001e0 c6 51 20 3d 89 ee 0e 3d 35 0a 9c 3d c0 00 a9 3d
       0.039140485 0.034895454 0.07619134 0.08252096
0001f0 4c 78 7e ba 1a 0d 56 3d 15 23 42 3d d4 7d 72 bd
       -0.00097072567 0.05225859 0.047396738 -0.05920203
000200 33 88 9d 3c 3d 51 4e 39 76 75 89 3d aa e8 91 3d
       0.019229984 0.00019675955 0.06711857 0.07124455
000210 08 db 85 3c c7 12 80 3c d0 08 58 3d e6 ee 8a 3d
       0.016339794 0.015633954 0.05274278 0.067838475
000220 64 74 b6 3d 41 10 c9 3a 15 e3 4e 3b df 03 03 3c
       0.089089185 0.0015339927 0.0031568457 0.007996528
000230 ca ac d3 3d d5 7c 5e 3d 7a d4 58 3d 75 3b 44 bd
       0.10335691 0.054318268 0.05293701 -0.047908265
000240 66 e8 61 3c 7f b1 fd bc 08 40 cb bd c5 6a 02 bd
       0.013788318 -0.030968426 -0.09924322 -0.031840105
000250 9e a4 1a bd b2 d6 9e bd 12 91 82 3c 86 40 93 bc
       -0.037754647 -0.07755794 0.015938316 -0.017975103
000260 46 44 9f 3d 0e ec bb 3d 08 ab 92 3a 2a af b3 3d
       0.07776694 0.09175883 0.0011189887 0.08773644
000270 1c 9b a4 bb 50 b7 3d 3d d4 e9 8d bc 22 a9 e5 3d
       -0.0050233733 0.0463174 -0.017323412 0.112139
000280 b7 1c 25 3e b4 53 be 3d 69 4f 6c 3d b4 82 cc 3c
       0.16124235 0.09293309 0.05769292 0.024964668
000290 85 6d ab 3c 5b 9e 30 bc e7 c8 00 bc 61 c8 42 3d
       0.020926246 -0.010779942 -0.007860399 0.047554377
0002a0 ce 1c 05 bd 38 f9 f2 bc c3 bc 91 3d a8 ed a0 3c
       -0.032498173 -0.029659852 0.071160816 0.019644573
0002b0 db 08 68 3d 2f ce f3 bc 10 05 a8 bc 4a 51 d0 3d
       0.05664907 -0.029761402 -0.020510226 0.10171755
0002c0 31 35 4e bb 08 95 c2 bc 04 b0 34 3d 71 27 2c 3d
       -0.003146481 -0.023752704 0.044113174 0.0420298
0002d0 6f 92 a0 bb e4 d4 04 bd d6 3a 84 bd ff 64 4f bd
       -0.0049002687 -0.03242959 -0.064565346 -0.050633427
0002e0 da ee 92 3c ea 9b c3 bc 04 cf 1a bd 6a 03 b8 bc
       0.017936159 -0.023878057 -0.03779508 -0.022462565
0002f0 d4 d8 aa 3b 35 b8 3f 3b bb 94 ac 3d 5e e4 8c 3d
       0.005213836 0.0029254083 0.084268056 0.06879495
000300 01 b8 3d bd ee 8e 25 3c 71 2f f2 3c fe 47 85 bc
       -0.046318058 0.010104878 0.029563637 -0.01626968
000310 82 ef 24 bc 0b 57 1a bd 54 9a 97 bc 13 5d 66 bc
       -0.010066869 -0.037680667 -0.018506207 -0.014060277
000320 e1 4c ba bc 40 72 af 3c 1e cf 13 bd 00 bd b9 3b
       -0.022741737 0.021416783 -0.036086194 0.0056682825
000330 9c ae a2 bc 6f 5b e0 bc 69 7f 13 3d 6f 00 1e bc
       -0.01985865 -0.027387349 0.03601018 -0.009643658
000340 5b 51 f7 3c 48 74 0f bc 4c ad 51 3b 84 3b 45 3d
       0.03019016 -0.008755751 0.0031994162 0.04815246
000350 d6 5f 20 bc d3 89 ce 3c 7d 0a e4 3d 8e ce 40 3d
       -0.009788474 0.025212204 0.11134813 0.047071986
000360 41 06 1c 3d 2a 2d a8 3c 4b d2 71 3c 31 1f 66 3d
       0.0380919 0.020529348 0.01475961 0.05618209
000370 b2 b3 05 bd de d3 47 3c 1a 9d a2 3c c3 b4 c0 3c
       -0.032642074 0.012196509 0.019850302 0.023523694
000380 2d 71 59 3d a2 02 19 3d 7c 54 b4 3d e6 79 56 bd
       0.05308645 0.037356026 0.088051766 -0.052362345
000390 a2 c1 71 3c 26 f1 ea 3c 92 c7 d9 3d a3 3f b1 3c
       0.014755638 0.028679442 0.10633768 0.02163679
0003a0 cd c8 03 3d d4 52 fc 3d 39 8b 0c 3e 03 73 46 3d
       0.03217392 0.12320486 0.13724984 0.048449527
0003b0 0b 51 8a 3d b4 ef 04 bc 79 3c 5b bc 1f cb 1c 3c
       0.06753739 -0.00811379 -0.013381117 0.009569912
0003c0 f3 9a b0 3c 57 3c 35 3d c6 33 d7 bb 78 45 73 3d
       0.02155826 0.044246998 -0.006567451 0.059392422
0003d0 a8 57 91 3d 77 21 04 3e 0b 93 82 bd 01 26 80 3d
       0.07096797 0.12903391 -0.063757025 0.06257249
0003e0 14 ae 29 bd 07 e4 9d bd ee c3 b3 3c e8 7d 43 3d
       -0.04142578 -0.077095084 0.021944012 0.047727495
0003f0 2f 9c 68 3d 23 01 f2 3c 28 1e be b8 c6 6a f5 3c
       0.056789573 0.029541558 -9.065523e-05 0.02995814

encoder.conv.2.bias f4 [64]
000000 8c 6c 34 3d ad 10 2a 3d fb f2 9d 3d 77 94 1a 3d
       0.04404883 0.04151981 0.077123605 0.037739243
000010 a7 a7 6a 3d 42 b4 82 bc e9 29 fe 3c 88 f6 60 bd
       0.057288792 -0.015955094 0.031025844 -0.05492261
000020 02 b3 97 ba 6f 32 c3 3c 1a 8d 40 3c 24 90 60 3d
       -0.0011573734 0.02382776 0.011752391 0.054824963
000030 c1 36 6e 3c fc 4f de 3b 79 6e ba bc 13 bd 01 3d
       0.014539422 0.006784437 -0.022757756 0.031674456
000040 ed 13 4e 3d 3c 26 48 bd 29 c3 a7 3c 06 67 b8 3d
       0.05031197 -0.04886459 0.020478802 0.09004025
000050 51 e5 b5 3d 54 a5 46 3c c0 cc 2a 3d c9 b8 97 3a
       0.08881629 0.012124378 0.04169917 0.0011575456
000060 0d 13 ff bc 7a 79 ac 3b 08 38 77 bb bb 2a 91 3d
       -0.031137014 0.0052635046 -0.0037722606 0.07088228
000070 25 0e 00 3d 35 50 3f 3d 81 a1 53 3d b0 f9 5e bd
       0.03126349 0.04670735 0.051667694 -0.05443734
000080 79 56 0d 3d ea aa 43 bd ff 3a 6f 3d d9 15 88 bb
       0.034506295 -0.04777042 0.058405872 -0.004152995
000090 81 42 cc bc 7f d6 c7 3c 2a f2 1c bd 13 78 25 3c
       -0.024934055 0.024394272 -0.038316883 0.010099429
0000a0 a0 50 bb bc 6b 6b 38 bb a5 89 ad 3c 5c 32 fb 3c
       -0.022865593 -0.0028140198 0.021183798 0.030663662
0000b0 39 6d e9 3c ec cd ad bc 1e b5 82 3c 9c da 18 3b
       0.028494464 -0.021216355 0.015955504 0.002332366
0000c0 ab a9 2b 3c e1 22 d6 bc 3a 5b ed 3c a7 f2 be 3c
       0.010477464 -0.026139678 0.028974164 0.023309065
0000d0 d6 25 67 bd ea 2f 75 3c 9b ba 58 bc 99 d5 9c 3d
       -0.056432568 0.014965037 -0.013228084 0.07657928
0000e0 88 8e 53 3d d6 e5 57 3c c3 74 57 bd 36 24 46 3d
       0.0516496 0.013177356 -0.052601587 0.048374377
0000f0 df 32 08 3d d4 41 ee bc 28 21 86 bc c1 99 f8 3c
       0.03325164 -0.029084124 -0.016373232 0.030346753

encoder.conv.4.weight f4 [8, 64, 3]
000000 09 84 1b bd c1 bb 98 bd 4b 41 2d bd fd b9 ba ba
       -0.037967715 -0.07457686 -0.042298596 -0.0014246103
000010 29 f9 43 bd 3a 29 ac bc f4 c6 82 bd 3f ee e7 3b
       -0.04784504 -0.021015752 -0.063856035 0.0070779617
000020 3d 03 f2 3c 6f f2 88 bd 4f 2e 3f 3d ad e6 9f 3d
       0.02954256 -0.066868655 0.046675023 0.0780767
000030 ff 87 40 3d bb 40 a9 bd 2f c6 d6 bd b3 f8 58 3d
       0.047004696 -0.082642995 -0.10487019 0.052971553
000040 08 18 14 3c 63 0c 50 bd 34 c3 43 3c cf dd 1f bd
       0.009038933 -0.050793063 0.0119483955 -0.039029893
000050 a3 41 d2 3c e9 0f 01 3d a0 90 8c 3d 1c 73 5c bd
       0.025666064 0.031509314 0.068635225 -0.053820714
000060 36 c6 62 3d 9f 61 30 bd 84 9a 58 3d 7f c4 87 bc
       0.05536481 -0.04306185 0.052881733 -0.016573189
000070 08 54 66 3d 05 58 88 3d 1f 96 22 bd 66 ab 93 bd
       0.056232482 0.066574134 -0.039693948 -0.07210426
000080 3b 47 dd bd 01 03 bb 3c 59 d5 70 3d 05 7e e8 3b
       -0.10804602 0.02282858 0.058797214 0.007095101
000090 d3 6c 4e bd 78 00 42 3d d0 3e ad bc 83 4d 35 bc
       -0.05039675 0.04736373 -0.021148115 -0.0110658435
0000a0 fc 47 08 bd a9 d0 21 bd b2 53 9a 3d 04 a6 0c bd
       -0.033271775 -0.039505634 0.07535495 -0.034338012
0000b0 47 40 26 bd 8a fc 70 3d 36 33 69 3d 7f 2b c2 bc
       -0.040588643 0.05883459 0.056933604 -0.023702381
0000c0 2e 28 8f bd 4e 22 db ba c2 68 7a bd b8 d6 66 3d
       -0.069900855 -0.0016718598 -0.06113506 0.056357116
0000d0 81 ec 70 bd f9 19 c2 3c 8f 47 bf bd 21 30 57 bd
       -0.058819298 0.023694025 -0.093398206 -0.052536134
0000e0 66 26 61 bc b4 b3 8a 3c fd d3 a4 bd 61 d4 a0 3c
       -0.013742065 0.016931392 -0.08048246 0.01963252
0000f0 8b 2c eb bc 02 48 64 bd 17 b2 87 bc 32 3e 6d 3d
       -0.028707763 -0.055732735 -0.016564412 0.057920642
000100 07 5f 67 3d 1b 19 83 3d f5 6d 7f 3d fd 79 73 3d
       0.05648711 0.06401273 0.062360723 0.05944251
000110 bd c0 4b 3d 9e 56 35 3d fa b2 04 3d 87 27 b9 bc
       0.049744356 0.044272058 0.032397248 -0.022601856
000120 1f ea ef 3c 70 c5 75 3a 93 9b 0c bd 65 3b 27 bd
       0.029286442 0.0009375429 -0.034328055 -0.040828127
000130 9c af 82 bd 3d 25 f4 bc e1 2d 69 3c be d4 2e bc
       -0.06381151 -0.029802913 0.01423213 -0.010670839
000140 ed 54 b5 3c 80 0d 14 3b d4 33 5a 3d d3 bf 7b bc
       0.022135222 0.0022591054 0.053272083 -0.015365559
000150 0b d4 9c 3d 58 2b 0f 3c 83 93 8a bc 13 ff d4 3b
       0.076576315 0.008738361 -0.016916042 0.006500134
000160 f9 e8 ca bd ab d4 45 bd 75 4a 0d 3d 09 5b 2b 3d
       -0.09907717 -0.04829852 0.034494836 0.041834865
000170 bb 07 36 bd 1d b1 28 3d 25 05 59 3d c3 e2 85 3d
       -0.044440966 0.041184533 0.05298342 0.06537392
000180 65 a3 53 3d 06 88 a1 bd da ef 98 bd 30 d0 4e 3d
       0.051669497 -0.078872725 -0.07467623 0.05049151
000190 fc 99 00 3c a7 cd 71 3d d5 5e a1 3d cc 29 c7 bc
       0.007849213 0.059034016 0.07879416 -0.024311922
0001a0 d6 16 5c bd 29 ec 64 bd 3d 02 59 ba 64 d2 02 bb
       -0.053732716 -0.055889282 -0.00082782266 -0.0019961828
0001b0 da 52 88 3d c3 24 65 bd 07 46 d0 3c 37 26 9f 3c
       0.06656428 -0.05594326 0.025424017 0.019427402
0001c0 d9 81 d5 bc 2d 3a ef bc 62 fb c2 3c 68 db 65 3d
       -0.026062893 -0.029202545 0.02380151 0.056117445
0001d0 df ff cd 3c 2a b1 81 bd 6d 1d 8b bd 3e 4b 2d bc
       0.025146423 -0.063326195 -0.06792722 -0.010577021
0001e0 39 04 9f 3d cf 55 62 bc 1e 6e c2 3c 81 b9 17 bd
       0.07764477 -0.013814404 0.023734149 -0.037042145
0001f0 6d 4f 61 3b c1 19 1e 3d 35 d3 7e bc fe 82 ef bd
       0.0034379617 0.03859878 -0.015553285 -0.11694907
000200 5d 44 d6 bd ba 1e d6 bc bc 58 f4 bc 54 69 33 3d
       -0.10462258 -0.026137698 -0.029827468 0.04380162
000210 f1 a3 5d 3c a7 ed 7c bd 9a e6 c9 bc 8b 56 b5 3d
       0.013527856 -0.06175008 -0.024646092 0.088543974
000220 28 6a 20 bd b5 50 6c bd 70 e3 25 bd d2 af 39 3d
       -0.03916374 -0.057694156 -0.040500104 0.04533369
000230 78 b6 d8 3d 28 8e 02 3d d1 51 61 3d 7c 3a 3c 3d
       0.10581678 0.031873852 0.055009667 0.045954213
000240 43 c4 17 3d 11 c6 12 3d b7 98 e1 3c 20 14 06 bd
       0.037052404 0.035833422 0.02753864 -0.032734036
000250 a0 71 75 3c 5a 2a 5d bc 5f a8 8f bc 66 f0 c5 bc
       0.014980704 -0.013498867 -0.01753634 -0.024162482
000260 5b d5 02 3b ae 4a bb bd 00 32 71 bd 1a 5e 82 ba
       0.0019963596 -0.091451034 -0.058885574 -0.0009946257
000270 71 2d 20 3d ae dd 91 3d e4 2b 4a 3d 00 a8 b1 bc
       0.039105836 0.0712236 0.049358264 -0.021686554
000280 a5 0f 6b bd 34 f1 45 3d f9 5c 5f 3d 49 28 53 3c
       -0.057387967 0.048325732 0.054532025 0.012888023
000290 3f 25 ab 3c 9d f1 b9 bb 3b 04 9f bb ef 9b 1a bd
       0.020891784 -0.0056745545 -0.0048527992 -0.037746366
0002a0 45 ff 86 3d a7 96 6e bc cd 25 2c 3d 87 5e 89 3d
       0.065916575 -0.0145622855 0.042028237 0.06707483
0002b0 89 d0 4a 3d 18 57 6f 3d 31 2b ad 3b 1b cf df 3d
       0.04951528 0.05843267 0.00528469 0.10928174
0002c0 67 49 bf 3d e5 b6 94 bd 45 fa 36 3d 41 12 e0 bd
       0.09340172 -0.07261447 0.04467227 -0.10940982
0002d0 90 4a 86 3c 40 70 92 3d aa 47 a2 3d a3 86 2a 3d
       0.016392976 0.07150316 0.07923825 0.041632306
0002e0 0c 61 70 3d 01 65 56 3c fe a5 02 3d 7a ab 85 bd
       0.0586863 0.013085605 0.031896584 -0.06526847
0002f0 62 c3 34 bd 3d 1a 94 bd 24 2c 04 bd 7c b5 e9 bd
       -0.044131644 -0.07231567 -0.03226866 -0.114115685
000300 f4 7f c2 bc 65 fe b6 bd 36 c9 91 3d ce 89 65 bd
       -0.023742653 -0.08935241 0.07118456 -0.056039624
000310 69 36 9f 3d c8 4a 94 bd d8 30 e3 39 24 2e 42 3c
       0.0777405 -0.07240826 0.00043333205 0.011851821
000320 40 c3 e5 3c 59 18 6b 3d fc 0c 6f 3d 0c 1f 8d ba
       0.028047204 0.057396267 0.058361992 -0.0010766699
000330 6f 43 a2 bd 75 6d 85 3c 7f f3 96 3d ca 44 63 3d
       -0.07923018 0.016287545 0.07370662 0.055485524
000340 c8 b2 70 3c 92 c9 5a bd 74 1c 55 3d a9 f9 71 3d
       0.014691062 -0.05341489 0.05202909 0.059075985
000350 04 84 67 3b 3a af 83 3d 0d 7f d2 3d b7 7b b6 3d
       0.003532649 0.06429906 0.10278139 0.089103155
000360 86 b9 02 be b2 89 ec bd c7 37 fa bc b7 ea 39 3d
       -0.12766084 -0.11549701 -0.030544175 0.045389857
000370 c1 42 55 bd ca f9 74 bd 45 a9 a7 bd 66 e1 d6 bd
       -0.052065615 -0.05980853 -0.081865825 -0.1049221
000380 59 eb e9 3d 3b d8 32 3c d6 6f 1f 3c b3 88 85 3c
       0.11421842 0.010915811 0.009731254 0.016300535
000390 e7 46 ab bc 87 ab 87 3d bb df 05 bc 51 49 d5 bd
       -0.020907832 0.06624513 -0.008171017 -0.104143746
0003a0 48 9e a9 bd 7b 97 58 bd ce 79 97 3d 80 b0 25 3d
       -0.08282143 -0.052878838 0.07396279 0.040451527
0003b0 5f 00 f1 bc f1 59 72 bd f9 d0 28 3c f2 8a 5d bc
       -0.029419122 -0.059167806 0.010303729 -0.013521897
0003c0 35 71 ff bc 74 67 4f 3d 9b ee 62 bd 95 a8 ff 3c
       -0.031181911 0.05063577 -0.055403333 0.031208316
0003d0 10 33 bf bb 6a 74 c9 3b be bd b1 3d fd 33 18 3d
       -0.0058349445 0.006147911 0.086787686 0.037158955
0003e0 26 4f 66 3d 36 79 de bd b7 a5 9e bd 87 a0 b3 3c
       0.056227826 -0.10862963 -0.07746451 0.021927131
0003f0 70 cb c6 bd f1 df b5 bd 83 93 27 bd 9e 8d 4c bc
       -0.097067714 -0.08880604 -0.040912163 -0.012484936

encoder.conv.4.bias f4 [8]
000000 ec d3 aa 3c e6 e5 f8 3b fd 8b 3f 3d 4c cc 46 3d
       0.020853005 0.0075957654 0.046764363 0.048534676
000010 9f e4 92 bd d8 42 1d 3d d8 77 16 3d 53 bd aa 3b
       -0.07172512 0.038393825 0.036735386 0.0052105575

vq.embedding.weight f4 [32, 8]
000000 60 0e 50 bc a0 e6 81 3c 54 90 35 bc c2 27 fa 3c
       -0.01269874 0.01585704 -0.011081774 0.030536536
000010 3a 19 fe bc 70 da c0 bc f2 23 8a 3c 08 b9 30 3c
       -0.031017888 -0.02354166 0.016862843 0.010786302
000020 90 a2 78 bb 00 6b 47 3a 16 24 93 bc c0 8d 9b 3a
       -0.0037938692 0.0007607192 -0.017961543 0.0011867806
000030 08 fe 1b bc 28 aa 83 bc 00 44 22 b9 74 5c 77 bc
       -0.009521015 -0.016072348 -0.00015474856 -0.015097726
000040 88 51 ec bb 5c 31 6f bc 30 5d 45 3c a0 18 9f ba
       -0.0072118677 -0.014599171 0.012046143 -0.0012138076
000050 12 45 e7 bc a8 35 19 bc f6 85 99 bc 66 9f de bc
       -0.028231177 -0.009351172 -0.018740635 -0.027175616
000060 e0 a0 43 bb 7a 58 aa bc 1e 0f f8 bc 20 9e 2d 3c
       -0.0029850528 -0.020794142 -0.030280646 0.010596782
000070 40 f3 55 3c 62 99 da bc 96 81 e6 3c aa 79 df 3c
       0.013058484 -0.026684467 0.028137963 0.027279694
000080 d8 92 a5 3b 4e 8f af bc c0 47 27 bb c0 39 36 ba
       0.0050529055 -0.021430638 -0.0025524944 -0.00069513544
000090 2e a0 e0 bc b8 4c de 3c b8 a5 db 3b 3e c6 f1 bc
       -0.02742013 0.027136192 0.006703105 -0.029513475
0000a0 78 30 2a 3c 00 f8 67 3b 68 81 46 3c ec 33 1f bc
       0.010387532 0.0035395622 0.012115814 -0.009716969
0000b0 16 94 ed 3c 84 65 ca bc 20 67 97 bc 14 5f 15 3c
       0.029001277 -0.02470661 -0.018481791 0.009116907
0000c0 18 da 67 3d f1 f2 60 3d 6a b4 ce 3c 52 45 27 3d
       0.056604475 0.054919187 0.025232513 0.040837593
0000d0 44 ba a9 b2 65 ad 0d 3d 63 8d c2 3d 41 2a 89 3d
       -1.9758893e-08 0.03458919 0.094996236 0.066975124
0000e0 4b ad 42 3e 4a b6 b3 3d f3 b9 24 3e d3 72 c6 3e
       0.19011419 0.08775003 0.16086559 0.3875948
0000f0 31 04 bf 92 63 e5 de 3e 28 19 24 3e 3b 25 9c 3d
       -1.2054828e-27 0.43534383 0.16025221 0.07624289
000100 50 37 c7 bb f4 81 12 bc 7a 83 dc 3c 92 50 fe bc
       -0.006079592 -0.008942116 0.026918162 -0.031044278
000110 f0 9d 08 3b e8 36 a5 bb 86 3f b6 bc 84 21 bc bc
       0.0020846091 -0.0050419457 -0.022247087 -0.0229652
000120 87 2e 0d 3d b9 22 05 3d e0 f4 b8 3b 51 b5 b1 3e
       0.0344682 0.032503817 0.0056444257 0.34708646
000130 8e db 08 91 df d5 ad 3e 40 16 e1 3e e9 d8 d0 3e
       -1.0796164e-28 0.33952233 0.43962288 0.4079049
000140 1e 22 a5 3c 02 cf cb 3c 66 a6 de bc 54 af d9 bc
       0.02015787 0.024878982 -0.027178954 -0.02657286
000150 68 74 f7 bc b4 cc 67 bc 08 c3 0f bc 70 1b 97 3b
       -0.030206874 -0.014147926 -0.008774526 0.004611425
000160 36 43 e9 bc 1c 08 4e 3c 80 e1 6a bc ce 7d 94 bc
       -0.028474431 0.012575176 -0.01433599 -0.018126395
000170 3a 8c 8f bc e8 40 99 bb a4 ad b8 3c d0 c4 9b bc
       -0.01752292 -0.004676927 0.022543736 -0.019014746
000180 76 17 d2 3d 8d b4 81 3e 63 a1 b5 3d e7 28 86 3e
       0.10258381 0.25333062 0.08868673 0.2620308
000190 ea be fe 17 87 3a 4e 3d 7f ea f5 3d ee 5a 83 3e
       1.6462559e-24 0.050348785 0.12007617 0.2565531
0001a0 26 39 73 3d 6c 93 a7 3d 66 f7 e3 3c e3 72 6d 3d
       0.059380673 0.08182415 0.02782793 0.057970893
0001b0 99 d1 c9 a6 5a c5 d9 3d 64 c6 1f 3d a8 f8 53 3d
       -1.4003988e-15 0.10633345 0.03900756 0.05175081
0001c0 80 85 b6 bc 54 bd 55 bc 2c 42 5d 3c 30 65 6b 3c
       -0.022280455 -0.013045628 0.013504546 0.014367387
0001d0 28 7a 5f bc e0 f3 83 bc cc 7d db 3c 38 45 e5 bc
       -0.013639964 -0.0161075 0.026793383 -0.027987108
0001e0 ec d2 b9 bc be f1 ab bc 64 fd 9a bc 80 84 ae 3c
       -0.022683583 -0.020989295 -0.018919654 0.021303415
0001f0 6c 89 b3 bc 5e b3 a8 3c 90 7a 80 3c 94 3a f3 bc
       -0.021916114 0.020593341 0.015683442 -0.029691018
000200 27 8d e3 3d 8f a6 dd 3e cb a1 b2 3d a4 90 3f 3d
       0.11110907 0.43291137 0.08722266 0.0467688
000210 4f 8a 1f 1c 2a b9 1f 3d b3 ce e0 3d 9a e9 97 3e
       5.2787447e-22 0.038994946 0.10976925 0.2967041
000220 d0 93 26 3c e8 b9 09 3c f2 89 e6 bc e4 64 02 bc
       0.010167077 0.00840614 -0.02814195 -0.0079586245
000230 40 d8 bc bc e0 1f a0 bc ac 30 9c bc ac 80 38 bc
       -0.023052335 -0.01954645 -0.019066177 -0.0112611465
000240 8d 07 7d 3e 4b f9 91 3e 88 c6 60 3e e2 64 5c 3e
       0.24709912 0.28510508 0.21950734 0.21522859
000250 da 24 4f 0f ed 5d 68 3e df bd dc 3c 18 db 86 3d
       1.0212985e-29 0.2269208 0.026946006 0.065847576
000260 5a f6 36 3d 1e d4 3b 3d e6 ba d0 3c 11 77 b6 3d
       0.044668533 0.045856588 0.025479745 0.08909429
000270 1c 26 8f b4 54 14 99 3c c8 5b d9 3c ad 9c 38 3d
       -2.6663554e-07 0.018686451 0.026533023 0.045071293
000280 1e 9b fa bc 7c d5 37 3c b4 43 4f 3c 96 c0 b0 bc
       -0.030591544 0.011220332 0.012650419 -0.021576207
000290 84 b0 66 3c 00 97 7b 39 f4 7c c4 bc 60 6c 59 3b
       0.014080171 0.00023993477 -0.023985364 0.0033176169
0002a0 0e 9f fb 3c c8 9f 49 bc b0 47 57 3c 32 20 e5 bc
       0.030715492 -0.012306161 0.01313965 -0.027969453
0002b0 4a b0 8b 3c d4 e6 45 bc 40 67 e7 bb 70 32 89 bb
       0.017051835 -0.0120789595 -0.007061869 -0.004186921
0002c0 fe 92 ba 3c 1a d1 c2 3c 88 96 f8 3b ac ef b0 bc
       0.02277517 0.023781348 0.007586304 -0.02159866
0002d0 d2 6a d7 bc 60 bd 0b bc 6a 35 b1 bc b4 de 06 3c
       -0.026296053 -0.008529037 -0.021631915 0.0082318075
0002e0 d8 4a 0d bc 02 5c 88 3c 04 a0 3c bc b0 4e 22 3b
       -0.008623801 0.016645435 -0.01151276 0.002476614
0002f0 36 ac 87 bc 32 dc 8e bc e4 88 83 bc c2 55 b4 bc
       -0.016561609 -0.017438982 -0.016056485 -0.022013549
000300 b4 5e a3 bc c0 00 ee bc e0 45 2d bc b0 3f 58 bb
       -0.019942619 -0.029053092 -0.0105757415 -0.0032996945
000310 2e 14 e6 3c 08 5f d7 3b 50 05 a0 3c 6e 3e c5 3c
       0.028085794 0.006572608 0.019533783 0.02407762
000320 68 e5 b0 3c fb e4 41 3e aa 55 c0 3b 22 18 c2 3d
       0.021593764 0.18935005 0.005869587 0.09477259
000330 ea c2 92 92 12 34 0f 3d d4 67 cd 3e e6 e7 11 3f
       -9.261945e-28 0.034961767 0.40118277 0.56994474
000340 c3 68 b5 3d e8 9a 33 3e 66 de bd 3c 5c 17 1d 3e
       0.08857872 0.17539561 0.023177337 0.15340942
000350 97 00 31 0b 2b 3e 79 3e e5 15 3a 3e ed 2b 24 3e
       3.4089404e-32 0.24340121 0.18172415 0.16032381
000360 b2 2e db bc 80 91 97 bb f0 5e 12 bb d0 d9 a0 3c
       -0.026755664 -0.0046254992 -0.002233442 0.019635111
000370 ca 04 ed bc 08 c7 6f bc 74 e8 ea bc 50 b0 1c 3c
       -0.028932948 -0.014634855 -0.028675295 0.009563521
000380 ce 6a 43 3d f8 0c 5b 3d 13 46 0a 3d 16 47 91 3c
       0.04770928 0.053479165 0.033758234 0.017734092
000390 3f 5e ac 37 cb d3 68 3c 88 04 c7 3b 51 97 c9 3b
       2.0547885e-05 0.014210652 0.006073538 0.0061520715
0003a0 b7 a0 0c 3d 76 ce 8d 3d ec f6 00 3c f5 fd c8 3c
       0.034332957 0.06924145 0.007871371 0.024535159
0003b0 55 31 8d 2e 1c 50 a1 3b 1d 5b 36 3d ee 93 8d 3d
       6.420701e-11 0.00492288 0.044520486 0.06912981
0003c0 44 0c b9 bc f0 bf 0d 3b a0 36 e5 3a 04 58 74 3c
       -0.022588857 0.0021629296 0.0017487593 0.014913563
0003d0 34 1a 58 bc 50 9f fb bc 60 52 d2 bc 0c 95 62 bc
       -0.013189841 -0.030715615 -0.025674045 -0.013829481
0003e0 a8 e7 ec bc 0c bb 93 bc d0 48 e6 3c 90 f2 c6 bc
       -0.028919056 -0.018033527 0.028110892 -0.024285585
0003f0 a4 da 27 bc 02 9d ba bc bc b3 14 3c 64 c7 05 bc
       -0.010244999 -0.022779945 0.009076055 -0.008165214

decoder.deconv.0.weight f4 [8, 64, 7]
000000 76 01 5b bb 7e 44 3e 3c dc 0e cf 3d 5f b7 56 bd
       -0.0033417619 0.0116130095 0.10110256 -0.05242097
000010 c6 64 47 3d de e4 c9 3c 52 14 3f bd b3 99 99 bd
       0.04868009 0.024645265 -0.04665024 -0.07500019
000020 40 44 08 3d ca df 7c bc b8 fd 62 3b 0d d7 8f 3c
       0.033268213 -0.015434215 0.0034636091 0.017558599
000030 21 93 c9 bb 7a b3 13 3d 1a b8 bd bb 9d c7 0a 3d
       -0.0061515723 0.036059834 -0.005789769 0.033881772
000040 34 0e 85 3c 8c dd de bc da c5 d1 bc b9 d2 13 3d
       0.016242124 -0.027205251 -0.025607038 0.036089633
000050 4a a3 04 3b c5 cd 17 bd d5 b9 31 3d 68 79 91 3c
       0.002023893 -0.03706147 0.043390114 0.017758086
000060 63 22 2e 3d 15 c6 ff 3c 57 24 22 bb 4e 57 0d 3d
       0.042513262 0.031222383 -0.0024740899 0.03450709
000070 6c ca 86 bd 69 2a 14 bd 24 c9 06 bd 2e 76 30 bc
       -0.06581578 -0.036173258 -0.032906666 -0.010770364
000080 89 04 38 3c 8b 1a 44 bc c3 d3 6d bc 2d b3 17 bd
       0.01123155 -0.011969219 -0.01451582 -0.03703611
000090 26 e9 1b 3c 58 ab 08 3d b9 a4 1d 3b 0b e7 1b bc
       0.009516036 0.03336653 0.0024054481 -0.009515534
0000a0 87 31 ac bc ec 56 87 3b 21 18 9c bd ca 99 00 3e
       -0.02101971 0.004130235 -0.0762179 0.12558666
0000b0 a4 e4 2e 3a 4f 2f 00 bb 89 12 6d 3d 19 98 b0 3d
       0.00066716434 -0.0019559448 0.057879005 0.0862276
0000c0 ad c6 08 bc 8f d0 50 bd cb 3b 83 bc f4 6e 02 3d
       -0.008348149 -0.050980147 -0.016019722 0.031844094
0000d0 c6 d6 d6 38 1a d1 c9 bc 86 29 2d 3d 74 2e 24 3b
       0.0001024432 -0.02463584 0.042275928 0.0025052102
0000e0 7a f2 5d bd df 06 cb bc 74 3d 56 3d 00 f3 41 3c
       -0.05418632 -0.02478355 0.0523047 0.011837721
0000f0 ea 36 44 3c 11 af 5f 3c cf 32 52 3d 77 18 a4 bc
       0.011975983 0.013652579 0.051317986 -0.020031197
000100 4b 04 2d 3d 06 2b 71 b9 52 3e 1f 3d 69 1c d6 39
       0.042240422 -0.00022999579 0.038877793 0.00040838428
000110 d7 bf b8 3c a0 77 0a bd b5 87 ff bc 54 fc e7 3a
       0.022552414 -0.03380549 -0.03119264 0.0017699101
000120 0c a5 88 3d 59 93 ef 3b 74 ea 03 3d 06 d7 64 3d
       0.06672105 0.0073112664 0.032206014 0.055869125
000130 6f ac 0a 3c f4 b2 29 3c c5 0f db bc 6f 0c 7f 3d
       0.008463963 0.010357607 -0.026740918 0.062267717
000140 d2 b6 f5 bc 09 27 3c 3d 22 38 db 3b 02 23 87 bd
       -0.029994402 0.045935664 0.006690041 -0.06598474
000150 31 4f 0f bd 71 8a d2 bc 34 e2 31 bd 81 3c 03 3d
       -0.034987632 -0.02570078 -0.043428615 0.032040123
000160 9a d5 2b bd 90 ae d6 3c 53 9c 6e 3c 94 3e 32 bd
       -0.041951753 0.026206285 0.014563638 -0.04351671
000170 4f 0b 7c 3c 52 ca 14 3d 46 19 0a bc a2 b2 cc bd
       0.015383556 0.03632576 -0.008428877 -0.09995009
000180 62 56 d2 bd 63 e5 05 be 97 41 0c bc 48 42 3b bd
       -0.102703825 -0.13075785 -0.00856056 -0.045717508
000190 99 1e ad bd 34 e8 ff 3b 63 fe 53 3d 11 a8 ef 3c
       -0.08453102 0.007809663 0.051756274 0.029254945
0001a0 04 69 c7 3d 0e 13 18 bd a7 71 a7 3c f0 da a3 3c
       0.09736827 -0.037127547 0.020439936 0.020001858
0001b0 fa d3 f0 ba 8e 48 60 3c 3c c6 00 3d f5 47 9e 3c
       -0.0018373721 0.013689173 0.03143905 0.019321421
0001c0 e2 fc d5 bc 8c db a6 bc 54 ce 8a 3c 87 87 f8 bc
       -0.02612156 -0.02036836 0.016944088 -0.030338062
0001d0 7e 3a f3 bc c6 b4 2b 3c 37 2e 33 3d e8 1c 68 bd
       -0.029690977 0.010480111 0.043745246 -0.056668192
0001e0 42 cb e4 bc fd ab b4 3b 72 53 1e bc 4e 64 87 3d
       -0.027928952 0.0055136667 -0.00966345 0.066109285
0001f0 5f 98 39 3c 00 2d 02 3d e1 2e e0 bb dd 42 d6 bc
       0.011327832 0.031781197 -0.006841526 -0.02615493
000200 a8 91 28 bd 27 d3 c0 bc c7 1e 87 3c ac a5 3a bd
       -0.041154534 -0.023538185 0.016494168 -0.045568153
000210 9e 8c 69 bc ae 88 2b bd 0c 9c b5 bc eb e6 8f 3d
       -0.014254717 -0.041878395 -0.022169136 0.07026466
000220 51 e8 b0 3c 9d 4d db 3b 6b 00 11 3d 3c ff 8a 3d
       0.021595152 0.006692602 0.03540079 0.06786963
000230 7d 3a 7a bd a4 17 0f 3a d8 85 66 3a f0 c0 ce 3c
       -0.061090935 0.000545854 0.0008793748 0.025238484
000240 a8 76 b9 3b 14 47 3e bc 91 e4 db bc bb 53 1b bd
       0.005659897 -0.011613626 -0.026842387 -0.03792165
000250 5e b5 d9 3b 3c 49 cd 3c 6a a8 9c 3c 53 1b 58 bc
       0.006643935 0.025059335 0.019123275 -0.013190108
000260 5c 04 09 3c a2 5f 53 bc 54 59 b8 bc ea d8 88 3c
       0.008362856 -0.012901219 -0.022503532 0.016704995
000270 ea e6 ab 3c 89 80 69 3d 03 4d 92 3d e3 78 2a 3d
       0.020984132 0.057007346 0.07143595 0.041619193
000280 09 b2 4a 3d cc a5 1c bc a3 3f 1f bd c7 3c d6 3c
       0.049486194 -0.009561013 -0.038879048 0.026152028
000290 0f a3 8f 3c 91 c5 5a 3d 25 05 9d 3d c7 53 dd bb
       0.017533807 0.05341107 0.07666997 -0.006754372
0002a0 24 43 a7 bc 2e 9f 88 bb 5f 48 bf 3c 98 f1 21 3d
       -0.020417757 -0.0041693663 0.023349939 0.039537042
0002b0 64 55 13 3c 0a 64 01 3b 51 cc 04 3d 78 95 8e bd
       0.008992527 0.0019743466 0.032421414 -0.06962103
0002c0 7b c0 e7 3c 21 77 b7 3b ee d9 5c 3d ff 6b c4 3c
       0.028290024 0.005598918 0.05391877 0.023977278
0002d0 39 63 51 3d 79 bf 88 3d 4f cb 22 3b 92 15 e6 3c
       0.051120017 0.066771455 0.002484042 0.028086457
0002e0 ac 03 96 3c 22 a0 33 3d aa 73 c2 3c 62 f7 2c 3d
       0.018312298 0.043853886 0.023736794 0.04222811
0002f0 24 79 16 bd df ae 80 bd 81 32 d5 3b 55 b2 db 3c
       -0.036736622 -0.06283354 0.0065062647 0.026818434
000300 d3 f5 ba 3c 64 30 d9 3c d3 85 db 3c c9 af 9e 3c
       0.022822296 0.026512332 0.02679721 0.01937093
000310 61 fa 85 bd 2e f4 2a bd 26 63 7b bc ad 82 3f 3d
       -0.065418966 -0.041736774 -0.015343463 0.04675548
000320 1f f8 29 3d 80 16 06 3d 43 36 52 bc 7b 02 cf 3c
       0.041496392 0.0327363 -0.01283032 0.025269737
000330 b9 f8 99 3c 83 92 5a bb b8 d3 d7 3c b8 b0 8f 3c
       0.018795358 -0.0033351488 0.026346073 0.01754032
000340 23 b5 36 3d 25 3d 97 bc 25 41 2e bd a4 12 a9 3b
       0.04460634 -0.018461773 -0.042542595 0.005159693
000350 0a d6 03 3d 06 6a 84 3c 5f 07 67 3d e3 64 fa bc
       0.032186545 0.016163837 0.056403514 -0.030565685
000360 bf 91 2f 3d 24 b8 a4 bd 53 7b a6 3b 5f f0 40 bc
       0.042863604 -0.080429345 0.0050806194 -0.011776059
000370 87 a6 ac 3b 08 67 13 bc 3b 56 a8 3c b8 3f 21 3d
       0.005268875 -0.0089967325 0.02054893 0.039367408
000380 e7 f3 03 bc 69 b7 c9 3b a5 37 3a 3d ce ec 8b 3d
       -0.008053756 0.0061558974 0.045463223 0.06832276
000390 e0 b6 2f 3d 69 aa 68 3d 79 a2 f7 bc a3 77 12 bd
       0.042899013 0.05680314 -0.03022884 -0.035758626
0003a0 c7 18 11 bd 4f 4a f8 bc 81 59 2c bd 56 79 6d 3d
       -0.03542402 -0.03030887 -0.042077545 0.057977043
0003b0 30 9c 50 bc 71 c0 bb bc 09 89 89 bc 70 db a1 3c
       -0.0127325505 -0.022918912 -0.016788976 0.019757956
0003c0 5a 72 15 3d b2 a6 05 3c 3e aa f1 bb 80 c8 03 bd
       0.036486007 0.008157419 -0.007375031 -0.032173634
0003d0 22 a1 12 3d 8a e6 dc bc 50 c9 2c 3c 87 06 63 3d
       0.0357982 -0.026965398 0.0105460435 0.055426147
0003e0 84 58 30 bc ca d5 b4 bc b0 47 2f ba a6 a2 57 3c
       -0.010763291 -0.022074599 -0.00066864025 0.013161337
0003f0 77 18 80 bd ba ed 22 bc 89 17 47 3b bb 71 74 3d
       -0.06254666 -0.009944374 0.0030379018 0.059678774

decoder.deconv.0.bias f4 [64]
000000 09 75 1e bc 4a 52 8d 3d 7e aa 06 bd e3 ff 2f bd
       -0.009671458 0.06900461 -0.032877438 -0.042968642
000010 3a 48 65 3d f3 6a 1a 3d 71 45 ce 3c 76 c6 58 3d
       0.055977084 0.03769965 0.025179597 0.052923642
000020 85 b8 37 3d 3e 49 8f 3d b4 40 26 3d 3d 47 00 bd
       0.044853706 0.06996392 0.04058905 -0.031317938
000030 57 13 2c bd 5f 5f 10 3d e5 a5 59 3c e2 62 44 3d
       -0.04201063 0.035247203 0.013284181 0.047945864
000040 ef bd 2f bd 6e 31 32 3d 39 ee 3d bd 53 c6 2a 3d
       -0.042905744 0.04350417 -0.046369765 0.041693043
000050 cf be 8f 3d b2 be 1c 3d 6e 1b 94 3d 44 87 8b 3d
       0.07018816 0.0382678 0.07231794 0.06812909
000060 b6 72 06 3d 2c 55 0a 3d 69 cf 0b bd b4 d8 94 3d
       0.03282424 0.033772632 -0.03413335 0.07267895
000070 83 ae 41 3d f9 19 ec bc da c2 84 3d 4b ce 00 3d
       0.047285568 -0.028820978 0.064824775 0.031446736
000080 c7 0b 5e 3d b5 fe 8d bc 18 ae a1 3d 34 42 28 3d
       0.05421045 -0.017333368 0.07894534 0.04107876
000090 63 0b 20 3d 07 be 51 3d f8 65 0e 3d 35 e3 17 bd
       0.03907336 0.051206615 0.034765214 -0.037081916
0000a0 56 6f 2a 3d a6 91 28 3d 5e b9 26 bd a0 b4 85 3d
       0.041610084 0.041154526 -0.040704124 0.06528592
0000b0 b3 88 2b 3d 3d bb 34 bd d9 74 fe bc 52 c2 0f 3d
       0.041878413 -0.044123877 -0.031061577 0.035097428
0000c0 4d 93 31 3d 9f f6 0b bd b8 4a 06 bd 54 9f 2d 3d
       0.043353368 -0.034170743 -0.0327861 0.042388275
0000d0 41 27 23 3d 0b c5 8a bc 7f f9 2a 3d 9b 33 36 3d
       0.039832357 -0.01693966 0.041741844 0.04448281
0000e0 cb 1a 46 3d 93 b9 28 bd d5 21 58 3d 83 49 64 3c
       0.048365396 -0.041192602 0.05276664 0.013933542
0000f0 56 80 61 3d a9 12 1a bd 2f d8 19 3d 22 ef 4c 3d
       0.05505403 -0.037615452 0.037559684 0.050032742

decoder.deconv.2.weight f4 [64, 64, 3]
000000 73 c5 13 3b 8a c3 90 bd 2a 7c 18 3d a3 ca 82 3d
       0.0022548109 -0.07068546 0.037227787 0.06386306
000010 66 e7 00 3d cd dd 17 3b 97 0b 7a 3d d2 b2 20 3d
       0.03147068 0.0023172975 0.06104621 0.039233036
000020 b7 40 6f 3d 6e 10 dc 3a 74 59 84 3d be 74 a2 3c
       0.058411326 0.0016789564 0.06462374 0.019831058
000030 de c6 4e 3b e3 29 8f bb e4 92 b0 3d 4d 8d b9 3d
       0.003155164 -0.004369007 0.08621767 0.09060154
000040 07 7c 0c 3d 72 0c cc bc e9 ee ad bb 70 09 cd bd
       0.03429797 -0.024908278 -0.0053080213 -0.10011566
000050 61 13 77 bd ed 59 68 bc 82 9d 5e 3d b1 9c 13 3d
       -0.060321216 -0.014181596 0.05434943 0.036038104
000060 b5 d4 25 bd 43 e3 13 3d 3f 9f d2 bc 12 51 9e 3d
       -0.040486056 0.036105406 -0.0257107 0.07730307
000070 d0 0f 16 bd 33 cd 27 bd e8 2b 74 3c 9e cd e5 3d
       -0.036636174 -0.040967178 0.014903046 0.11220859
000080 8d 4f bb 3d a4 6f b3 bd 75 16 90 3d 98 c4 a8 bc
       0.091460325 -0.08761528 0.07035533 -0.020601556
000090 f2 66 8b 3d 59 4a 20 bd 77 e2 e5 39 5a 95 cf 3d
       0.06806745 -0.039133403 0.00043847013 0.101359084
0000a0 15 fa 87 3d df 9e 2d bd 94 a8 e5 bd 24 8a c0 bd
       0.06639496 -0.04238784 -0.11213794 -0.09401348
0000b0 0d 00 a7 bc 42 41 c2 3c a6 d2 e8 3c f6 0d 46 bd
       -0.020385766 0.023712758 0.028420758 -0.048353158
0000c0 e8 53 2b 3d 48 9d cc 3b 8f 85 2c bd f5 fb 00 bc
       0.041828066 0.0062443353 -0.04211956 -0.007872571
0000d0 47 64 49 3d 93 06 be 3d 16 7d 6d bd 33 d1 ff 3c
       0.049167898 0.09278598 -0.05798062 0.031227684
0000e0 51 a0 91 bc d6 72 aa 3d b3 e6 b0 3d d9 19 a8 3c
       -0.01777664 0.083226845 0.086377524 0.020520138
0000f0 83 c9 6a 3d 72 76 85 3c 73 51 4d bd a0 ee cf 3d
       0.057321083 0.01629183 -0.050126504 0.10152936
000100 ae 39 7c 3d 41 48 45 bd 58 63 11 bc ae 30 99 3d
       0.061578445 -0.04816461 -0.008873783 0.07479988
000110 a2 1b b7 3c fc a5 46 3d df 2f e8 3a b5 c2 3c bc
       0.022352044 0.04849814 0.0017714462 -0.011521031
000120 b9 c7 89 3c 67 30 b4 bc 6b 5e 31 bc bf 08 66 bc
       0.016818868 -0.021995736 -0.010825734 -0.014040171
000130 51 32 01 3d 5c f3 4a bd c8 42 d1 bc 3f 45 3e bd
       0.031542126 -0.04954849 -0.02554454 -0.046452757
000140 2e 37 90 3d fd ac a2 3d 8f 6e 52 3d 60 30 82 3c
       0.07041775 0.07943151 0.05137497 0.015892208
000150 f2 86 c2 3d 3b 1a 41 3d a6 78 d0 bb 0e ae 85 3d
       0.09498395 0.047144156 -0.0063620387 0.06527339
000160 3c 23 16 3d fe cf 7d 3d 5c a6 57 3d 84 c1 81 3c
       0.036654696 0.061965935 0.052648887 0.015839346
000170 c7 eb 8c 3d 19 56 70 3d 94 12 6f 3d e4 a1 47 3d
       0.068809085 0.05867586 0.058367327 0.048738375
000180 46 5d 96 3d fb 62 be 3d d9 4e 76 3d b7 e5 d4 bd
       0.07342009 0.09296223 0.06013379 -0.10395377
000190 24 a0 1b bd 80 ac 7d bc 69 41 02 bd 38 36 8b 3c
       -0.03799452 -0.015483022 -0.03180066 0.016993627
0001a0 ce 5d f7 3a 8c 2b c2 3d 74 08 79 3c b4 05 46 bd
       0.001887256 0.09480962 0.015199769 -0.048345283
0001b0 f8 09 b6 3d 35 b5 b6 3d c2 e3 6e 3c f6 82 c9 bd
       0.0888862 0.08921281 0.014580669 -0.09839432
0001c0 61 9a 00 3e 49 80 d0 3c 32 61 a4 bb 94 36 75 3d
       0.12558891 0.025451796 -0.0050164694 0.059866503
0001d0 2b a6 f8 3b bb 72 a6 bc 0d bc 91 bc 45 09 6e 3d
       0.007588168 -0.02031838 -0.017789865 0.05811431
0001e0 29 86 71 3d 1b fd 71 3d 8f b0 aa 3d 0c 93 a6 bc
       0.058965836 0.05907927 0.08334457 -0.02033379
0001f0 2f d3 af 3d c0 46 4e bc 90 91 61 3d 04 47 90 3d
       0.08585202 -0.01259011 0.05507046 0.07044795
000200 9f e5 61 3d 1a 1c 9c bc 69 41 15 3c fa 7a 58 3c
       0.055150624 -0.019056369 0.009109833 0.013212914
000210 ba f2 ce 3d cd 6c bf 3b 31 45 1f 3d f0 2b b8 bc
       0.1010489 0.0058418275 0.038884345 -0.022481889
000220 9b 93 84 bd 79 49 6a bd 6f 43 8d 3d 39 be 2e bd
       -0.06473466 -0.057198975 0.068976276 -0.04266188
000230 49 83 62 bd c2 48 87 bd 13 40 83 3d cc 1e 0b 3e
       -0.055300985 -0.06605674 0.064087056 0.13585967
000240 19 22 54 3d ef 29 ce 3c 17 43 14 3e db 6d 13 3d
       0.05179033 0.02516648 0.14478718 0.03599344
000250 82 b3 79 3d 82 d4 14 bd 9b 65 5b 3d 67 b1 a9 bc
       0.060962208 -0.036335476 0.053563695 -0.020714475
000260 00 f5 01 bd 9c e2 9d 3d 40 0c 7b 3c 46 d5 a8 3b
       -0.03172779 0.07709238 0.015322745 0.0051523773
000270 6d 56 95 3d 70 f9 b8 3d 26 2d 9c 3d 7d 3e a5 bd
       0.07291875 0.090319514 0.07625799 -0.08068559
000280 08 5b f4 3c 70 be e0 bc 16 81 85 3d 83 18 8f 3b
       0.029828563 -0.027434558 0.06518762 0.0043669357
000290 60 4e 3e bd 81 08 c3 3d e8 1e da 3d fe b1 ca bc
       -0.046461463 0.09523106 0.10650426 -0.024743076
0002a0 75 c2 13 3d e6 d7 8d 3d 07 fb 0c bd bb bd e3 bc
       0.03607412 0.06925945 -0.034419086 -0.027800431
0002b0 30 56 62 bc 2b d8 82 3d 2f 10 ed bc aa 8c 8e bc
       -0.013814494 0.06388887 -0.028938381 -0.017401058
0002c0 b7 3d c7 3c ed 58 f1 3c 9e 1d be bb 76 88 cf 3d
       0.02432142 0.029461348 -0.0058018705 0.1013345
0002d0 ac 25 18 bc 38 25 b0 3d 5d af 82 bc b9 6f 3b 3c
       -0.009286325 0.08600849 -0.01595276 0.011440211
0002e0 68 8d 71 bd d9 37 bc bb 25 9d 5e 3c 11 04 8e 3c
       -0.058972746 -0.0057439622 0.013587271 0.017335923
0002f0 e5 3a a4 ba df 38 97 3c ee e2 cc 3d 72 dc 43 3d
       -0.0012529759 0.018459735 0.10004221 0.047817655
000300 b9 55 1d bd fd 5a fe bc 6c af 22 bd 3f e8 d2 3c
       -0.03841183 -0.031049246 -0.039718077 0.02574551
000310 71 21 3e bd 89 1f c6 3c 05 24 91 bd 89 e4 41 bb
       -0.04641861 0.024184959 -0.07086948 -0.002958568
000320 42 a3 f5 3b d0 9b e2 3c 75 b4 14 bd 8a 64 a2 3c
       0.0074962685 0.027662188 -0.03630491 0.019823331
000330 21 95 72 bd c8 0d ac bc 0a 63 b6 3c 11 a8 51 3c
       -0.05922425 -0.021002665 0.022264022 0.012796418
000340 bc 9b c1 bc 6c 28 3d bd d6 69 89 3d 4e e6 46 3d
       -0.02363383 -0.046181127 0.0670964 0.04855948
000350 14 d9 37 bd f9 62 76 3d 9d 6f b9 3c 71 7e 68 bd
       -0.044884756 0.06015298 0.02263623 -0.05676121
000360 25 47 04 3d 64 33 48 bd 4c c1 c1 3c 5c a8 d4 bc
       0.03229441 -0.048877135 0.023651741 -0.025959186
000370 47 05 65 bd fb 13 d3 bc 48 48 6c 3d 1e 54 1e bd
       -0.055913236 -0.025766363 0.05768612 -0.03865444
000380 b7 2d 8a bd d6 f3 13 3c 7a 92 da b9 c0 da 85 bd
       -0.06747001 0.009030303 -0.00041689334 -0.06535864
000390 78 64 59 3d 85 7a 93 3d 1d 44 1b 3b 59 fe 7a bd
       0.05307433 0.07201103 0.0023691722 -0.06127772
0003a0 9a c8 3d bc 31 49 68 bd 1d 28 8d bd 1a ae 7f bd
       -0.011583472 -0.056710426 -0.068924166 -0.062421896
0003b0 e8 46 1a 3c f2 95 92 3c 45 28 97 bc d5 79 65 3d
       0.009416319 0.017893765 -0.01845182 0.05602439
0003c0 0b 50 20 bc 9a a5 24 bd ed 02 01 3c 7c ba e4 bc
       -0.009784709 -0.040196992 0.007874233 -0.027920954
0003d0 a2 59 7e bd b3 ff 14 bd 29 b3 99 bc 85 29 87 bc
       -0.0620972 -0.036376666 -0.018762188 -0.01649929
0003e0 53 9b 15 bc cb 7d 50 3d 11 2e 21 3b 34 68 55 3d
       -0.00913127 0.050901216 0.0024594108 0.05210133
0003f0 50 91 ca 3c ba 7a 8c 3d 0e eb 19 bd 79 02 8f bd
       0.024727494 0.06859346 -0.03757768 -0.069828935

decoder.deconv.2.bias f4 [64]
000000 1d c5 be 3c 69 a7 52 bd db d9 88 3c 9e b4 37 3c
       0.02328735 -0.051429186 0.016705444 0.011212496
000010 d5 37 88 3d b8 31 78 3d 15 30 6e bd a8 ce a2 3d
       0.06651274 0.06059429 -0.058151323 0.07949573
000020 ce c3 1b bd d5 c1 90 bd e9 5a 1a 3d c6 ef a6 3d
       -0.03802853 -0.070682205 0.037684355 0.08151202
000030 a9 65 a5 3d b1 24 10 bd 7e b4 6b bd fa 99 f3 bc
       0.08076031 -0.03519124 -0.057545178 -0.029736508
000040 83 14 88 3d 52 fe ac bc fa b9 9a 3d 68 de 7f 3d
       0.06644537 -0.021117363 0.075550035 0.062467963
000050 af 77 86 3d 76 65 86 3d 64 a9 4b bd 2e 35 5a bd
       0.065657966 0.06562321 -0.04972209 -0.053273372
000060 86 56 6b 3d 3d 53 8c 3c d6 ef 0c 3d 8e b8 32 3d
       0.057455562 0.017129535 0.034408413 0.043633036
000070 05 7f 45 3d d9 56 8d 3d 6d f3 8d 3d f0 4d 40 3d
       0.04821684 0.069013305 0.069311954 0.046949327
000080 4e 28 47 3d 4a 80 9b 3d 22 50 7c bc 6c 86 a9 3d
       0.048622422 0.075928286 -0.0153999645 0.08277592
000090 4d d7 62 3d 8c b7 d5 bc c4 c6 9b bd 6f c1 4c 3d
       0.055381108 -0.026088499 -0.07606271 0.04998916
0000a0 e7 c6 c1 3d e7 8a a2 3d f1 f2 d5 3c de 96 1c 3d
       0.09461766 0.0793665 0.02611682 0.038229816
0000b0 af c3 b9 3d d9 a7 a6 3d 1c 67 37 3d 02 7c a3 3b
       0.09070527 0.08137483 0.044776067 0.004989148
0000c0 b8 9c 2a 3c 23 a6 c7 3d 25 f9 a2 3c f5 18 d7 3c
       0.010413341 0.09748485 0.019894192 0.026257018
0000d0 b6 c3 bd bc 68 56 14 3d 65 fa 5d bd e6 e6 b5 3c
       -0.023164611 0.036215216 -0.054193873 0.022204828
0000e0 91 ac 42 bd 33 82 28 3d b5 eb af 3d df f0 18 3d
       -0.047527853 0.041139793 0.085898794 0.037339088
0000f0 a0 b0 06 3d 9b a0 47 3d 77 3c 42 bc 8d 20 09 3d
       0.032883286 0.04873715 -0.011855236 0.03347831
