prepared_data/best_model_epoch.pt (torch, 269280 bytes, 17 tensors)

encoder.conv.0.weight f4 [64, 5, 5]
0	0xbe2bf54c	-0.16792792
1	0x3e18d398	0.14924467
2	0xbe1ab4fd	-0.15108104
3	0x3c9b32e6	0.018945169
4	0x3a8689f9	0.0010264508
5	0x3dcf08ff	0.10109138
6	0xbc7b3b5d	-0.0153339775
7	0x3e183022	0.14862111
8	0x3de44daf	0.111476295
9	0x3dc8f7fd	0.09812925
10	0xbe0ade8f	-0.13561462
11	0xbda8d756	-0.08244197
12	0xbe3502e4	-0.17676884
13	0xbdb8e247	-0.09027534
14	0x3e27e2d5	0.16395123
15	0x3e2ba2ba	0.16761294
16	0x3c60ff79	0.013732784
17	0xbdfcde05	-0.12347034
18	0x3be3498c	0.0069362577
19	0x3e016f9b	0.1264023
20	0xbcfcf465	-0.030878255
21	0x3c032d8d	0.008006466
22	0x3d182889	0.037148032
23	0x3e26df39	0.1629609
24	0xbd4cbcf4	-0.049984887
25	0x3ddb9664	0.10722044
26	0x3e437284	0.19086653
27	0x3dc2b0a5	0.095063485
28	0xbdea8ce5	-0.11452655
29	0xbd42b65a	-0.047537185
30	0xbdf7b3a8	-0.120948136
31	0xbb169ac0	-0.0022980422
32	0x3de489e1	0.11159111
33	0xbcc52d29	-0.024069386
34	0x3d988e71	0.074490435
35	0x3cae5778	0.021281943
36	0xbe3e5904	-0.18588644
37	0xbc88aa70	-0.016682833
38	0x3e2cf8c6	0.16891775
39	0xbd6bf3ea	-0.05760566
40	0xbddae31f	-0.10687851
41	0x3e1568a0	0.14590693
42	0x3e04ee2f	0.12981485
43	0x3db3d2b0	0.0878042
44	0x3e22eefb	0.15911476
45	0xbdec509c	-0.115388125
46	0xbbeb55b3	-0.007181847
47	0xbe438da7	-0.19097005
48	0x3d8605ae	0.06544052
49	0xba721a17	-0.0009235455
50	0xbdf99959	-0.12187452
51	0xbdd26e91	-0.10274995
52	0xbe0b1a45	-0.1358424
53	0x3ddfeb4c	0.10933551
54	0xbc56881b	-0.0130939735
55	0xbe3e2241	-0.18567754
56	0x3e072bcf	0.13200305
57	0x3d89aabf	0.0672202
58	0x3e0eec91	0.1395743
59	0x3dc71508	0.09720808
60	0xbe160393	-0.14649801
61	0x3deb3436	0.11484568
62	0xbe1d447b	-0.15358154
63	0xbe3d0218	-0.1845783
64	0xbe40d4b2	-0.18831137
65	0xbe1d40fc	-0.15356821
66	0xbde3b617	-0.11118715
67	0x3d050fbe	0.032485716
68	0xbdf4eacc	-0.119588464
69	0xbe1d7b94	-0.15379173
70	0x3dde5336	0.10855715
71	0x3e36bb40	0.17844868
72	0x3e14b2cd	0.14521332
73	0xbc7e5a9e	-0.0155245345
74	0x3d408645	0.04700305
75	0x3dbed692	0.0931827
76	0x3cd05223	0.02542979
77	0x3e0a0755	0.1347936
78	0x3d49e5e5	0.04929151
79	0xbdda6258	-0.10663289
80	0xbe196af7	-0.1498221
81	0xba0602f6	-0.00051121356
82	0xbd5cbbc8	-0.05389002
83	0x3ca28cb8	0.01984249
84	0xbe0640d5	-0.13110669
85	0x3e2faccf	0.17155765
86	0xbde376aa	-0.11106618
87	0x3de0cba1	0.10976339
88	0x3e52bc1d	0.20579572
89	0x3daf287e	0.08552645
90	0x3d895c51	0.06707061
91	0xbe3e255d	-0.1856894
92	0xbe1cf379	-0.15327252
93	0x3e1be4e7	0.15224038
94	0x3e177ac6	0.14792928
95	0xbe41c3f0	-0.189224
96	0x3dec7a99	0.11546821
97	0x3e394e03	0.18096165
98	0x3e3da1c4	0.1851874
99	0xbb20c65f	-0.00245323
100	0x3d5dc178	0.054139584
101	0x3da3ba8c	0.07994565
102	0xbd539a3d	-0.051660765
103	0x3e3462fb	0.17615883
104	0xbe395b43	-0.1810122
105	0xbcda517d	-0.026650185
106	0x3e196166	0.14978561
107	0xbd8409d5	-0.06447188
108	0x3d96befd	0.07360647
109	0xbdcf8ea7	-0.10134631
110	0x3d5526e2	0.052039035
111	0x3e0687e8	0.13137782
112	0x3d0bafe7	0.0341033
113	0x3dd0a9e1	0.10188652
114	0x3d9ee28f	0.07758056
115	0x3d7c2d56	0.061566673
116	0xb9b964c5	-0.0003536103
117	0x3db5a0b3	0.088685416
118	0xbdc0643b	-0.093941174
119	0xbdf67933	-0.12034836
120	0x3dd8c9ec	0.105853885
121	0xbcb579a2	-0.022152726
122	0xbe0c8da6	-0.1372591
123	0x3d8989fc	0.067157716
124	0x3d4104de	0.047123782
125	0x3e470dd6	0.19438872
126	0xbe14bf33	-0.14526062
127	0xbcf276f7	-0.029597742
128	0xbe2ce7f3	-0.16885357
129	0xbdaa6d4b	-0.08321627
130	0x3d89d35e	0.06729768
131	0x3df9caf8	0.12196916
132	0xba9b551c	-0.0011850926
133	0x3c97989f	0.018505393
134	0x3e46cc06	0.19413766
135	0xbe03be54	-0.12865573
136	0x3e21024f	0.15723537
137	0xbdf18106	-0.117921874
138	0xbe2ddae1	-0.16978027
139	0xbd3cb7cd	-0.046073724
140	0x3dd4fc8d	0.10399733
141	0xbbf22573	-0.007389718
142	0x3c4cf27e	0.0125089865
143	0x3dffe66d	0.12495122
144	0xbc5df7bb	-0.013547833
145	0x3c7731d2	0.015087562
146	0x3c218f19	0.009860777
147	0x3e059f8c	0.13049144
148	0x3d7e7886	0.06212666
149	0x3c7d6228	0.015465297
150	0xbe21fddd	-0.15819497
151	0xbdbff8a2	-0.09373595
152	0x3d99b1ca	0.07504614
153	0x3e26aa66	0.1627594
154	0x3dbec498	0.09314841
155	0xbe082d6d	-0.13298579
156	0x3e162cf7	0.1466559
157	0x3e2441d1	0.16040732
158	0x3c439aaa	0.01193873
159	0x3dc4a1fc	0.096012086
160	0xbd59b603	-0.053152096
161	0x3dc87423	0.09787776
162	0xbbf4011f	-0.0074464227
163	0x3e3d9326	0.18513164
164	0xbb5459cd	-0.0032402158
165	0x3e0da1b5	0.13831218
166	0xbd953afa	-0.072866395
167	0xbda5bed0	-0.08093035
168	0x3d428dd8	0.047498554
169	0x3d752ba7	0.059856083
170	0x3e13fb5f	0.14451359
171	0x3e1f9c81	0.15587045
172	0x3da71998	0.081591785
173	0xbe39b554	-0.18135577
174	0x3c5eaab2	0.013590502
175	0xbe0a0ff4	-0.13482648
176	0xbe3121ae	-0.17298004
177	0xbdee6688	-0.1164065
178	0x3d81559c	0.06315157
179	0x3e09bd11	0.1345103
180	0xbd02e857	-0.031959858
181	0x3e166b1d	0.14689298
182	0xbdc72897	-0.09724539
183	0xbe1321e9	-0.14368404
184	0x3e310805	0.17288215
185	0x3d0ce2dc	0.034396037
186	0xbdf01c7c	-0.11724183
187	0xbced0462	-0.028932754
188	0xbe07ee56	-0.13274512
189	0xbd8e4467	-0.069466405
190	0x3b2a5133	0.002598834
191	0x3e0fa948	0.1402942
192	0xbd0f80a9	-0.03503481
193	0xbde811f8	-0.11331552
194	0x3e2e8f99	0.17046966
195	0x3e37554e	0.17903635
196	0xbe05d2a7	-0.13068639
197	0x3d854da5	0.0650895
198	0xbdf48d5b	-0.11941024
199	0xbdf275dd	-0.11838887
200	0xbca0fce5	-0.01965184
201	0x3c03c4a2	0.008042486
202	0xbdbd01b3	-0.0922884
203	0xbdc6c515	-0.09705559
204	0x3dee7597	0.11643522
205	0xbe09ce39	-0.13457574
206	0xbc99b2a3	-0.018761938
207	0x3e2df5e9	0.16988339
208	0x3e2831c7	0.16425239
209	0x3dc0c861	0.09413219
210	0xbded82d8	-0.11597222
211	0xbe16c786	-0.1472455
212	0x3da03398	0.07822341
213	0xbe461828	-0.19345152
214	0xbcc75777	-0.024333699
215	0xbddbe94d	-0.10737858
216	0xbe016afa	-0.12638465
217	0x3e14b305	0.14521416
218	0xbd86c104	-0.065797836
219	0xbe09d69c	-0.13460773
220	0x3e447046	0.19183454
221	0xbdd5a182	-0.10431196
222	0xbe504443	-0.2033854
223	0xbb6a43cc	-0.0035745976
224	0x3e3acb0b	0.18241517
225	0x3dd9d798	0.10636824
226	0x3d093b73	0.03350396
227	0x3b6e8a3c	0.0036398312
228	0xbe0d3dfe	-0.1379318
229	0x3e2c3864	0.16818386
230	0xbe06fb6b	-0.13181846
231	0xbe299240	-0.16559696
232	0x3e3a465e	0.18190905
233	0x3e41b289	0.18915762
234	0x3db3994c	0.087694734
235	0xbd8a057f	-0.067393295
236	0x3df74811	0.120742925
237	0x3dcbf116	0.09958093
238	0xbdf31030	-0.11868322
239	0xbd2961fc	-0.04135321
240	0xbe24bb13	-0.16086988
241	0xbe25461e	-0.16140029
242	0x3d397936	0.04528161
243	0xbc1f5566	-0.00972495
244	0x3d0a3d95	0.033750135
245	0x3d918a83	0.07106497
246	0x3b35900e	0.0027704271
247	0xbcbf2ffc	-0.02333831
248	0x3d7993a4	0.060931817
249	0x3e46db76	0.19419655
250	0x3e393162	0.18085244
251	0x3d8259de	0.06364797
252	0x3e0ede0e	0.13951895
253	0x3d2c1a44	0.042017236
254	0xbe0f96dd	-0.14022394
255	0xbde84a87	-0.1134234

encoder.conv.0.bias f4 [64]
0	0xbdeb0859	-0.114762016
1	0x3d880f49	0.066435404
2	0x3d22fa70	0.039789617
3	0xbc21a040	-0.009864867
4	0x3e39888f	0.18118499
5	0x3c8ac08e	0.01693752
6	0xbda378fb	-0.079820596
7	0xbde0c152	-0.10974373
8	0xbe061f39	-0.13097848
9	0xbe06b51e	-0.13155028
10	0x3e447f7f	0.19189261
11	0xbbc8feff	-0.0061339135
12	0x3e2e09e0	0.16995955
13	0x3d1a3790	0.037650645
14	0x3e4948b1	0.19656636
15	0xbdbafee6	-0.09130649
16	0x3d97e063	0.07415845
17	0x3d94e499	0.07270164
18	0x3e2fcc2b	0.17167728
19	0x3e3cbf48	0.18432343
20	0xbcec97a2	-0.028880898
21	0xbcc308a8	-0.023807839
22	0x3d44fe3d	0.048094023
23	0xbb82f499	-0.0039964435
24	0x3d4e386c	0.050346777
25	0xbe03c79b	-0.12869112
26	0xbe346ec0	-0.17620373
27	0xbdeb258f	-0.11481773
28	0x3e09f47a	0.13472167
29	0x3d244b82	0.040111072
30	0x3d09d091	0.03364617
31	0xbdf2bb1f	-0.11852097
32	0x3e03d688	0.12874806
33	0x3cb9d53c	0.022684686
34	0xbb86409e	-0.0040970584
35	0xbd431f35	-0.047637183
36	0xbcbdc656	-0.023165863
37	0xbdec6dc6	-0.11544375
38	0xbe238e07	-0.15972148
39	0xbdb19827	-0.08671599
40	0x3d7737ea	0.06035606
41	0xbe548b28	-0.20756209
42	0x3d7d393d	0.061822165
43	0x3d6dae43	0.058027517
44	0x3e04900a	0.12945572
45	0xbd813992	-0.06309809
46	0x3cadc50d	0.021212125
47	0xbd2c33d6	-0.042041622
48	0x3cc71402	0.024301533
49	0x3c302dde	0.010753123
50	0xbe40c406	-0.18824777
51	0x3cc2d180	0.023781538
52	0xbdf274ff	-0.118387215
53	0x3e089027	0.1333624
54	0xbd456cee	-0.048199587
55	0x3d276ea0	0.040876985
56	0xbe251aab	-0.16123454
57	0x3dab3f95	0.08361737
58	0xbe2fc7bc	-0.17166036
59	0xbcf1c750	-0.029513985
60	0xbe121de0	-0.14269209
61	0xbda7d917	-0.081957035
62	0x3d5f37fd	0.054496754
63	0x3e1d4d39	0.1536149

encoder.conv.2.weight f4 [64, 64, 5]
0	0xbd7cb054	-0.061691597
1	0x3d5df930	0.05419272
2	0xbcec4ca3	-0.028845137
3	0xbcacca3c	-0.021092527
4	0xbd05aead	-0.032637287
5	0xbd036c81	-0.0320859
6	0xbbec3e2c	-0.00720956
7	0x3d6871c2	0.056749113
8	0x3bc5105f	0.0060139145
9	0x3d4f5c36	0.05062505
10	0x3d622fe6	0.05522146
11	0x3d16e55d	0.03683983
12	0x3a65ab65	0.00087611965
13	0xbc09f7d8	-0.008420907
14	0xbcc675f5	-0.024226168
15	0xbcfac8c8	-0.030613318
16	0x3b97f45c	0.004637284
17	0x3c307b71	0.010771618
18	0x3cdcf426	0.026971888
19	0x3d0e9ac5	0.03481557
20	0x3c6cd4c6	0.014455026
21	0xbcd1606b	-0.025558671
22	0x3bb909ec	0.0056469347
23	0x3c1cca9e	0.009569792
24	0xba6688f9	-0.0008794214
25	0x3d354b8b	0.044261497
26	0x3d47dc48	0.04879406
27	0x3d0fcd3f	0.035107847
28	0xbce444bf	-0.027864812
29	0x3d459f6c	0.04824774
30	0x3c3f3ab0	0.011671707
31	0xbd4d90a6	-0.050186776
32	0xbcba097f	-0.022709606
33	0x3d5baae2	0.053629763
34	0xbbf5b6ed	-0.007498613
35	0xbd21343e	-0.039356463
36	0xbc77bcf6	-0.015120735
37	0x3d1460f7	0.036225285
38	0xbbe146eb	-0.006874909
39	0x3c230e69	0.009952166
40	0x3c9e8f59	0.019355463
41	0x3ae60d9a	0.0017551661
42	0xbcdf2174	-0.027237631
43	0xbc8051ec	-0.015664063
44	0x3d899eae	0.06719719
45	0xbcfa897b	-0.030583134
46	0xbc6edcc0	-0.014578998
47	0xbd0bdf83	-0.034148704
48	0xbd2b71e6	-0.04185667
49	0x3d256d66	0.040387534
50	0xbb97f7de	-0.0046377024
51	0xbbdc5d89	-0.0067250174
52	0xbcd7485b	-0.026279619
53	0xbcb28657	-0.021792574
54	0x3cfbcb0b	0.030736467
55	0xbd6bcdaf	-0.057569202
56	0x3d44a751	0.048011128
57	0x3d01a4c7	0.031651285
58	0xbad5d3d5	-0.0016313741
59	0xbc798340	-0.015229046
60	0x3c805e41	0.015669944
61	0x3d804858	0.062637985
62	0x3d5fa17c	0.054597363
63	0x3cb56866	0.022144508
64	0x3d8a0138	0.06738514
65	0x3cb15787	0.021648182
66	0x3d4178e9	0.04723445
67	0xbd4504ce	-0.048100285
68	0x3b2a3816	0.0025973371
69	0xbd6096ce	-0.05483132
70	0xbc4cc190	-0.012497321
71	0x3cb362b8	0.021897659
72	0x3d5dcd75	0.054151017
73	0x3cefe879	0.029285656
74	0xbc854247	-0.016266955
75	0x3d539da9	0.05166403
76	0xbd0d537f	-0.034503456
77	0xbd1e5e41	-0.038664106
78	0xbd297131	-0.041367713
79	0x3d3e58a4	0.046471253
80	0xbd343137	-0.043992247
81	0x3c60d521	0.013722689
82	0xba2cb6bf	-0.00065885106
83	0x3cd61842	0.026134614
84	0xbd186193	-0.03720243
85	0xbbc9faeb	-0.006163945
86	0xbc8f7ef6	-0.017516594
87	0xbcaa8398	-0.020814702
88	0x3cb291ac	0.021797977
89	0x3d2374e2	0.03990639
90	0xbc83c70f	-0.01608613
91	0xbcb9f30b	-0.0226989
92	0xbcab9222	-0.020943705
93	0xbc55cd44	-0.013049427
94	0x3b83bfc7	0.0040206644
95	0x3cc88113	0.02447561
96	0x3d6b98a3	0.057518613
97	0x3b06c83f	0.0020566133
98	0xbb78fd4c	-0.0037992774
99	0x3d803f58	0.06262082
100	0xbb89af01	-0.0042017703
101	0x3d2e4a45	0.042551298
102	0x3d4627e3	0.048377883
103	0x3be9ac2c	0.00713112
104	0xbbe32a1f	-0.0069325115
105	0xbce5e6ef	-0.02806422
106	0x3d74747f	0.05968141
107	0xbcb2dfb9	-0.021835195
108	0xbc3b27cb	-0.011423062
109	0xbd3e860a	-0.04651455
110	0xbcdb024e	-0.026734497
111	0x3cb898c9	0.022533791
112	0xbd068f71	-0.03285164
113	0x3c7cf8d0	0.015440181
114	0x3cddcbae	0.027074661
115	0xbc0a6588	-0.0084470585
116	0xbd1b7e49	-0.03796223
117	0x3d3fb53c	0.046803698
118	0xbd18a256	-0.03726419
119	0x3cac0d45	0.021002421
120	0xbca75cba	-0.020429958
121	0x3d3e7a18	0.046503156
122	0x3c60bc24	0.013716731
123	0x3c9079c3	0.017636186
124	0x3c29c134	0.010361005
125	0xbd3a206e	-0.045441084
126	0x3cd0bc9d	0.025480563
127	0xbc9dcbf6	-0.019262295
128	0xbbea8eac	-0.007158121
129	0x3b9732e1	0.0046142195
130	0xbbdf790a	-0.006819849
131	0xbcbc3795	-0.022975722
132	0xbcce65da	-0.025195051
133	0x3cf288a4	0.029606171
134	0x3bdb802a	0.006698628
135	0x3d399a48	0.04531315
136	0xbd324f10	-0.04353243
137	0xbd41476c	-0.047187254
138	0xbccbb5de	-0.024866994
139	0x3d3958ff	0.04525089
140	0xbcaf3cb6	-0.021391254
141	0xbcc243cd	-0.02371397
142	0x3d0ae287	0.03390744
143	0x3b8b0d77	0.0042435485
144	0x3d72c065	0.059265513
145	0x3d3f2417	0.046665277
146	0xbd2a8e33	-0.041639518
147	0xbc19c3f6	-0.0093851
148	0x3d710705	0.058844585
149	0xbc4a943c	-0.012364443
150	0x3c0d3f49	0.008621045
151	0x3cb0bf6c	0.021575652
152	0x3d55b47b	0.052174073
153	0x3c3ea54e	0.011636091
154	0x3d268a8e	0.04065948
155	0xbd2db5b6	-0.04240962
156	0x3d2aa6c9	0.041662965
157	0xbc82267e	-0.015887495
158	0xbcb6b910	-0.022305042
159	0xbd44e8b4	-0.048073485
160	0x3ca0a067	0.019607736
161	0xba16292d	-0.00057281816
162	0x3d758a6e	0.05994647
163	0x3ccf3073	0.025291657
164	0xbcba4b11	-0.022740873
165	0x3d10f25c	0.035387382
166	0xbced254b	-0.028948447
167	0xbc404696	-0.011735579
168	0x3bfe389d	0.0077582137
169	0x3bea199e	0.007144167
170	0xbd4065fa	-0.046972252
171	0xbd40e988	-0.047097713
172	0x3d43bfbe	0.04779028
173	0xbd08319b	-0.033250432
174	0x3cf9b881	0.030483486
175	0x3cf9624f	0.030442385
176	0xbd405ef2	-0.046965547
177	0xbd15d75d	-0.03658234
178	0xbca7bfe2	-0.020477239
179	0x3d300100	0.042969704
180	0xbc87f5c3	-0.01659668
181	0x3cf6c97e	0.030125376
182	0xbbb81252	-0.0056174183
183	0xbce17400	-0.027521133
184	0x3d7c1423	0.06154264
185	0xbc30de95	-0.010795255
186	0x3b9974b0	0.0046830997
187	0xbc325a97	-0.010885856
188	0x3d66335f	0.056201335
189	0x3d2e836f	0.042605814
190	0x3d57d086	0.052689098
191	0x3c0c8d2f	0.008578583
192	0x3d605baf	0.054774936
193	0xbd510311	-0.051028315
194	0x3c23f864	0.010007951
195	0xbd054c39	-0.032543395
196	0x3d418a8d	0.047251273
197	0x3d2e13cb	0.042499345
198	0x3c3c996e	0.01151119
199	0xbcbe249d	-0.023210818
200	0x3d0d084b	0.034431737
201	0x3c96038e	0.018312242
202	0xbd187dff	-0.037229534
203	0xbc11d7fc	-0.008901592
204	0xbca4a974	-0.020100333
205	0x3d1fa285	0.03897335
206	0xbd6825e0	-0.056676745
207	0xbb0fef5c	-0.0021962738
208	0x3d029d3f	0.031888243
209	0x3bdb962a	0.0067012506
210	0xbca6ed57	-0.020376844
211	0xbc96d8c1	-0.018413903
212	0xbc2d80a8	-0.010589756
213	0xbd3520ef	-0.04422086
214	0x3d593a0a	0.053033866
215	0x3d554820	0.052070737
216	0x3b560741	0.0032658132
217	0x3d44e4df	0.04806983
218	0x3c6506bf	0.013978659
219	0x3ceaafa6	0.028648209
220	0xbc3414a8	-0.010991253
221	0xbca24724	-0.019809313
222	0xbd0cadec	-0.034345552
223	0xbd2ffebb	-0.04296754
224	0xbc9f19ea	-0.019421536
225	0x3d5468d6	0.05185779
226	0xbd475f36	-0.048674785
227	0x3d76ebfa	0.06028364
228	0x3d395e2d	0.04525583
229	0x3c82c537	0.01596318
230	0x3c385dbb	0.011252816
231	0x3c1190de	0.008884637
232	0x36d21662	6.2610934e-06
233	0xbb6e9f2d	-0.0036410794
234	0xbd3e756b	-0.046498697
235	0xbd6bcdcd	-0.057569314
236	0x3ca56b56	0.020192783
237	0xbc996fab	-0.018730005
238	0x3be6aa96	0.0070393784
239	0x3d1238c3	0.035698663
240	0x3d0470d0	0.03233415
241	0xbd28cd31	-0.04121131
242	0x3ca95607	0.020670904
243	0x3c93110b	0.017952463
244	0xbcd6aa32	-0.026204202
245	0xbcd3ae31	-0.025839897
246	0xbc68af31	-0.014201925
247	0x3ba07351	0.0048965593
248	0xbc0d48c3	-0.008623305
249	0x3d428d58	0.047498077
250	0xbd6e0535	-0.058110435
251	0x3c748221	0.014923603
252	0xbcc5e808	-0.024158493
253	0xbd039438	-0.032123774
254	0xbd36bc7e	-0.044613354
255	0xbd0f6359	-0.035006855

encoder.conv.2.bias f4 [64]
0	0x3d763911	0.060113017
1	0x3cf163cc	0.029466532
2	0x3d023d82	0.03179694
3	0xbd6e0c07	-0.05811694
4	0xbcebc1f5	-0.02877901
5	0x3d20dfc2	0.039275892
6	0xbd021fbe	-0.031768553
7	0x3d184432	0.03717441
8	0xbcac6f3d	-0.021049136
9	0xbcace399	-0.02110462
10	0x3c857969	0.016293244
11	0xbc6318c2	-0.013860883
12	0x3b95851d	0.0045629875
13	0xbd23ddcd	-0.040006448
14	0xbd1f6a3a	-0.038919665
15	0x3d2cf92f	0.042229827
16	0xbc2faf2c	-0.010722917
17	0xbce1ed08	-0.027578846
18	0xbc8c6579	-0.01713823
19	0xbd427d70	-0.047482908
20	0xbd47a817	-0.048744287
21	0xbb88cc2b	-0.0041747293
22	0xbd27b91b	-0.040948015
23	0xbd3a1f15	-0.0454398
24	0x3cd11b8c	0.02552583
25	0x3d6fcbaa	0.05854384
26	0xbd51d167	-0.051225092
27	0xbd22a7c0	-0.03971076
28	0x3c4f9dbb	0.012671883
29	0x3c1db46c	0.009625535
30	0xbd17d793	-0.037070822
31	0xbca7d6b7	-0.020488126
32	0x3cd36d5a	0.025808979
33	0x3d2ff75d	0.042960513
34	0x3ccf8694	0.025332727
35	0x3c21ab88	0.009867556
36	0xbcaf362a	-0.021388132
37	0xbcfc58bd	-0.030804032
38	0x3d7f51d3	0.062333893
39	0x3be5246a	0.0069928663
40	0x3c82debc	0.015975349
41	0xbd444e06	-0.04792597
42	0xbd0e945e	-0.034809463
43	0xbd2bccab	-0.041943233
44	0xbcced8f8	-0.025249943
45	0xbc8efcf4	-0.017454602
46	0x3d31887b	0.04334305
47	0xbbbaebe7	-0.0057043913
48	0xbd64bc2a	-0.05584351
49	0xbd29c2a1	-0.04144538
50	0xbc1eb44a	-0.009686539
51	0xbd097766	-0.033561133
52	0x3b80dac1	0.0039323275
53	0x3d3a13dc	0.045429096
54	0x3d29016f	0.041261133
55	0x3d39148a	0.045185603
56	0x3c42dcd4	0.01189347
57	0x3d4112cc	0.047137067
58	0xbd81c15a	-0.06335707
59	0x3d068260	0.03283918
60	0x3bc2913e	0.0059377244
61	0x3d224d6c	0.039624617
62	0x3cbca251	0.023026617
63	0xbc6acaae	-0.014330549

encoder.conv.4.weight f4 [8, 64, 3]
0	0xbd0a26d0	-0.03372842
1	0xbd6d6879	-0.05796096
2	0xbd0edd1f	-0.034878846
3	0xbb7b9b93	-0.003839229
4	0xbd18e59c	-0.037328348
5	0xbd29a930	-0.041421115
6	0xbb10173d	-0.0021986507
7	0xbd16851f	-0.036748048
8	0x3d3dab45	0.046305913
9	0x3d74a8c1	0.05973125
10	0xbd75e6b9	-0.060034487
11	0xbc5b9ae8	-0.013403632
12	0x3d6e836c	0.058230802
13	0x3d78c114	0.06073101
14	0xbc5506c8	-0.013002105
15	0x3cd5f794	0.026119031
16	0xbd6e6c67	-0.05820885
17	0xbb8cd69b	-0.004298044
18	0x3d5a72aa	0.05333201
19	0x3c18cece	0.00932665
20	0x3cb5b59b	0.022181323
21	0xbd0dd821	-0.034629945
22	0xbd860cc8	-0.065454066
23	0xbd67f5ca	-0.056630887
24	0xbd441341	-0.047869924
25	0xbd839ecd	-0.06426773
26	0x3d5d3e6a	0.0540146
27	0x3d86893d	0.06569145
28	0xbd0c607b	-0.0342717
29	0xbd4d23e5	-0.05008306
30	0xbc6b2f2b	-0.014354507
31	0xbd8af061	-0.0678413
32	0xbd6bd032	-0.057571597
33	0xbd45aced	-0.048260618
34	0x3a60f688	0.0008581658
35	0x3c9e66d0	0.019336134
36	0x3d3e4258	0.04644999
37	0x3cb3236d	0.021867478
38	0x3d5b8187	0.053590324
39	0x3d0578e6	0.032586
40	0x3d42c58d	0.04755168
41	0xbd538a7a	-0.051645733
42	0xbbbc3f36	-0.00574484
43	0xbd8e498d	-0.069476224
44	0xbd8dedeb	-0.06930145
45	0xbd25e2dd	-0.040499557
46	0x3bf4caa9	0.007470448
47	0x3d509b31	0.050929252
48	0xbd25e9f1	-0.040506307
49	0xbcf61896	-0.03004102
50	0xbd03a919	-0.032143686
51	0xbd678f93	-0.056533407
52	0xbc443c42	-0.011977257
53	0xbcdc9b28	-0.026929453
54	0x3c171792	0.009221928
55	0xbcf8cc48	-0.030370846
56	0x3c081b45	0.008307283
57	0xbd42ca05	-0.047555942
58	0xbd9485e6	-0.072521016
59	0x3c108915	0.008821745
60	0x3c86b248	0.016442433
61	0x3cb1cdff	0.021704672
62	0x3ceeb5fc	0.029139511
63	0x3cdb6f9b	0.026786616
64	0xbbc97146	-0.0061475364
65	0xbd42bec0	-0.047545195
66	0x3c28d86b	0.010305504
67	0x3c03cf7b	0.008045073
68	0x3c58e3b3	0.0132378815
69	0xbd5ecf24	-0.054396763
70	0xbb82d50c	-0.0039926823
71	0x3ccfad44	0.025351174
72	0x3cc0561b	0.023478558
73	0xbd1eb650	-0.038748085
74	0xbc4f0727	-0.012635983
75	0x3ce1baf9	0.027554976
76	0x3d78de1b	0.06075869
77	0x3d2e7002	0.042587288
78	0xbbe96047	-0.007122073
79	0x3c2ab517	0.010419152
80	0xbc71ef92	-0.014766591
81	0x3c04e671	0.008111582
82	0xbd1dccc9	-0.038525376
83	0xbd18067a	-0.03711555
84	0x3ca10be3	0.019658988
85	0x3d105e36	0.035246097
86	0xbc89fab5	-0.01684318
87	0xbcffb734	-0.031215288
88	0x3cb761e0	0.022385538
89	0x3cd008cb	0.025394818
90	0xbda57618	-0.08079165
91	0xbdab510d	-0.083650686
92	0xbd1b6398	-0.037936777
93	0x3c4b7c00	0.012419701
94	0x3d8b6088	0.06805521
95	0xbc827c48	-0.015928403
96	0x3d7e7f98	0.0621334
97	0xbd78e0b1	-0.060761157
98	0xbb175dda	-0.0023096711
99	0xbd59bb12	-0.05315692
100	0x3c53d685	0.012929563
101	0x3d104385	0.03522064
102	0x3d2ea4ac	0.042637512
103	0xbd4d3200	-0.05009651
104	0x3d814fb4	0.0631403
105	0x3c839881	0.01606393
106	0xbd998f98	-0.074980915
107	0x3d88697b	0.06660744
108	0x3cb42566	0.02199049
109	0x3d13bc25	0.0360681
110	0x3d81cf0c	0.06338319
111	0xbd89dbec	-0.067314
112	0xbcdb2d6d	-0.02675506
113	0x3cb1b017	0.021690411
114	0xbd09b1e4	-0.033616915
115	0xbbbd52d1	-0.0057776948
116	0x3cfa123c	0.030526273
117	0xbc2e6291	-0.010643617
118	0x3d3ff971	0.046868745
119	0xbbd03dfe	-0.0063550463
120	0x3cd0f98c	0.025509618
121	0x3d27d068	0.040970236
122	0xbd3de671	-0.046362344
123	0x3c8c50d1	0.01712838
124	0x3c66a619	0.014077687
125	0x3d3ccd89	0.04609445
126	0x3d8c82d1	0.06860889
127	0x3cfed6a7	0.031108214
128	0x3d498a46	0.049204133
129	0xbc206cfc	-0.009791609
130	0x3cd34bba	0.025792945
131	0xbcc0c6c3	-0.023532277
132	0x3c862e05	0.016379366
133	0x39741baa	0.00023279959
134	0xbd15c670	-0.036566198
135	0xbbf33d50	-0.0074230805
136	0x3c10bfcf	0.008834793
137	0x3d330132	0.04370231
138	0x3d717489	0.058949027
139	0xbd493a17	-0.049127664
140	0xbd224cfe	-0.039624207
141	0xbbfe9737	-0.007769491
142	0xbd5dd264	-0.054155722
143	0x3d20d094	0.039261416
144	0x3cf8c809	0.030368822
145	0xbd86f192	-0.06589045
146	0xbcb6a68b	-0.02229621
147	0x3d2a8898	0.041634172
148	0x3ad9cf70	0.0016617607
149	0xbd89b79a	-0.06724472
150	0x3c6c449e	0.0144206565
151	0x3d7b1978	0.061303586
152	0x3cf74baa	0.030187447
153	0x3c6ca698	0.014444016
154	0x3c06da8c	0.008230817
155	0xbd2e2a3e	-0.042520754
156	0x3bf35914	0.0074263904
157	0xbbddd674	-0.0067699496
158	0xbd8bc47a	-0.06824584
159	0x3bff2e26	0.0077874837
160	0xbccf1c0c	-0.025281928
161	0x3d26393d	0.04058193
162	0x3cdc02dc	0.026856832
163	0x3d4b47e8	0.049629122
164	0xbcfe5749	-0.03104748
165	0xbc10d534	-0.008839894
166	0xbd067328	-0.032824665
167	0xbd8b3a61	-0.06798244
168	0x3c4a7ec7	0.012359328
169	0x3cdc75e0	0.026911676
170	0xbcbcdf0a	-0.023055572
171	0xbcc06a18	-0.02348809
172	0xbd8d742e	-0.06906925
173	0xbc5d04dd	-0.013489929
174	0xbd154785	-0.03644516
175	0x3c9cbb28	0.019132212
176	0x3d16bb98	0.036799997
177	0x3c8cdd7d	0.017195458
178	0x3c86300c	0.016380332
179	0x3d0b95b8	0.03407833
180	0x3d2188c1	0.03943706
181	0xbd81c0f5	-0.06335632
182	0xbcf43627	-0.029810978
183	0xbce11775	-0.027477005
184	0x3c8be89e	0.017078694
185	0x3ceaa374	0.028642394
186	0x3b860bab	0.0040907464
187	0xbb78bf35	-0.0037955765
188	0xbd1667ad	-0.036719967
189	0x3d095c07	0.03353503
190	0xbd5fe68c	-0.054663226
191	0x3d4a05fc	0.049322113
192	0x3c71a8ff	0.014749764
193	0x3d6807da	0.056648113
194	0xbd196fe7	-0.037460234
195	0x3c810ab1	0.015752168
196	0xbd0c7be2	-0.03429783
197	0x3bb41356	0.005495469
198	0xbd06638b	-0.032809775
199	0x3d26f22f	0.040758308
200	0x3d8ac4c4	0.06775811
201	0xbaa03380	-0.001222238
202	0x3c82b616	0.015955966
203	0xbd4328d3	-0.047646355
204	0xbc293a00	-0.01032877
205	0xbdba3ee0	-0.09094024
206	0xbcea46a7	-0.028598143
207	0xbb107cf7	-0.002204714
208	0x3d2dd4c8	0.042439252
209	0xbd4b7049	-0.04966763
210	0xbab88219	-0.0014076858
211	0xbd2da9e1	-0.042398337
212	0xbc834991	-0.01602629
213	0x3d870386	0.06592469
214	0x3d6d8144	0.057984605
215	0x3d90a2c0	0.07062292
216	0xbd0f083a	-0.034919955
217	0xbd162467	-0.03665581
218	0x3cf1c579	0.029513108
219	0xbd66a61d	-0.05631076
220	0xbcb83619	-0.022486733
221	0x3d8c5006	0.06851201
222	0x3d17e517	0.03708371
223	0xbd87a481	-0.066231735
224	0x3d600ba2	0.054698594
225	0xbce3843c	-0.027773015
226	0xbd1ec95b	-0.038766246
227	0xbd31c7b8	-0.043403357
228	0xbbb89751	-0.0056332727
229	0x3dae5ff7	0.085143976
230	0xbca8ffbe	-0.02062976
231	0xbd9f81a8	-0.07788402
232	0x3bfd217c	0.007724939
233	0x3c40fa31	0.0117784
234	0x3cbc735a	0.023004223
235	0x3d8ea736	0.06965487
236	0xbd07285c	-0.032997474
237	0xbd110daa	-0.03541342
238	0x3c804ceb	0.015661677
239	0xbd0534bb	-0.03252099
240	0xbd3b8f9a	-0.045791246
241	0x3ae6081f	0.0017550028
242	0x3d991503	0.07474711
243	0x3d292979	0.041299317
244	0x3d749815	0.05971535
245	0xbd608b0c	-0.054820105
246	0x3c51038c	0.012757193
247	0xbc2b8165	-0.010467862
248	0xbc0eedad	-0.0087236585
249	0xbd32f5f2	-0.043691583
250	0x3d53c38d	0.051700164
251	0xbc26ad37	-0.010173134
252	0x3d2f52b5	0.042803485
253	0x3d0aa88a	0.033852138
254	0xbd7d9f88	-0.06191972
255	0xbb7bd884	-0.0038428614

encoder.conv.4.bias f4 [8]
0	0x3d1bbea2	0.0380236
1	0x3bb0d924	0.005396979
2	0xbc98e347	-0.018663062
3	0x3ce5c944	0.028050072
4	0x3d6dc8a2	0.058052666
5	0xbd0b94d9	-0.0340775
6	0xbccffbf3	-0.025388693
7	0x3c8623ea	0.016374547

vq.embedding.weight f4 [32, 8]
0	0xbc1b3ccc	-0.009474944
1	0xbcc31a2c	-0.02381619
2	0x3a2954c0	0.0006459467
3	0x3b5befa0	0.0033559576
4	0x3ccd350c	0.025049709
5	0x3ac24f40	0.0014824644
6	0xbca37f06	-0.01995803
7	0x3cce4b8c	0.025182508
8	0xbcfdece2	-0.030996744
9	0xbc2fdc88	-0.010733731
10	0x3b1f5860	0.002431415
11	0xbad67800	-0.0016362667
12	0x3cfde2fa	0.03099202
13	0xbc8e2af0	-0.017354459
14	0x3cbbe160	0.022934616
15	0x3c81378e	0.01577356
16	0x3cae8ca4	0.021307297
17	0xbcdb6cfe	-0.02678537
18	0xbaa572a0	-0.0012622662
19	0x3af9f560	0.001907032
20	0x3cf4d2e6	0.02988572
21	0x3cfe3b56	0.031034153
22	0x3c75d7e0	0.015005082
23	0xbc85d6d6	-0.016337793
24	0xbbad07e0	-0.00528048
25	0x3c83d042	0.016090516
26	0xbc6867a8	-0.01418487
27	0x3bef7540	0.0073076785
28	0x3c9e8bee	0.019353833
29	0x3ae6ca60	0.001760792
30	0xbb20a370	-0.002451148
31	0xbcdc606a	-0.026901443
32	0x397de100	0.00024211779
33	0x3c8ef23e	0.017449494
34	0xbbcbdc00	-0.0062212944
35	0xbc030c84	-0.007998589
36	0x3ce776b4	0.028254844
37	0x3cc0c122	0.023529593
38	0x3c9aea02	0.018910412
39	0xbcb796bc	-0.022410743
40	0x3bc9f471	0.006163173
41	0xb930d9be	-0.00016865783
42	0xbbbea823	-0.0058183833
43	0x3c9d6d9d	0.019217307
44	0x3a3e4c49	0.0007259292
45	0x39971d73	0.00028822906
46	0xbbaa7ab7	-0.005202617
47	0x3cd641b9	0.026154386
48	0x3c0f4584	0.008744601
49	0x3b8a0da0	0.00421305
50	0xbccb89ea	-0.024846036
51	0x3cbb63c0	0.022874713
52	0xbb18ea10	-0.0023332871
53	0x3cd5ec40	0.02611363
54	0x3ba1b268	0.0049345978
55	0x3c3dfee4	0.011596415
56	0xbcbcafce	-0.023033049
57	0xbc8514ca	-0.016245265
58	0xbc21bcac	-0.009871643
59	0xbbf25b98	-0.0073961727
60	0xbcaa2f84	-0.02077461
61	0x3c633808	0.013868339
62	0x3ca909b6	0.020634513
63	0x3cf5a578	0.029986128
64	0xbcf91db2	-0.030409668
65	0xbb60ac20	-0.0034282282
66	0xbc9365b2	-0.017992828
67	0xbc139d14	-0.009009618
68	0x3b9e78b0	0.0048361644
69	0x3c0dbb54	0.00865062
70	0x3ca56978	0.020191893
71	0x3cd7ec12	0.026357684
72	0xbc1d64f4	-0.009606589
73	0xbabbe540	-0.001433529
74	0xbcc77aa0	-0.024350464
75	0x3c73474c	0.0148485415
76	0xbcf5adf6	-0.029990178
77	0x3c8ecfd0	0.017433077
78	0x3c8f2ad0	0.01747647
79	0x39f49400	0.00046649575
80	0x3cbd82ee	0.023133721
81	0x3c1ac320	0.0094459355
82	0xbc78f2f4	-0.015194643
83	0xbcb4a138	-0.022049531
84	0x3bc80410	0.006104
85	0xbb8728e0	-0.0041247457
86	0xba70bac0	-0.00091831014
87	0xbcb02370	-0.021501273
88	0xbcb060c2	-0.021530513
89	0x3cfe601c	0.031051688
90	0xbc3bd564	-0.0114644505
91	0x3bf8f590	0.0075976327
92	0xbba70508	-0.0050970353
93	0xbb775650	-0.0037740655
94	0xbccb0ed4	-0.024787344
95	0xbcef8c3c	-0.029241674
96	0x3c1f7064	0.009731386
97	0xbca50a18	-0.020146415
98	0x3ceed918	0.029156253
99	0xba986360	-0.0011626296
100	0xbcb2cbda	-0.02182572
101	0xbcb4f9a4	-0.022091694
102	0x3cf949ae	0.030430641
103	0x3ca02a6a	0.019551475
104	0xbba22bb0	-0.0049490556
105	0xbb9f76f0	-0.0048664734
106	0x3c47b4f0	0.012189135
107	0x3cebc7c8	0.028781787
108	0xbcc765c2	-0.024340514
109	0x3b910380	0.004425466
110	0xbca1ca4c	-0.019749783
111	0xbcc09ade	-0.023511346
112	0xbb081780	-0.002076596
113	0xbc831152	-0.01599947
114	0xbcc1824e	-0.023621704
115	0x3c9b5d0c	0.018965267
116	0x3cf7d1ba	0.030251373
117	0x3cab7d00	0.020933628
118	0x3cfae2b2	0.030625675
119	0xbb53d510	-0.003232304
120	0xbc0413c4	-0.008061353
121	0xbc2a211c	-0.01038387
122	0x3c82c6a2	0.015963856
123	0x3c47a6d8	0.012185775
124	0xbcb27d24	-0.021788187
125	0xbb8afe30	-0.0042417273
126	0xbced74fe	-0.02898645
127	0xbcb7af42	-0.022422437
128	0xbc87f0ee	-0.016594376
129	0x3c8abef8	0.016936764
130	0xbc7a2658	-0.015267931
131	0xbbd72cb0	-0.0065666065
132	0xbc213b10	-0.009840742
133	0xbba48838	-0.0050211214
134	0x3caaa278	0.020829424
135	0x3c8daa34	0.017293073
136	0xbcea6fdc	-0.028617792
137	0xbcbabcb8	-0.022795066
138	0xbca87562	-0.020563785
139	0xbc8e3ffc	-0.017364495
140	0xbc81db7a	-0.015851725
141	0x3be50260	0.0069888085
142	0xbc4dbabc	-0.012556728
143	0xbc99e354	-0.018785156
144	0x3cf866d8	0.030322477
145	0x3bbca7e0	0.005757317
146	0xbcee3546	-0.029078137
147	0xbce348e6	-0.027744722
148	0xbc315298	-0.010822915
149	0x3c113a4c	0.008863997
150	0xbc679784	-0.014135245
151	0xbac81100	-0.0015263855
152	0x3b4b28c6	0.0030999645
153	0x3bd66b29	0.006543536
154	0x3c0f8779	0.008760327
155	0x3c9614f2	0.018320534
156	0x3cae8731	0.021304699
157	0x392f70fa	0.00016731388
158	0x3a06ec52	0.0005146909
159	0x3b087ce4	0.0020826394
160	0xbcf711a0	-0.030159771
161	0x3c98002e	0.018554773
162	0xbc3dc960	-0.011583656
163	0xbca00848	-0.019535199
164	0xbc0f5a90	-0.008749619
165	0x3a1effc0	0.00060653314
166	0xbcf717f8	-0.030162796
167	0xbc57a78c	-0.013162505
168	0x3cf7d648	0.030253544
169	0xbc289a04	-0.010290626
170	0xbc9bf148	-0.01903595
171	0xbcd349fe	-0.025792118
172	0xbc5ec26c	-0.0135961585
173	0xbc46cda4	-0.0121339895
174	0x3cef9046	0.0292436
175	0xbc6bf408	-0.014401443
176	0x3b208000	0.0024490356
177	0x3cd04832	0.02542505
178	0x3c7c1cdc	0.01538774
179	0xbcd9f38a	-0.026605386
180	0x3cbfb6c0	0.023402572
181	0xbb7c0160	-0.0038452968
182	0xbcab3034	-0.020897008
183	0xbb7304b0	-0.0037081651
184	0x3b8ddd5b	0.004329366
185	0x3d37a3bb	0.04483388
186	0x3c9963ff	0.01872444
187	0x3bc02113	0.0058633178
188	0xbbb3eae8	-0.0054906495
189	0x3abbf094	0.0014338666
190	0x3834701c	4.3019754e-05
191	0xb9556bfc	-0.0002035349
192	0xbc87de02	-0.016585354
193	0x3c880a00	0.01660633
194	0xbb36df40	-0.0027904063
195	0xbb934190	-0.0044938996
196	0x3ce483e2	0.027894918
197	0x3c86f63c	0.016474836
198	0xbcb13182	-0.021630052
199	0xbc99f4ca	-0.018793482
200	0x3cdb3ba6	0.026761841
201	0xbc53faf0	-0.012938246
202	0x3cbe53c0	0.023233294
203	0x3ccaa5ee	0.024737325
204	0xbc9bf232	-0.019036386
205	0x3c8d5142	0.01725066
206	0x3ad72f00	0.0016417205
207	0xbcfb99ec	-0.030713044
208	0x3c07f118	0.008297227
209	0x3caced1c	0.021109156
210	0x3bb7e638	0.005612161
211	0xbc6964bc	-0.014245208
212	0xbcaa6e34	-0.020804502
213	0x3ca64f94	0.020301618
214	0x3bc4b878	0.0060034357
215	0x3ceb1386	0.028695833
216	0xbcc18456	-0.023622673
217	0xbc1006ac	-0.008790653
218	0xbc482088	-0.012214787
219	0xbb8a9c28	-0.004230041
220	0x3c80a71a	0.01570468
221	0x3a9edd60	0.0012120418
222	0x3c2bf210	0.010494724
223	0x3bd61040	0.006532699
224	0xbc81f4ed	-0.01586386
225	0x3bc6bdc5	0.0060651028
226	0x3d19f08e	0.037582926
227	0xbc1a14ae	-0.0094043445
228	0x3c51c799	0.012803935
229	0xbc34f64e	-0.011045052
230	0xbba1ed85	-0.0049416446
231	0x3b6c0a3d	0.0036016845
232	0xbb371e0a	-0.0027941489
233	0x3d379724	0.044821873
234	0x3d2c689f	0.042091962
235	0x3cf9843f	0.030458568
236	0x3d217f65	0.039428134
237	0x3ccd1ac8	0.025037184
238	0xbac39f59	-0.0014924809
239	0x3d1edded	0.038785864
240	0xbc534eac	-0.012897175
241	0xbbc34840	-0.0059595406
242	0x3c918768	0.017764762
243	0x3cf72e88	0.030173555
244	0xbcd84fe0	-0.026405275
245	0xbbdf32e8	-0.0068114884
246	0x3c697748	0.01424963
247	0x3cacef84	0.021110304
248	0xbceca076	-0.028885107
249	0xbcc0ebcc	-0.023549937
250	0xbc9888fc	-0.018620007
251	0xbba15350	-0.0049232617
252	0xbc2f57cc	-0.010702085
253	0x3c7b6d84	0.015345935
254	0x3cf12b5e	0.029439624
255	0xbca8e9d4	-0.02061931

decoder.deconv.0.weight f4 [8, 64, 7]
0	0xbd15f1d4	-0.03660758
1	0x3cee0df6	0.029059391
2	0xbd465614	-0.048421934
3	0x3cc7be26	0.024382662
4	0x3c0925f7	0.008370868
5	0xbcf7f75a	-0.030269314
6	0x3caeb563	0.021326726
7	0xbc64a58a	-0.013955483
8	0xbc2339e9	-0.009962537
9	0xbd1c9954	-0.038232163
10	0xbb1978ef	-0.002341803
11	0xbd2a9e0f	-0.041654643
12	0x3cac3c91	0.021024974
13	0x3cf6d322	0.030129973
14	0xbc8e5148	-0.017372742
15	0xbce7f9fb	-0.028317442
16	0x39cbd4ba	0.0003887767
17	0x3d0ac2e6	0.033877276
18	0x3bfb38a9	0.0076666665
19	0xbd362e46	-0.044477724
20	0xbd21ecf8	-0.03953263
21	0x3cbbf849	0.02294554
22	0x3c369f3a	0.011146361
23	0xbc41789b	-0.01180854
24	0x3c607f08	0.013702162
25	0xbd104cb5	-0.035229404
26	0x3d0c57b5	0.03426333
27	0xbd3a6248	-0.045503885
28	0x3d2b1d8d	0.04177623
29	0xbcfc1f2f	-0.030776588
30	0xbc22548e	-0.009907855
31	0x3ca961cc	0.020676516
32	0xbb4b6ae8	-0.0031039063
33	0x3b802cb4	0.003911579
34	0xbd2f4480	-0.042789936
35	0xbcf58374	-0.029969908
36	0xb7a13fc4	-1.9222389e-05
37	0x3c20116b	0.009769778
38	0xbcbc0a95	-0.022954265
39	0x3d1f8083	0.038940918
40	0xbc1dfdbe	-0.009643016
41	0xb9b5ed8a	-0.0003469999
42	0xbd0aa78a	-0.033851184
43	0xbbbceaba	-0.0057652863
44	0xbcf5bf4a	-0.02999844
45	0xbd2fbe9b	-0.042906385
46	0xbd265f84	-0.040618435
47	0xbcdca473	-0.026933884
48	0x3bca9d7b	0.006183324
49	0x3c258764	0.01010308
50	0x3cfaeaf7	0.030629618
51	0x3d231497	0.039814558
52	0xbd40cec0	-0.047072172
53	0x3c1457be	0.0090541225
54	0x3b27d7c2	0.002561078
55	0x3d15bf5a	0.03655944
56	0xbbeebc6d	-0.0072856457
57	0x3d1619dc	0.036645755
58	0xbcbbfe42	-0.022948388
59	0x3d15bf78	0.036559552
60	0x3d1f0ae4	0.038828745
61	0xbd4406fb	-0.04785822
62	0xbd6d2faf	-0.057906803
63	0xbc7fcb0d	-0.015612376
64	0xbce318c2	-0.027721766
65	0x3cd38704	0.025821216
66	0xbd4159e1	-0.047204856
67	0x3d174519	0.03693113
68	0xbd03f562	-0.032216437
69	0xbcefe6e7	-0.029284908
70	0x3c888a5c	0.016667537
71	0xbbc9cd2a	-0.0061584907
72	0xbd36bce1	-0.044613723
73	0xbd0972e2	-0.033556826
74	0x3bf3f55d	0.007445021
75	0xbc8afebf	-0.016967176
76	0x3bbf6c35	0.0058417567
77	0x3d066c91	0.03281838
78	0x3c9d05b0	0.019167751
79	0x3bb8a62a	0.0056350427
80	0xbafb4aa8	-0.001917203
81	0x3bf1ec2c	0.00738289
82	0x3c3f41b9	0.011673384
83	0x3c818d1c	0.015814357
84	0x3cd9bfa1	0.026580634
85	0x3b9b7d17	0.0047451365
86	0x3d30e48e	0.043186717
87	0x3c18fbc8	0.009337373
88	0x3d2acd3a	0.041699626
89	0xbd321b7c	-0.043483242
90	0x3d1a4b4e	0.037669472
91	0x3c1d9501	0.009618045
92	0x3bf71032	0.0075397724
93	0x3d40c113	0.04705913
94	0xbd06dc2c	-0.032924816
95	0x3c3623ba	0.011116916
96	0x3d41e506	0.047337554
97	0xbc18b508	-0.009320505
98	0x3d11a4de	0.03555762
99	0x3d08f60a	0.033437766
100	0x3d15a12a	0.03653065
101	0x3ba9cb0c	0.005181676
102	0xbcc4e08f	-0.02403286
103	0xbc440621	-0.011964352
104	0x3b4d03dd	0.003128282
105	0xbbc10486	-0.005890432
106	0xbce3cb6b	-0.027806958
107	0xbd40f248	-0.047106057
108	0x3d26ac05	0.040691394
109	0xba82351a	-0.0009934038
110	0x3d22bdf7	0.039731946
111	0x3d1a71d7	0.037706222
112	0xbc877c3a	-0.016538728
113	0xbbc2967d	-0.0059383498
114	0x3ce842db	0.028352192
115	0x3d3328a4	0.04373993
116	0x3d0075a8	0.031362206
117	0xbd17f995	-0.037103254
118	0x3ca0dfd0	0.019637972
119	0xbd0b0c4a	-0.033947267
120	0xbd36dd02	-0.044644363
121	0x3c11819c	0.008880999
122	0xbb159a8d	-0.0022827715
123	0xbd3c4470	-0.045963705
124	0xbb68471c	-0.0035442775
125	0xbbb557a3	-0.0055341288
126	0x3d306853	0.04306824
127	0x3d011011	0.031509463
128	0xbb3c2617	-0.0028709227
129	0xbcd11ad6	-0.025525492
130	0x3cd37672	0.025813315
131	0x3b357a42	0.002769128
132	0x3a06869c	0.00051317527
133	0x3d11287f	0.03543901
134	0x3d129bee	0.035793237
135	0xbcf7fb0b	-0.030271074
136	0xbccc8333	-0.024964904
137	0xbd201ccb	-0.03908996
138	0xbd18bf6c	-0.03729193
139	0xbcb2f9a3	-0.021847552
140	0xbd22bbaf	-0.03972977
141	0xbc3b025e	-0.011414139
142	0xbcff38fc	-0.031155102
143	0x3c8d0d18	0.017218158
144	0x3c5c66f8	0.013452284
145	0x3d1ec002	0.03875733
146	0xbd2b3a61	-0.04180372
147	0x3cd821c5	0.02638329
148	0xbd30ed69	-0.043195162
149	0xbd1e7f96	-0.038695894
150	0xbbe64170	-0.0070268437
151	0x3c95cd28	0.018286303
152	0xbd288b58	-0.041148514
153	0x3b3ba8a1	0.0028634446
154	0xbd1e8b73	-0.038707208
155	0xbd39ce29	-0.045362625
156	0x3d14fcab	0.036373775
157	0x3bd885cb	0.0066077462
158	0xbc4e3ea7	-0.01258818
159	0xbbac7e57	-0.0052640843
160	0xbaf1ad83	-0.0018438551
161	0x3b5bd39a	0.0033542872
162	0xbba698c1	-0.0050841277
163	0xbd2ebf9a	-0.042663194
164	0xbd04b2f6	-0.032397233
165	0xbd2a625f	-0.04159772
166	0xbd2eeccd	-0.0427063
167	0x3c5953f8	0.013264649
168	0x3cd57a29	0.026059227
169	0x3cfb8cba	0.030706752
170	0xbd55dc77	-0.052212205
171	0x3b24639a	0.0025083781
172	0xbcd7d22d	-0.026345337
173	0xbd5cc75c	-0.05390106
174	0xbc8e8c2d	-0.017400825
175	0xbcaba600	-0.020953178
176	0x3d0673a1	0.032825116
177	0xba8fbfef	-0.0010967235
178	0x3d0ac571	0.0338797
179	0xbb10586d	-0.0022025362
180	0x3bbe20be	0.005802243
181	0xbd7402d4	-0.05957301
182	0x3cd033c9	0.025415318
183	0xbca936db	-0.02065604
184	0xbd32fbb0	-0.04369706
185	0x3d12001c	0.035644636
186	0x3d131622	0.03590978
187	0xbd293202	-0.041307457
188	0xbd3d108f	-0.04615837
189	0x3c9c2f91	0.01906565
190	0x3d245fc2	0.040130384
191	0x3a68e628	0.00088843936
192	0xbd3e38f3	-0.04644103
193	0x3c9056e4	0.017619558
194	0xbd01dde5	-0.031705756
195	0x3c6a1c92	0.014289038
196	0x3d390d95	0.04517897
197	0x3c2c82c3	0.010529223
198	0x3d080963	0.033212077
199	0xbceaa410	-0.028642684
200	0x3cc299a1	0.023754897
201	0x3d3d5114	0.0462199
202	0x3b8baac7	0.0042623016
203	0xba83ad24	-0.0010046107
204	0xbce89fd5	-0.028396526
205	0xbc87d271	-0.016579838
206	0xbcd2ad5e	-0.025717434
207	0xbd1f36c0	-0.038870573
208	0x3bfb2b69	0.007665087
209	0x391a2b0d	0.00014702622
210	0xbc0126b6	-0.007882765
211	0xbd4853c0	-0.048907995
212	0xbccf9968	-0.025341704
213	0x3d0675d6	0.03282722
214	0xbc23d638	-0.009999804
215	0x3bebbc3d	0.0071940706
216	0xbd00277e	-0.031287663
217	0x3c0a6a5c	0.00844821
218	0xbc0f6e48	-0.00875432
219	0xbcbf3e4e	-0.023345139
220	0x3c67658b	0.014123331
221	0xba8dc364	-0.0010815677
222	0x3cd2132f	0.025643913
223	0x3cb63cc8	0.02224578
224	0xbd3d37ca	-0.046195783
225	0x3bc6a9dc	0.0060627293
226	0x3c265ceb	0.010153989
227	0x3cdf31c9	0.02724542
228	0xbd095eb2	-0.033537574
229	0x3cbceaed	0.02306124
230	0x3bb75514	0.005594859
231	0x3cd18260	0.025574863
232	0xbc3f3e72	-0.011672603
233	0xbbca8814	-0.0061807726
234	0xbce344dd	-0.027742798
235	0x3bb5c518	0.005547177
236	0xbcc87742	-0.024470929
237	0x3cba5893	0.022747314
238	0x3d243739	0.040091727
239	0x3d219156	0.039445244
240	0xbca99961	-0.02070302
241	0xbc2f74d3	-0.010709005
242	0x3d17601e	0.0369569
243	0xbc83086e	-0.01599523
244	0x3c82042a	0.015871126
245	0xbb99c97d	-0.0046932087
246	0xbd1e6fdd	-0.0386809
247	0x3c6d3971	0.014479027
248	0xbcbaee12	-0.022818599
249	0x3c974b45	0.018468508
250	0x3b7cfc4e	0.0038602534
251	0x3d0987c0	0.033576727
252	0x3caca078	0.021072611
253	0x3d080e69	0.033216868
254	0x3cd823c4	0.026384242
255	0xbbed1d85	-0.007236185

decoder.deconv.0.bias f4 [64]
0	0x3d487b7f	0.0489459
1	0xbd0c923f	-0.03431916
2	0x3cb3cfe0	0.021949708
3	0xbbc79806	-0.0060911207
4	0xbcf30ae1	-0.029668273
5	0xbc21d6ee	-0.009877903
6	0xbd0edfa5	-0.034881253
7	0xbcaebc7f	-0.021330116
8	0x3d2ef560	0.042714477
9	0xbcaeff38	-0.021361932
10	0x3cbb4037	0.022857768
11	0x3d57174c	0.052512452
12	0xbd405962	-0.046960242
13	0xbb923c88	-0.0044627823
14	0xbc031147	-0.007999725
15	0xbbaaf2fc	-0.0052169543
16	0xbc0c4a59	-0.008562648
17	0x3d4093e1	0.04701603
18	0xbc6d9194	-0.014500041
19	0x3d1ae564	0.03781642
20	0x3d7963b3	0.060886096
21	0x3c2ce530	0.010552689
22	0x3d7fdcdf	0.0624665
23	0xbcc54656	-0.02408139
24	0x3d407332	0.04698486
25	0x3d48277e	0.048865788
26	0x3ccdf802	0.025142673
27	0x3d85c265	0.065312184
28	0xbd3f8c29	-0.046764527
29	0xbc5c9a3f	-0.0134645095
30	0x3d2640e1	0.040589217
31	0xbc7cfa40	-0.015440524
32	0xbca6ec2e	-0.020376291
33	0xbd1874d6	-0.0372208
34	0xbcd911d6	-0.026497763
35	0xbd380d52	-0.04493458
36	0xbd03f604	-0.03221704
37	0x3d6fbc0a	0.058528937
38	0xbc579e00	-0.013160229
39	0x3d173ab4	0.036921218
40	0x3cba2834	0.022724248
41	0xbb4bf4cc	-0.0031121252
42	0xbc127c86	-0.0089408215
43	0x3d429cb8	0.04751274
44	0xbd06fc25	-0.032955308
45	0xbb89c181	-0.0042039757
46	0xbc10dae6	-0.008841252
47	0xbd02e8d1	-0.031960312
48	0x3ccc0d2c	0.024908625
49	0x3cd6eea3	0.026236838
50	0xbcc71460	-0.024301708
51	0xb9dc9122	-0.00042069802
52	0x3d8143bf	0.0631175
53	0xbc8e4b5a	-0.017369915
54	0xbd11542a	-0.035480656
55	0x3d1e5950	0.038659394
56	0x3d08762e	0.03331583
57	0x3cd4928e	0.025948789
58	0x3d1b0904	0.037850395
59	0xbd2e0107	-0.04248145
60	0xbd2464f2	-0.04013533
61	0x3d0c82f0	0.03430456
62	0x3cbaea19	0.022816705
63	0xbb824829	-0.0039758873

decoder.deconv.2.weight f4 [64, 64, 3]
0	0xbce395dc	-0.02778142
1	0xbd823ee6	-0.06359653
2	0x3d083501	0.033253673
3	0xbb351657	-0.0027631724
4	0xbcd0bdb8	-0.02548109
5	0xbc875dae	-0.016524162
6	0xbd6aff1a	-0.05737219
7	0xbc347bd3	-0.01101585
8	0xbd5267a4	-0.05136837
9	0x3c3f6310	0.011681333
10	0x3d5e1408	0.054218322
11	0x3d904c5e	0.07045816
12	0x3d668c43	0.056286108
13	0xbd4364ec	-0.04770367
14	0x3cfb8338	0.030702218
15	0x3d04b0d1	0.032395188
16	0x3c8ac44a	0.016939301
17	0xbc1d328a	-0.009594569
18	0x3d91fa94	0.07127872
19	0x3d5b516d	0.05354445
20	0x3d1e60aa	0.038666405
21	0xbbe280e0	-0.0069123358
22	0xbd588a62	-0.052866347
23	0x3cb5fccb	0.022215268
24	0xbca19d02	-0.019728187
25	0x3d5a11b6	0.053239547
26	0x3bc6f139	0.0060712365
27	0xbc11fd09	-0.008910426
28	0x3af3c941	0.0018599407
29	0x3d814455	0.063118614
30	0x3c1f14c6	0.009709543
31	0x3c89dfce	0.016830351
32	0x3d17c097	0.037048902
33	0xbcb7618a	-0.022385377
34	0x3d500197	0.050782766
35	0xbc670c4f	-0.014102056
36	0xbd75b6e6	-0.05998888
37	0x3ced2d70	0.02895233
38	0x3d7cc2a1	0.06170905
39	0x3c7b7476	0.015347591
40	0x3ccae388	0.024766698
41	0x3d85f5df	0.06541037
42	0x3c330d9b	0.010928537
43	0x3d8ba91e	0.06819366
44	0x3c40fb80	0.011778712
45	0xbd815299	-0.063145824
46	0x3cbc413b	0.022980323
47	0xbd369e20	-0.044584394
48	0xbc6d9a85	-0.014502172
49	0x3d164500	0.036686897
50	0xbce167c7	-0.027515305
51	0x3d662fc5	0.0561979
52	0x3d53322a	0.051561512
53	0x3cfa79ed	0.030575717
54	0x3d2a0734	0.041510776
55	0xbc6ce037	-0.014457754
56	0x3d87b531	0.066263564
57	0x3d446cba	0.047955252
58	0x3d0c8532	0.034306712
59	0x3d03fb47	0.03222206
60	0xbbc9f7f4	-0.0061635915
61	0xbcb1ef01	-0.021720411
62	0x3d045410	0.03230673
63	0xbd13ac1e	-0.036052816
64	0xbd72ebbb	-0.05930684
65	0xbd648459	-0.05579028
66	0xbd885e15	-0.0665857
67	0xbc537cea	-0.0129082
68	0xbd312d2b	-0.043255966
69	0xbd508cf1	-0.050915662
70	0xbd2a708f	-0.04161125
71	0x3c36e4a7	0.011162913
72	0x3d537965	0.051629443
73	0xbd8d33f5	-0.06894676
74	0xbcbce892	-0.023060117
75	0xbd7af978	-0.06127307
76	0x3cb254c3	0.021768933
77	0xbc4ae199	-0.012382888
78	0x3d3d302a	0.04618851
79	0x3cd0bfe7	0.025482131
80	0x3d7c8e45	0.061659116
81	0x3d75bd9e	0.059995286
82	0xbd68fc49	-0.056881223
83	0xbd726b51	-0.059184376
84	0x3cab13f8	0.020883545
85	0xbc5ebdb6	-0.013595035
86	0xbd52fac4	-0.05150868
87	0xbd4dae35	-0.050214965
88	0x3d8bc6c5	0.06825022
89	0x3d06c684	0.032904163
90	0xbd64c5ff	-0.055852886
91	0xbcfce535	-0.030871013
92	0x3d65a95f	0.056069728
93	0xbd7e197f	-0.062036034
94	0xbd40467e	-0.046942227
95	0xbcf5ad3c	-0.029989831
96	0xbd342491	-0.043980185
97	0xbd16126b	-0.03663866
98	0xbd44cf01	-0.048048977
99	0x3d703cdb	0.058651786
100	0x3cc9a7fd	0.024616236
101	0xbd51f72a	-0.051261105
102	0xbd67c23a	-0.056581713
103	0x3d0d8a7e	0.034555905
104	0xbaa2412d	-0.0012379043
105	0x3d0ba0c4	0.034088865
106	0xbd3296a3	-0.04360069
107	0xbc9525b9	-0.018206464
108	0x3d348fc1	0.044082407
109	0xbca6e6fc	-0.020373814
110	0xbd36845c	-0.04455982
111	0xbcd7a6dd	-0.026324684
112	0xbd2b341a	-0.041797735
113	0xbca65b32	-0.020307157
114	0xb9a6ead9	-0.00031836962
115	0x3c35fff3	0.011108386
116	0x3d9307c6	0.07179217
117	0x3cc8f7f4	0.024532296
118	0x3d39203b	0.045196753
119	0xbc3321fe	-0.010933397
120	0x3d34d75d	0.0441507
121	0xbcb3c325	-0.021943638
122	0x3cf0c4b4	0.02939067
123	0x3d4d5ccd	0.05013733
124	0x3d4f19f3	0.050561856
125	0x3d187e5e	0.03722989
126	0xbd86bdb9	-0.065791555
127	0x3c4ca62b	0.012490789
128	0xbc083655	-0.008313735
129	0xbab93c60	-0.0014132373
130	0xbd929870	-0.071579814
131	0xbc81d510	-0.015848666
132	0x3d7a9c6c	0.06118433
133	0xbd91ebff	-0.07125091
134	0xbce5be0a	-0.02804472
135	0x3cbf06d4	0.023318686
136	0x3bccb0be	0.0062466552
137	0x3d76a954	0.060220078
138	0xbc88f7df	-0.016719757
139	0x3cedaf73	0.029014325
140	0x3d5e4350	0.054263413
141	0xbcd59635	-0.0260726
142	0x3d222749	0.039588246
143	0x3c4891f6	0.012241831
144	0x3c2cd533	0.0105488775
145	0x3d76cd23	0.060254227
146	0x3cfa6a65	0.030568311
147	0xbc585547	-0.013203925
148	0x3c829fcd	0.01594534
149	0x3d1af1d0	0.037828267
150	0xbd00253b	-0.031285506
151	0x3d8760e7	0.066102795
152	0xbd6de97b	-0.058083992
153	0xbd13f520	-0.03612244
154	0x3c0db71a	0.008649612
155	0x3d8dc735	0.06922761
156	0xbcc12a28	-0.023579672
157	0x3b8f4f6f	0.004373483
158	0x3d5197a9	0.051170025
159	0xbd19f2ad	-0.03758495
160	0xbc841f7d	-0.016128296
161	0x3c0fc446	0.008774823
162	0x3cca01c9	0.024659054
163	0x3d7ae1b7	0.061250415
164	0x3d8683a2	0.06568076
165	0x3c3159c7	0.010824627
166	0xbd12b0a8	-0.035813004
167	0xbd503efd	-0.05084132
168	0x3ba334d1	0.0049806614
169	0x3cd93c53	0.026518023
170	0x3d3ad1a3	0.04561008
171	0x3c4e6087	0.012596256
172	0xbcb25557	-0.021769209
173	0x3c40c4e8	0.011765696
174	0xbd872efc	-0.066007584
175	0x3cfa23d9	0.030534672
176	0x3a9c4406	0.0011922128
177	0xbd11bbac	-0.03557937
178	0x393e1564	0.0001812778
179	0x3d8c5b8d	0.068533994
180	0x3c180cfe	0.009280441
181	0xbc693f5e	-0.014236299
182	0xba8c5a3d	-0.0010708045
183	0xbd589893	-0.05287988
184	0x3c3d96d7	0.011571608
185	0x3cb59650	0.022166401
186	0x3d237d57	0.039914455
187	0x3d876735	0.06611482
188	0x3d225b4b	0.039637845
189	0xbd591ecf	-0.053007897
190	0x3d2450c9	0.040116105
191	0xbb19e154	-0.0023480253
192	0xbd2c43e4	-0.042056933
193	0x3c92d983	0.017925983
194	0xbd870c3d	-0.06594131
195	0xbd7d7294	-0.06187685
196	0x3d894c16	0.06703965
197	0x3c1fa5e7	0.009744144
198	0x3c8e0b20	0.01733929
199	0xbd799369	-0.060931597
200	0x3d48e75d	0.04904877
201	0xbd392def	-0.04520982
202	0xbc854643	-0.016268855
203	0x3cca49d4	0.024693407
204	0xbd4865a8	-0.048925072
205	0x3d2b82a4	0.041872635
206	0xbd28ec2a	-0.04124085
207	0xbd3c154e	-0.045918755
208	0xbce4c5f6	-0.027926426
209	0xbd931b06	-0.07182889
210	0x3d838c19	0.06423206
211	0xbd4bd6d9	-0.04976544
212	0xbd476bac	-0.04868667
213	0x3ca71d22	0.020399634
214	0xbd9078b7	-0.070542745
215	0xbbf369a1	-0.0074283634
216	0xbc956668	-0.018237308
217	0x3cd780fa	0.026306618
218	0x3d1bc14a	0.03802613
219	0xbc12fc31	-0.00897126
220	0xbd673c2c	-0.05645387
221	0x3aefa4f3	0.0018283412
222	0x3d11f8df	0.035637733
223	0xbd901247	-0.07034736
224	0xb9d0464c	-0.00039725227
225	0x3d3a7c6b	0.04552881
226	0xbd505f83	-0.050872337
227	0xbd7b0ee7	-0.06129351
228	0x3d7b4a20	0.061349988
229	0x3d5d239f	0.05398905
230	0xbd456bf4	-0.048198655
231	0x3d77c164	0.060487166
232	0xbb46e768	-0.0030350331
233	0x3d36768f	0.04454666
234	0xbaa48bc3	-0.0012553859
235	0xbc5ec7e3	-0.013597461
236	0x3c84fc25	0.016233513
237	0x3d7851eb	0.060624998
238	0x3d8b4f1c	0.06802198
239	0x3c991206	0.018685352
240	0xbd2098cc	-0.03920822
241	0x3d84401a	0.06457539
242	0x3d3f0af8	0.04664132
243	0xbc27b420	-0.010235816
244	0x3c4298eb	0.011877279
245	0x3d39a701	0.045325283
246	0x3d74c892	0.05976159
247	0xb8e81ce3	-0.00011068003
248	0x3d92a5b0	0.07160509
249	0xbccddd2a	-0.025129873
250	0x3d8a8d6d	0.06765256
251	0x3cae43e4	0.021272607
252	0xbd4cf13e	-0.050034754
253	0x3d5f65df	0.05454051
254	0x3d6c3d8c	0.057675883
255	0xbca2f56b	-0.019892415

decoder.deconv.2.bias f4 [64]
0	0xbd370e4d	-0.044691373
1	0xbd769205	-0.06019785
2	0x3d0a8742	0.0338204
3	0x3cb3a2d7	0.021928234
4	0x3cd82ded	0.026389087
5	0x3d3fee96	0.046858393
6	0xbd7a673f	-0.06113362
7	0xbd45747c	-0.04820679
8	0xbd83024e	-0.06396924
9	0xbd59ec1a	-0.05320368
10	0x3d2bad67	0.041913416
11	0x3cefe79d	0.029285247
12	0x3cef6eb2	0.029227588
13	0x3da90636	0.08253138
14	0x3c30d6c7	0.010793394
15	0xbd5899c6	-0.052881025
16	0x3cda037d	0.026612991
17	0x3d7909b6	0.060800277
18	0xbc8488b6	-0.01617847
19	0xbd0121e9	-0.03152648
20	0x3d9a1724	0.07523945
21	0xbd716af4	-0.05893989
22	0x3db8fc80	0.090325356
23	0x3d1a204d	0.03762846
24	0xbcb3d645	-0.021952758
25	0x3ccfac68	0.025350764
26	0x3d03790c	0.03209786
27	0x3d58f9d5	0.052972633
28	0x3d2b9586	0.041890644
29	0xbd69a3cd	-0.05704098
30	0x3d94d550	0.07267249
31	0xbd316acf	-0.04331475
32	0x3d1ee147	0.03878906
33	0x3d9b4f8a	0.0758353
34	0x3ced2bf3	0.02895162
35	0x3db1638c	0.08661565
36	0xbcbdddb1	-0.023177
37	0xba65a9e3	-0.0008760972
38	0x3db82e13	0.08993163
39	0xbd846f5a	-0.06466551
40	0x3da46400	0.08026886
41	0x3dbe3039	0.092865415
42	0x3daf5f0d	0.085630514
43	0xbcdf6479	-0.027269589
44	0x3d58948a	0.052876033
45	0x3c8d4d81	0.01724887
46	0x3d80cdae	0.0628923
47	0xbc85cbe1	-0.016332569
48	0xbd4d79d0	-0.050164998
49	0x3d0f22b5	0.03494521
50	0x3d938cde	0.07204603
51	0xbd42b57b	-0.047536355
52	0xbd71e0e8	-0.059052378
53	0x3d9135db	0.0709035
54	0x3d2d602f	0.042328056
55	0xbc86e88d	-0.01646831
56	0xbccd3ca9	-0.02505334
57	0xbd889bdd	-0.066703536
58	0xbd15c70f	-0.03656679
59	0xbcd8b895	-0.026455203
60	0xbd19f68c	-0.03758864
61	0xbcbb06c1	-0.022830369
62	0x3da2f80b	0.07957467
63	0x3da4c3cf	0.0804516
