model/vqvae/num_embedding_32_commitment_cost_0.4.pt (torch, 269764 bytes, 17 tensors)

encoder.conv.0.weight f4 [64, 5, 5]
-0.023173109 -0.112245604 0.19374521 -0.16971737 0.006188914 0.10755725 -0.022951964 0.15423629
-0.09918364 0.088626616 0.06835111 -0.07699592 0.024917375 -0.18277341 -0.20459849 0.18825123
0.12909374 -0.04914634 0.006352845 -0.13733114 -0.06358357 -0.105212696 -0.11473783 0.1553541
0.013585848 -0.19873066 0.14180481 0.06563006 -0.12803869 -0.018289767 0.10081466 -0.11515048
0.0852818 -0.12077152 0.10411795 -0.14209405 0.17037196 -0.0820439 -0.09381436 0.103913605
0.0068022422 0.04468173 -0.2014381 -0.1025366 -0.14925767 -0.18710299 -0.017255044 -0.1761079
-0.1383746 -0.027186982 -0.075901136 -0.07237237 0.097638056 0.03247378 -0.019038852 0.033594847
0.08317653 0.12564506 -0.18618077 -0.05137822 -0.10896185 0.11381636 -0.062999 -0.06591115
0.086682625 -0.037014626 0.035731874 0.16598749 0.0150801735 -0.08714772 0.06319434 0.12646417
-0.029681431 -0.05629545 -0.14731792 0.09486727 0.19231835 -0.020887662 0.1387226 -0.17658377
-0.08530419 0.017405288 -0.11227197 0.1334618 -0.19868983 0.042598035 -0.10404313 -0.18741003
0.07480933 0.07453444 -0.1033661 0.026197046 -0.0987486 -0.01807026 -0.013597602 0.111608766
-0.12914477 -0.108622 -0.174584 0.050941534 0.16677816 -0.04888919 -0.20257325 0.07207296
-0.18385899 0.14195774 0.09192978 -0.008502846 -0.16259791 -0.013691622 -0.043353733 -0.08935114
0.056438595 0.13540202 -0.01838023 -0.026856793 -0.013514488 -0.051451217 -0.044309445 0.061463304
-0.14742301 0.1083484 -0.14139055 0.14851832 -0.08649629 0.15612325 0.1355726 -0.059557624
-0.09329865 0.1791346 0.1585458 0.002260408 0.05008137 0.118398346 0.06022712 0.12619503
-0.06916903 -0.042680748 -0.082459554 -0.071002565 0.056660213 0.09793607 0.11152244 -0.07681041
-0.11241275 0.031523444 -0.18002991 0.18402684 0.09920088 -0.20071444 -0.064588726 0.023144819
-0.053177226 0.1745914 -0.06167797 -0.029371003 -0.041408364 -0.027513668 -0.0087158205 0.12033823
-0.009498896 0.14368644 0.010180753 -0.07787444 -0.056205984 0.13356343 0.044862293 0.14054763
-0.16941182 -0.17523448 0.03747156 0.050569322 0.118708655 0.16511117 -0.19399154 0.037129123
-0.019419534 -0.21004732 0.109732464 0.10190088 0.09256899 0.1524772 -0.16185302 0.1552489
0.10147043 0.1256321 -0.18603794 0.13501202 0.1286409 0.10635368 -0.030497447 -0.06900692
-0.06935923 0.18381159 0.15986262 0.14349769 0.12726803 -0.068139754 -0.21160872 0.13186067
-0.09185947 0.1238392 -0.1134461 0.019363075 0.03385296 0.09469132 0.08441446 0.12675151
-0.014432082 -0.20646489 0.16803744 -0.033971924 -0.13580343 -0.18254957 0.06738347 0.10266883
-0.15286767 0.120953225 0.07161483 0.13920139 -0.066970594 0.040766083 -0.16380377 0.15613826
-0.015982347 0.1352421 -0.16531122 0.10103842 0.0075920774 0.15462263 -0.13659322 0.18792461
0.072110154 -0.14468005 0.19237089 -0.110369086 0.0055635995 0.08318185 -0.05291882 0.12406276
-0.02654908 0.12898538 -0.03867782 -0.056715693 -0.070821755 -0.12416315 0.041870926 -0.20313159
0.008427682 0.18694957 -0.10650158 0.024857856 0.19864526 -0.17225727 0.07316912 -0.09130465
00000000: 88d5 bdbc 06e1 e5bd 2565 463e 64ca 2dbe
00000010: 60cc ca3b fa46 dc3d c205 bcbc 1ef0 1d3e
00000020: cb20 cbbd df81 b53d abfb 8b3d 09b0 9dbd
00000030: 861f cc3c f428 3bbe 4482 51be eec4 403e
00000040: 2631 043e ac4d 49bd 872b d03b 89a0 0cbe
00000050: 1a38 82bd c179 d7bd abfb eabd 2515 1f3e
00000060: 2d97 5e3c 0d80 4bbe 4835 113e 0e69 863d
00000070: 931c 03be 6cd4 95bc eb77 ce3d 04d4 ebbd
00000080: 39a8 ae3d 0f57 f7bd cb3b d53d 1a81 11be
00000090: fd75 2e3e a206 a8bd be21 c0bd a8d0 d43d
000000a0: 58e5 de3b 3104 373d ca45 4ebe b5fe d1bd
000000b0: 01d7 18be ed97 3fbe 735a 8dbc a155 34be
000000c0: 12b2 0dbe 3cb7 debc 0e72 9bbd f737 94bd
000000d0: 76f6 c73d 3a03 053d 5ef7 9bbc c09a 093d
000000e0: 7558 aa3d 19a9 003e 2ca6 3ebe f871 52bd
000000f0: 6427 dfbd 8d18 e93d 9f05 81bd 6dfc 86bd
00000100: a986 b13d a69c 17bd 965b 123d a0f8 293e
00000110: d512 773c 817a b2bd 096c 813d d37f 013e
00000120: 7926 f3bc 0f96 66bd 82da 16be c549 c23d
00000130: 1aef 443e 9a1c abbc 4c0d 0e3e 60d2 34be
00000140: f7b3 aebd 8995 8e3c d9ee e5bd 36aa 083e
00000150: 5975 4bbe 477b 2e3d 9114 d5bd 6ae8 3fbe
00000160: a235 993d 83a5 983d 9bb1 d3bd 309b d63c
00000170: b53c cabd 1508 94bc 7ac8 5ebc 2393 e43d
00000180: 873e 04be 3675 debd 26c6 32be 12a8 503d
00000190: e5c7 2a3e 0840 48bd 5d6f 4fbe fd9a 933d
000001a0: 8845 3cbe 5f5d 113e ae45 bc3d 854f 0bbc
000001b0: 1180 26be d352 60bc af93 31bd bbfd b6bd
000001c0: 282c 673d d4a6 0a3e 2392 96bc c702 dcbc
000001d0: df6b 5dbc 83be 52bd d27d 35bd f2c0 7b3d
000001e0: 0ff6 16be c4e5 dd3d afc8 10be 3015 183e
000001f0: f824 b1bd c6de 1f3e 8bd3 0a3e b2f2 73bd
00000200: 5d13 bfbd 106f 373e d559 223e 5a23 143b
00000210: 1f22 4d3d d57a f23d b6b0 763d 4539 013e
00000220: 7ea8 8dbd 02d2 2ebd 8ee0 a8bd cb69 91bd
00000230: 8a14 683d b592 c83d e165 e43d c74e 9dbd
00000240: a838 e6bd ba1e 013d c359 38be 8871 3c3e
00000250: d529 cb3d 1688 4dbe 1847 84bd 349a bd3c
00000260: 5dd0 59bd 17c8 323e 0aa2 7cbd 759b f0bc
00000270: d19b 29bd 5864 e1bc cdcc 0ebc e473 f63d
00000280: 42a1 1bbc 8a22 133e 2ccd 263c a27c 9fbd
00000290: 3f38 66bd dac4 083e 86c1 373d b8eb 0f3e
000002a0: 4b7a 2dbe ab70 33be c77b 193d c721 4f3d
000002b0: 861d f33d e712 293e b8a5 46be b514 183d
000002c0: b715 9fbc a516 57be 6abb e03d 69b1 d03d
000002d0: d094 bd3d fc22 1c3e ccbc 25be 91f9 1e3e
000002e0: bbcf cf3d b4a5 003e bb80 3ebe 9740 0a3e
000002f0: 71ba 033e f5cf d93d c8d5 f9bc 8053 8dbd
00000300: 360c 8ebd 1b39 3c3e 07b3 233e 0ff1 123e
00000310: 8d52 023e db8c 8bbd f5af 58be 7c06 073e
00000320: d120 bcbd 689f fd3d 6e56 e8bd 509f 9e3c
00000330: 67a9 0a3d 86ed c13d 7de1 ac3d 26cb 013e
00000340: 8a74 6cbc 886b 53be 0212 2c3e 2526 0bbd
00000350: 0e10 0bbe 46ee 3abe 5800 8a3d 0944 d23d
00000360: 5889 1cbe 53b6 f73d ccaa 923d cf8a 0e3e
00000370: e127 89bd 56fa 263d 2dbc 27be b5e2 1f3e
00000380: 69ed 82bc e87c 0a3e 5847 29be 3bed ce3d
00000390: f6c6 f83b 6555 1e3e 18df 0bbe 4f6f 403e
000003a0: 7dae 933d 0227 14be e0fc 443e 3009 e2bd
000003b0: db4e b63b 3f5b aa3d 68c1 58bd 9e14 fe3d
000003c0: 757d d9bc be14 043e a26c 1ebd b74e 68bd
000003d0: ff0a 91bd 4049 febd d980 2b3d ba01 50be
000003e0: 4314 0a3c b56f 3f3e 801d dabd b4a2 cb3c
000003f0: aa69 4b3e 3664 30be b1d9 953d effd babd

encoder.conv.0.bias f4 [64]
-0.19442174 0.016842538 -0.081974775 -0.019689215 -0.15583417 -0.1041236 0.122055374 -0.17786962
-0.069566295 0.010238695 -0.04240798 -0.073787816 0.03691027 -0.13309027 0.005301745 -0.13092235
0.08852741 -0.17640309 -0.06656071 -0.06702227 -0.093598604 -0.16377442 0.18218786 0.1470856
-0.037924346 -0.11681025 -0.035499692 0.060018063 0.09115611 0.06851586 -0.05624108 0.033884376
-0.058770668 0.098235734 -0.11380995 0.048529524 0.18910547 -0.12975878 -0.10822171 -0.1024918
0.13809147 -0.06407947 -0.079871826 -0.11464888 -0.14977276 -0.009564352 0.16007985 -0.10284789
-0.066635855 -0.14942758 0.033679202 0.06706277 0.08903631 -0.1877538 -0.023547603 -0.040488753
-0.10345623 0.17362751 -0.058839917 0.1068741 0.0686213 0.06553569 -0.065793514 0.08003737
00000000: 7e16 47be 5df9 893c 64e2 a7bd 474b a1bc
00000010: fe92 1fbe c13e d5bd 2bf8 f93d 7423 36be
00000020: c678 8ebd 33c0 273c fdb3 2dbd 111e 97bd
00000030: 392f 173d d148 08be 43ba ad3b 8210 06be
00000040: dc4d b53d 03a3 34be fb50 88bd f942 89bd
00000050: a0b0 bfbd 7bb4 27be 748f 3a3e 9c9d 163e
00000060: 8f56 1bbd 363a efbd 2068 11bd 80d5 753d
00000070: 0eb0 ba3d 0b52 8c3d 0c5d 66bd 58ca 0a3d
00000080: 83b9 70bd d12f c93d 3115 e9bd e5c6 463d
00000090: dda4 413e 7cdf 04be 58a3 ddbd 39e7 d1bd
000000a0: da67 0d3e 193c 83bd d793 a3bd 08cd eabd
000000b0: 085e 19be cdb3 1cbc f9eb 233e eaa1 d2bd
000000c0: 6178 88bd 8b03 19be 34f3 093d 3558 893d
000000d0: ab58 b63d 8842 40be e7e6 c0bc 89d7 25bd
000000e0: dce0 d3bd 69cb 313e 2002 71bd cfe0 da3d
000000f0: 5389 8c3d 9337 863d c0be 86bd a2ea a33d

encoder.conv.2.weight f4 [64, 64, 5]
-0.024124494 0.05319345 -0.06427045 0.0362698 0.004008691 -0.044557635 -0.01795016 -0.041048843
0.017820098 -0.014650799 0.018699527 -0.041757982 -0.021924295 0.04398505 0.055804778 -0.043735456
0.028011471 -0.042164475 0.011162418 0.045233984 0.04355789 -0.05286612 0.039205875 -0.023924991
-0.020252952 0.028826164 0.037400343 0.028074332 -0.023139717 -0.013584118 -0.0077787396 0.010615583
0.022128366 0.02867167 0.009258862 -0.046421263 -0.018535038 0.024527749 -0.009147408 0.050839394
0.05276269 0.009365539 -0.026984762 0.014727998 0.04076855 0.019131444 0.034231387 0.026638286
-0.030715654 -0.0461403 -0.02360091 -0.038052883 -0.026399948 -0.017121585 0.024634885 -0.0363813
-0.026644293 0.06563123 -0.016816622 -0.03104477 -0.04030473 -0.03722569 0.04517519 0.03278584
-0.0020588047 0.04465808 -0.019819997 -0.025965553 0.0072645987 0.028057924 -0.0066662207 -0.020212224
-0.0031615095 -0.036640525 0.008927629 0.0331418 0.0046156053 -0.048605047 0.04957846 -0.03300782
0.042183083 -0.02542046 -0.016281571 0.058467463 -0.043570552 -0.00364521 -0.03805408 -0.04434315
-0.0025563994 -0.05432247 -0.03051343 -0.022132209 -0.038047794 0.034233462 0.031674683 0.039719474
0.052703746 -0.017215617 0.039859068 0.039982673 -0.045803674 -0.047302548 -0.019617237 0.002058489
0.012465378 0.039048582 0.007829291 -0.045465276 -0.0053633833 0.019924212 0.059824426 -0.01814748
0.0637649 0.024059005 -0.0051739723 0.012887576 0.062037773 -0.027901294 0.036579136 -0.031137751
-0.0119037395 0.014287264 -0.020396423 0.011349904 0.014229696 -0.017985417 0.030702626 0.04900338
-0.008010424 0.030548071 -0.033871777 0.015641918 0.014636903 0.040688008 0.058818556 0.020569315
0.015206587 -0.02258946 0.054923672 -0.011582369 0.010217544 -0.032739785 -0.008005884 -0.02068292
-0.0023582322 -0.04898883 -0.012152486 -0.030571891 0.008678895 0.035432763 -0.005417083 -0.02408551
-0.04510222 -0.018124798 0.03461228 -0.042100333 -0.035158195 0.04552175 0.004812273 0.05632651
0.004307158 -0.024442133 -0.015943153 0.060233016 -0.023233272 -0.024738645 0.07041404 0.06550413
-0.010526021 0.009598499 0.024771301 0.00308226 -0.03168692 -0.042716864 0.0029550816 0.04229509
0.009644764 0.0131623 0.038857438 0.00068210816 -0.030583194 -0.007211108 0.040888425 0.06264919
0.061424397 0.03500611 0.026180435 0.04880175 0.013812834 -0.005938768 -0.007149712 -0.013289728
-0.006777656 -0.032754555 -0.04789128 0.021029565 0.015212426 0.0156215215 0.02295669 -0.023538062
-0.011846306 0.018350828 -0.016643606 0.038122244 -0.015903395 -0.03676467 0.046401422 -0.011817206
0.044936843 0.053256165 0.044286426 -0.028406737 0.012448337 -0.04968956 0.051338986 0.02786973
0.066210136 -0.041546363 -0.010778173 0.02692294 -0.046261106 -0.00088937767 0.019560171 -0.026376206
0.019697996 0.050110523 0.045510553 0.047083165 -0.037562966 -0.019431856 0.004899217 0.03886582
-0.015621455 0.015882457 0.062405758 -0.016992578 0.019245377 0.044771235 0.0133051 0.03392197
-0.023762165 0.031052155 0.037491668 0.018334506 0.033721212 0.052286554 0.00817436 -0.026846357
0.016006447 -0.028278312 0.017563455 -0.0040332493 -0.014602732 0.040276904 -0.0073494986 0.019923555
00000000: bba0 c5bc 60e1 593d 3aa0 83bd a48f 143d
00000010: 565b 833b 1182 36bd 370c 93bc d522 28bd
00000020: 74fb 913c e809 70bc c02f 993c 6b0a 2bbd
00000030: 949a b3bc ab29 343d 8d93 643d f323 33bd
00000040: 5078 e53c a8b4 2cbd 93e2 363c 4547 393d
00000050: c269 323d 258a 58bd 5796 203d 58fe c3bc
00000060: 85e9 a5bc d924 ec3c 1a31 193d 24fc e53c
00000070: 818f bdbc ec8f 5ebc cce4 febb fbec 2d3c
00000080: 8c46 b53c dae0 ea3c 7bb2 173c 3924 3ebd
00000090: cbd6 97bc 6bee c83c 03df 15bc f83c 503d
000000a0: b11d 583d eb71 193c 260f ddbc b34d 713c
000000b0: ecfc 263d 8cb9 9c3c 3636 0c3d 8938 da3c
000000c0: 659f fbbc 9cfd 3cbd b256 c1bc 57dd 1bbd
000000d0: b444 d8bc 9142 8cbc 19cf c93c 8f04 15bd
000000e0: 2245 dabc ab69 863d 03c3 89bc 9a51 febc
000000f0: 9316 25bd f779 18bd 9f09 393d 724a 063d
00000100: 03ed 06bb 64eb 363d 8c5d a2bc b6b5 d4bc
00000110: df0b ee3b bbd9 e53c 5070 dabb 1b94 a5bc
00000120: 5431 4fbb 6014 16bd 3145 123c b2bf 073d
00000130: 813e 973b 1616 47bd c912 4b3d 3533 07bd
00000140: 2bc8 2c3d 923e d0bc ee60 85bc 947b 6f3d
00000150: 0977 32bd 7ae4 6ebb 98de 1bbd 2aa1 35bd
00000160: 4489 27bb 3d81 5ebd 4df7 f9bc 9b4e b5bc
00000170: 01d8 1bbd 6338 0c3d 50bd 013d e3b0 223d
00000180: e2df 573d c407 8dbc 4343 233d dfc4 233d
00000190: a29c 3bbd 51c0 41bd 54b4 a0bc b7e7 063b
000001a0: 963b 4c3c 68f1 1f3d 6d46 003c cc39 3abd
000001b0: 52bf afbb 1a38 a33c 750a 753d 06aa 94bc
000001c0: 2c97 823d 6417 c53c 6d8a a9bb 6926 533c
000001d0: 521b 7e3d 4191 e4bc 01d4 153d 9914 ffbc
000001e0: e707 43bc 2115 6a3c 6616 a7bc f3f4 393c
000001f0: ac23 693c 2756 93bc 1384 fb3c c5b7 483d
00000200: 273e 03bc f33f fa3c 22bd 0abd 7b23 803c
00000210: 9fcf 6f3c 78a8 263d baeb 703d fb80 a83c
00000220: 0c25 793c 880d b9bc a5f7 603d fac3 3dbc
00000230: 7c67 273c 271a 06bd 1c2b 03bc 3a6f a9bc
00000240: 928c 1abb 83a8 48bd 381b 47bc e771 fabc
00000250: ed31 0e3c f221 113d c981 b1bb fa4e c5bc
00000260: 1bbd 38bd 757a 94bc 9bc5 0d3d 6671 2cbd
00000270: 0a02 10bd 0475 3a3d 46b0 9d3b a0b6 663d
00000280: 0f23 8d3b de3a c8bc 379b 82bc e5b6 763d
00000290: b453 bebc b3a8 cabc 3c35 903d 0827 863d
000002a0: 5575 2cbc 0643 1d3c 2fed ca3c beff 493b
000002b0: 25ca 01bd e1f7 2ebd 0baa 413b 9e3d 2d3d
000002c0: 1205 1e3c b0a6 573c fa28 1f3d 81cf 323a
000002d0: 9b89 fabc 294b ecbb 9f7a 273d 384e 803d
000002e0: 2698 7b3d 9162 0f3d 5a78 d63c 58e4 473d
000002f0: 3a4f 623c ff99 c2bb 2248 eabb 29bd 59bc
00000300: 1917 debb a429 06bd a629 44bd 3246 ac3c
00000310: 8a3d 793c 69f1 7f3c ab0f bc3c e5d2 c0bc
00000320: 0217 42bc 7a54 963c 2c58 88bc 1226 1c3d
00000330: d647 82bc 8d96 16bd 6b0f 3e3d f49c 41bc
00000340: b20f 383d 2323 5a3d af65 353d 3fb5 e8bc
00000350: 1cf4 4b3c 4887 4bbd d448 523d 0f4f e43c
00000360: 2e99 873d 852c 2abd ef96 30bc 7f8d dc3c
00000370: 497c 3dbd 2025 69ba a73c a03c ea12 d8bc
00000380: b15d a13c b140 4d3d 4669 3a3d 47da 403d
00000390: a0db 19bd 8e2f 9fbc 9c89 a03b c431 1f3d
000003a0: 22f1 7fbc ed1b 823c 2e9d 7f3d 0534 8bbc
000003b0: 7ba8 9d3c 0b62 373d a2fd 593c c3f1 0a3d
000003c0: dfa8 c2bc 1761 fe3c dd90 193d 3f32 963c
000003d0: 411f 0a3d 6d2a 563d c0ed 053c e4ec dbbc
000003e0: f41f 833c eba7 e7bc 3ce1 8f3c 5929 84bb
000003f0: 4c40 6fbc 65f9 243d 10d4 f0bb b936 a33c

encoder.conv.2.bias f4 [64]
-0.029960355 -0.03938449 -0.041115202 -0.008992605 -0.032122295 0.037305746 0.05099165 0.049443677
-0.03057008 0.028881654 0.023581685 -0.011429221 0.022141466 0.031138761 0.040347766 -0.021448225
0.033261478 -0.035885535 -0.0024169697 -0.047272246 0.0488728 0.045302477 -0.045361858 0.015083204
-0.034619972 -0.045760646 0.03361078 0.03957694 0.038116157 -0.013776907 0.062824145 -0.021894848
-0.0053989487 0.050749313 -0.002699093 -0.034509804 -0.00640074 -0.053218823 0.0481888 -0.002005194
-0.019836606 0.010544394 0.030017527 -0.0055745183 -0.0360124 0.021537133 -0.048775643 0.054027732
0.027717952 0.0075672246 -0.057350267 0.0054711145 0.009810552 0.0009807893 0.0007038529 0.020468118
-0.005558982 0.005987464 0.03834204 -0.041352563 0.024317075 0.008157013 0.0006246592 0.009480993
00000000: 6b6f f5bc a251 21bd 6a68 28bd b855 13bc
00000010: ab92 03bd e9cd 183d 9fdc 503d 7485 4a3d
00000020: 1b6e fabc 3899 ec3c 612e c13c a141 3bbc
00000030: 0562 b53c b716 ff3c b343 253d 30b4 afbc
00000040: 303d 083d b6fc 12bd 0666 1ebb 8ba0 41bd
00000050: d82e 483d 178f 393d 5bcd 39bd 8b1f 773c
00000060: accd 0dbd 846f 3bbd 75ab 093d 6e1b 223d
00000070: b01f 1c3d 89b8 61bc f2a9 803d d35c b3bc
00000080: aae9 b0bb 83de 4f3d 44e3 30bb 275a 0dbd
00000090: 4cbd d1bb fbfb 59bd 9f61 453d 9369 03bb
000000a0: 6180 a2bc 65c2 2c3c 51e7 f53c 73aa b6bb
000000b0: bd81 13bd a46e b03c f8c8 47bd 2f4c 5d3d
000000c0: c210 e33c 7bf6 f73b 1de8 6abd 0947 b33b
000000d0: 70bc 203c d48d 803a c582 383a c1ac a73c
000000e0: 1f28 b6bb 7d32 c43b 8b0c 1d3d 4e61 29bd
000000f0: 9a34 c73c fea4 053c 2bc0 233a 2b56 1b3c

encoder.conv.4.weight f4 [8, 64, 3]
-0.040264044 -0.0483754 -0.03332696 0.0019149925 0.048906073 -0.054406792 0.0659827 -0.05664706
0.07456984 0.041188385 0.067838706 0.032142654 -0.052447774 -0.073271 0.021561231 0.015818559
-0.03348296 -0.0688684 -0.058385603 -0.039963774 -0.0093198465 -0.036865596 0.021157911 -0.044248424
-0.015880318 0.049986847 -0.06473882 -0.0593503 -0.020530172 0.023391688 0.066215105 0.066406615
-0.040335577 -0.047594305 0.047022164 -0.032954376 -0.016706025 0.034724195 -0.010683552 -0.031412285
-0.03225822 -0.07248764 0.0105664395 0.047542036 0.012523635 0.066893086 -0.020515801 -0.011844684
-0.053291224 -0.0064049484 0.049328957 0.04326383 0.02349149 0.05185347 -0.0751398 0.066616796
-0.039639212 -0.052452985 0.047408007 0.045254145 -0.030634657 -0.062848076 -0.07415019 -0.0017701982
0.029953334 -0.06537106 0.064125456 -0.050589073 0.027955677 -0.07034091 0.010316076 -0.010048525
0.059732597 0.040223077 0.048191812 0.055220984 -0.0260469 0.016685542 -0.074088246 -0.07827151
-0.022231102 -0.056618012 -0.063647225 0.0152564505 -0.03566008 -0.06157472 -0.030199649 -0.064232685
0.0075897393 -0.050006375 0.0344227 -0.049093854 -0.0032179682 -0.019155525 0.01566862 -0.051931664
0.0631723 0.00013430775 0.032050494 -0.062317997 -0.036556672 -0.041441683 0.004922552 -0.015338027
0.02609364 -0.008880642 0.027042251 -0.038088113 0.021173913 -0.05528116 0.040958986 -0.01235727
0.03741129 -0.044752672 -0.068333104 0.044846736 0.001985196 -0.011915311 0.023291565 -0.02946047
-0.051511828 0.026364684 0.03373761 0.02960965 -0.044721402 -0.0132485535 0.014340059 -0.028015772
0.006762543 0.039086062 -0.048752032 0.004873223 -0.053238172 -0.045983654 -0.040386077 0.042146638
-0.036878765 0.042200617 0.03742093 0.0021938477 -0.01711777 -0.04518762 0.0050290613 0.018211422
-0.033150394 -0.027009081 -0.011893198 0.045373432 -0.030535482 -0.048988603 -0.03071844 -0.05105359
0.013281491 0.005761265 -0.065855026 -0.008143339 -0.032916885 0.027605416 0.03533114 0.012570212
0.00081914815 -0.06065912 0.040030867 -0.04185401 0.006966698 -0.039926693 0.02963439 0.011595122
0.0050127693 -0.032816976 0.043095384 0.015629305 0.043854415 0.0017382782 -0.03228223 0.004021719
0.057412636 -0.000675107 -0.07526618 -0.05616995 0.06570235 0.03517893 0.0054100296 0.0346343
-0.045849968 -0.049391422 -0.033782907 -0.04125593 -0.013558013 0.037816238 0.040346403 0.047163893
-0.049581844 -0.012921375 -0.05876657 0.011756703 0.06507759 -0.059879407 0.01562188 -0.013613731
-0.07555664 0.041020777 0.06438211 -0.034117192 0.06689751 -0.0098232515 -0.06934803 0.025132984
-0.008858678 0.06409134 0.0027042374 -0.042011328 -0.06271584 -0.03381219 0.003005031 -0.039756328
-0.0230346 -0.044709437 -0.024217336 -0.014137449 -0.04367437 0.048085887 -0.018444503 -0.031192083
0.0012269077 -0.06988266 0.012097822 -0.040070314 5.9453323e-05 0.01874253 -0.028145153 -0.0008432757
0.06666045 -0.039751377 -0.056382913 0.04491844 -0.051455032 -0.028988753 0.064828716 0.061247375
-0.025582928 0.05960894 -0.035960857 -0.0631226 -0.07080546 0.03564691 0.06339424 -0.0027312546
-0.01315633 -0.05840206 0.03976818 -0.050296865 -0.066135414 -0.027194917 -0.030641634 0.02960684
00000000: e9eb 24bd 4925 46bd da81 08bd 7c00 fb3a
00000010: bc51 483d a8d9 5ebd f021 873d bf06 68bd
00000020: 13b8 983d 27b5 283d 05ef 8a3d 04a8 033d
00000030: 7ad3 56bd 1b0f 96bd 2ea1 b03c ec95 813c
00000040: 6e25 09bd e00a 8dbd be25 6fbd 0eb1 23bd
00000050: 45b2 18bc 6100 17bd 5b53 ad3c d63d 35bd
00000060: 7117 82bc 02bf 4c3d c995 84bd 4d19 73bd
00000070: e42e a8bc ed9f bf3c c99b 873d 3100 883d
00000080: eb36 25bd 3ff2 42bd 509a 403d 2bfb 06bd
00000090: 13db 88bc f53a 0e3d 110a 2fbc 2baa 00bd
000000a0: 3221 04bd 6674 94bd dc1e 2d3c 70bb 423d
000000b0: ef2f 4d3c 3eff 883d c110 a8bc 3510 42bc
000000c0: e647 5abd 9ae0 d1bb 290d 4a3d 6a35 313d
000000d0: 3a71 c03c 4e64 543d e5e2 99bd 636e 883d
000000e0: ba5c 22bd f1d8 56bd e62e 423d 695c 393d
000000f0: 88f5 fabc 7eb6 80bd 0edc 97bd ff05 e8ba
00000100: b260 f53c 43e1 85bd 3554 833d 7d36 4fbd
00000110: 4e03 e53c e50e 90bd c204 293c 92a2 24bc
00000120: 2baa 743d f4c0 243d c764 453d 662f 623d
00000130: 4f60 d5bc 1eb0 883c 94bb 97bd d04c a0bd
00000140: 001e b6bc 4ae8 67bd 7a59 82bd 31f6 793c
00000150: 4e10 12bd c635 7cbd 4165 f7bc 6d8c 83bd
00000160: 59b3 f83b 7cd3 4cbd d1fe 0c3d a316 49bd
00000170: 8ce4 52bb 0cec 9cbc 7a5b 803c 4cb6 54bd
00000180: 7b60 813d f6d4 0c39 6147 033d 2841 7fbd
00000190: 73bc 15bd c1be 29bd 5c4d a13b 594c 7bbc
000001a0: 54c2 d53c 1d80 11bc b687 dd3c 4802 1cbd
000001b0: ea74 ad3c 7f6e 62bd 9cc4 273d 2676 4abc
000001c0: 953c 193d 944e 37bd 3af2 8bbd 36b1 373d
000001d0: 101a 023b 7038 43bc f4cd be3c 1557 f1bc
000001e0: 11fe 52bd c0fa d73c 7330 0a3d f08f f23c
000001f0: ca2d 37bd 7610 59bc 91f2 6a3c 5581 e5bc
00000200: 5398 dd3b b518 203d 36b0 47bd 8faf 9f3b
00000210: 4510 5abd 5b59 3cbd df6b 25bd f4a1 2c3d
00000220: 300e 17bd 8eda 2c3d b046 193d a8c6 0f3b
00000230: 913a 8cbc a716 39bd d3ca a43b 1f30 953c
00000240: b5c8 07bd 2642 ddbc b0db 42bc 7ed9 393d
00000250: 8c25 fabc 46a8 48bd 3da5 fbbc 921d 51bd
00000260: 9c9a 593c fec8 bc3b 00df 86bd a46b 05bc
00000270: dbd3 06bd c124 e23c 63b7 103d 4af3 4d3c
00000280: 1abc 563a b375 78bd 68f7 233d 1c6f 2bbd
00000290: e648 e43b 2c8a 23bd d2c3 f23c 77f9 3d3c
000002a0: 2842 a43b 186b 06bd c984 303d 0709 803c
000002b0: b0a0 333d f0d6 e33a 5f3a 04bd a0c8 833b
000002c0: 8329 6b3d aaf9 30ba 2825 9abd 7612 66bd
000002d0: f48e 863d c817 103d 9e46 b13b b2dc 0d3d
000002e0: 2dcd 3bbd a94e 4abd f25f 0abd fafb 28bd
000002f0: 6e22 5ebc 33e5 1a3d 4542 253d ed2e 413d
00000300: 5516 4bbd 2db4 53bc 37b5 70bd 309f 403c
00000310: 6647 853d 1c44 75bd eaf2 7f3c 200c 5fbc
00000320: 71bd 9abd 6705 283d c5da 833d 78be 0bbd
00000330: 9001 893d b4f1 20bc 5706 8ebd b0e3 cd3c
00000340: fd23 11bc 5242 833d 9339 313b 1214 2cbd
00000350: 2a71 80bd a77e 0abd 0ef0 443b 88d7 22bd
00000360: 0fb3 bcbc 3e21 37bd 6f63 c6bc c2a0 67bc
00000370: e5e3 32bd b5f5 443d ed18 97bc 8a86 ffbc
00000380: 31d0 a03a a41e 8fbd f135 463c c520 24bd
00000390: 855d 7938 ef89 993c aa90 e6bc 460f 5dba
000003a0: 4685 883d 57d2 22bd c5f1 66bd 66fc 373d
000003b0: 83c2 52bd d279 edbc ebc4 843d 87de 7a3d
000003c0: 4a93 d1bc 8128 743d b14b 13bd 6c46 81bd
000003d0: 7402 91bd 7f02 123d d7d4 813d d9fe 32bb
000003e0: a68d 57bc 0037 6fbd f6e3 223d 1604 4ebd
000003f0: 0172 87bd e0c7 debc 2a04 fbbc 0b8a f23c

encoder.conv.4.bias f4 [8]
0.051275585 0.04340412 0.03972574 0.04126348 -0.004328475 0.047163427 0.008371369 0.02140225
00000000: 5906 523d 85c8 313d 75b7 223d e503 293d
00000010: e1d5 8dbb 702e 413d 1128 093c c553 af3c

vq.embedding.weight f4 [32, 8]
-0.0049862885 0.02294976 -0.0031677363 0.02893045 0.0066396985 0.02691611 0.0076508066 -0.0083163185
-0.01820146 0.014498066 0.025746528 0.008788407 0.030147593 0.009308025 0.029029682 -0.019230142
0.0026144048 0.024094515 0.030959336 0.023990013 -0.002858284 0.01894448 0.0023715345 -0.021216135
-0.01538121 0.029037382 -0.011821974 0.009900447 0.007960055 -0.019556247 0.0124931745 -0.0069506504
-0.0017328523 0.025157537 -0.026394542 -0.008439809 -0.01387243 -0.0018217303 0.007174898 0.0060047507
0.012091551 0.012611669 -0.015629616 -0.012226768 -0.011504684 0.01995096 -0.029065382 -0.030435003
-0.0077454485 -0.029293496 -0.0094498955 -0.030682538 -0.020791858 -0.010363452 0.021283709 0.019801669
0.013875462 -0.027642023 0.020240586 -0.027469497 0.015999787 -0.027719166 -0.019814234 -0.018562287
0.009862397 0.0040460676 -0.017128784 -0.02011447 -0.011517502 -0.02845031 -0.0021951422 0.02893947
0.015469283 -0.02999352 0.019950226 0.008988582 -0.017148498 -0.029037576 -0.031228457 -0.0061129406
-0.011775907 0.026292197 -0.018993992 -0.023877647 -0.01176326 0.02982742 -0.017659657 0.026101332
0.007557906 -0.01613113 -0.010782566 -0.030408636 0.001226522 -0.027525946 0.013763551 0.010852795
-0.0001200214 0.019644435 -0.013201799 0.005211942 -0.0017721765 -0.029598862 0.022320572 -0.029555373
-0.013537474 0.012726858 0.023440886 -0.015009072 -0.015744552 -0.02560781 0.023861032 0.029451415
0.016686127 -0.010392416 -0.027955279 -0.018391374 -0.0032513216 -0.013750661 0.020205855 0.009684604
0.019570488 -0.012725152 -0.017975423 0.0010036305 0.022268739 0.009459835 -0.012511779 -0.00044049323
0.00082157087 0.02965939 0.02055169 0.04210317 0.032661382 0.0008532471 0.0017066341 -0.00020352559
0.020223215 -0.012821458 0.030407522 -0.010116529 -0.011261109 0.025113322 -0.013024226 -0.025733586
-0.018061787 -0.029391222 -0.008796845 0.027553447 0.0072943494 0.016617406 -0.022718728 0.021244355
0.016572889 -0.030393083 -0.009186238 -0.018221047 0.020478047 -0.009456549 0.004679013 -0.018596962
0.027622838 0.010345455 -0.011220783 -0.030488543 0.018428732 -0.0063638687 -0.027831059 0.015286241
0.009278255 0.04021956 -0.00027109735 0.014904731 0.00060549576 -0.000751067 -0.0002566604 -0.00073594594
0.0025587827 0.015734468 -0.017408136 -0.021985635 0.0064692125 0.029940065 -0.0077048168 0.027745884
0.025904115 -0.007882245 -0.024450496 0.0011935271 0.015620183 0.015047628 -0.019198455 -0.021081869
-0.002162423 0.023642134 0.007899433 0.011145648 -0.014533587 0.01972606 -0.021468382 0.023746148
-0.016239021 0.011864319 -0.008852411 0.0063708685 0.018816337 -0.02656157 0.009904813 0.006682273
-0.027491584 0.018592723 0.015143935 -0.030260254 -0.013702203 -0.018002555 0.0014723614 0.0012066476
-0.029183738 0.028528903 -0.024295956 -0.001079753 0.00858555 -0.011223167 -0.018458258 0.011168502
-0.012823541 0.015180521 -0.012427475 0.009573862 -0.0064360127 -0.010527108 0.011862822 0.025240492
0.02382417 -0.022190463 -0.012804247 -0.011141032 -0.030631017 -0.013308674 -0.023234379 -0.016270395
0.015272066 0.008156121 -0.004838664 -7.591024e-05 0.021173887 0.014454834 -0.023089271 -0.011141095
-0.0016766952 0.019831397 9.1038906e-05 0.0062777563 0.009908054 -3.9855586e-05 2.4152834e-05 -0.00049402163
00000000: 0564 a3bb 2301 bc3c cc99 4fbb 8dff ec3c
00000010: d491 d93b 2d7f dc3c 9eb3 fa3b 2b41 08bc
00000020: 3a1b 95bc 4c89 6d3c 62ea d23c 40fd 0f3c
00000030: 16f8 f63c b080 183c a8cf ed3c 8888 9dbc
00000040: 6f56 2b3b dc61 c53c 6f9e fd3c b486 c43c
00000050: 0c52 3bbb 7431 9b3c bf6b 1b3b 76cd adbc
00000060: 7801 7cbc cedf ed3c f4b0 41bc 7c35 223c
00000070: e46a 023c 6c34 a0bc 2cb0 4c3c 48c2 e3bb
00000080: e020 e3ba 2e17 ce3c 5e39 d8bc 2047 0abc
00000090: 3049 63bc 20c7 eeba 681b eb3b 80c3 c43b
000000a0: a41b 463c 2ca1 4e3c ae09 80bc c852 48bc
000000b0: 247e 3cbc 3270 a33c 861a eebc d452 f9bc
000000c0: 88cd fdbb eaf8 efbc bcd3 1abc f259 fbbc
000000d0: b053 aabc 78cb 29bc 2c5b ae3c 1c37 a23c
000000e0: e855 633c 8671 e2bc 96cf a53c b607 e1bc
000000f0: fc11 833c 4e13 e3bc 7651 a2bc f00f 98bc
00000100: e495 213c e094 843b aa51 8cbc 1ac7 a4bc
00000110: e8b3 3cbc a010 e9bc 60dc 0fbb 7812 ed3c
00000120: e072 7d3c f8b4 f5bc a86e a33c d844 133c
00000130: 027b 8cbc 36e0 edbc d2d2 ffbc 104f c8bb
00000140: bcef 40bc bc62 d73c 4a99 9bbc 0e9b c3bc
00000150: b0ba 40bc a258 f43c fcaa 90bc 76d2 d53c
00000160: 50a8 f73b 6e25 84bc 5ca9 30bc 881b f9bc
00000170: 40c3 a03a 187e e1bc 8480 613c eccf 313c
00000180: 00b4 fbb8 5eed a03c 5c4c 58bc f0c8 aa3b
00000190: 6048 e8ba 5079 f2bc a2d9 b63c 1c1e f2bc
000001a0: 48cc 5dbc 5084 503c 1a07 c03c 9ce8 75bc
000001b0: b8fa 80bc 78c7 d1bc 3678 c33c 1844 f13c
000001c0: 58b1 883c f444 2abc 7802 e5bc 82a9 96bc
000001d0: 2014 55bb 744a 61bc c086 a53c 2cac 1e3c
000001e0: 4a52 a03c 287d 50bc 3241 93bc 408c 833a
000001f0: ee6c b63c 6cfd 1a3c 34fe 4cbc 00f2 e6b9
00000200: b05e 573a 40f8 f23c 055c a83c 6074 2c3d
00000210: f1c7 053d 72ac 5f3a 23b1 df3a 7c69 55b9
00000220: 28ab a53c 1811 52bc 3219 f93c ccbf 25bc
00000230: 8480 38bc 74ba cd3c 9063 55bc 3ecf d2bc
00000240: 50f6 93bc dcc5 f0bc a420 10bc c4b7 e13c
00000250: 7005 ef3b 3a21 883c a01c babc a408 ae3c
00000260: dec3 873c eafa f8bc e081 16bc 4e44 95bc
00000270: 94c1 a73c a4ef 1abc 6852 993b a858 98bc
00000280: 4a49 e23c fc7f 293c 60d7 37bc 1cc3 f9bc
00000290: daf7 963c 0088 d0bb f6fd e3bc 2473 7a3c
000002a0: d203 183c 44bd 243d 1222 8eb9 f932 743c
000002b0: 22ba 1e3a 41e3 44ba 6090 86b9 7fec 40ba
000002c0: 40b1 273b 92e5 803c 829b 8ebc 381b b4bc
000002d0: b0fb d33b de44 f53c b078 fcbb 564b e33c
000002e0: de34 d43c 8824 01bc 684c c8bc 2070 9c3a
000002f0: cceb 7f3c 548a 763c 1446 9dbc e2b3 acbc
00000300: 70b7 0dbb 26ad c13c a06c 013c 3c9c 363c
00000310: 481e 6ebc 8c98 a13c 76de afbc 4887 c23c
00000320: b207 85bc 9062 423c b409 11bc b8c2 d03b
00000330: b824 9a3c a697 d9bc cc47 223c f8f6 da3b
00000340: 0836 e1bc c44f 983c 441e 783c 5ae4 f7bc
00000350: 347f 60bc 187a 93bc 40fc c03a 6028 9e3a
00000360: bc12 efbc 72b5 e93c 5008 c7bc 8086 8dba
00000370: 68aa 0c3c 60e1 37bc c635 97bc 18fc 363c
00000380: d419 52bc b8b7 783c 9c9c 4bbc b0db 1c3c
00000390: 30e5 d2bb e479 2cbc 485c 423c 26c5 ce3c
000003a0: e82a c33c c6c8 b5bc e8c8 51bc e088 36bc
000003b0: e6ed fabc a00c 5abc 0656 bebc 7e49 85bc
000003c0: b037 7a3c 40a1 053c a88d 9ebb 0032 9fb8
000003d0: dc74 ad3c f8d3 6c3c b625 bdbc 2489 36bc
000003e0: 8ec4 dbba 7475 a23c 24ec be38 a3b5 cd3b
000003f0: 6455 223c 9c2a 27b8 d19b ca37 3b81 01ba

decoder.deconv.0.weight f4 [8, 64, 7]
0.024307007 -0.02138517 -0.017246425 -0.01650449 0.003182615 -0.014004482 -0.02555386 -0.019136744
-0.037545193 0.016467707 -0.05089568 0.015573964 0.043057084 -0.014346052 0.024709258 0.033135526
-0.008735239 0.006751632 -0.0135713 -0.02646468 -0.014070243 -0.03070736 -0.027225612 -0.011091863
0.0151682375 -0.026773836 0.057388518 0.006441031 0.016447956 -0.004606035 0.018501665 0.008446852
-0.033012405 0.045482296 -0.00961895 0.032118246 -0.010311525 0.040517624 -0.030151576 0.053495996
0.048750628 0.03959733 -0.017814476 0.053120967 0.0014598735 0.02837957 0.061921913 0.056250002
0.02819456 0.03072679 -0.002928956 -0.031132115 -0.02221577 -0.0057809493 -0.004285596 -0.029145153
-0.0018699449 -0.026875084 -0.006144419 -0.0070570773 0.044438824 0.012044003 0.011215367 0.01873216
0.007444665 0.019947082 0.011082021 0.02068407 0.04469205 -0.027781574 0.026269132 -0.027055949
0.010991439 -0.020622283 0.009315007 -0.0076252343 0.036877465 -0.038573533 -0.024597619 0.006903485
0.027558565 -0.04430624 0.010924119 -0.03396122 -0.03720827 0.043649457 0.022777935 0.010130081
0.038534097 0.008876587 0.025531812 0.011216875 -0.041571517 -0.042367917 0.0031224978 0.013145648
0.038297873 -0.017192325 0.023106866 -0.011060985 0.015398854 -0.04855784 0.0023545264 0.03648335
0.029643146 -0.0035403208 0.04060627 0.03223646 -0.015665432 -0.016958946 0.028495906 -0.026942806
0.06256372 -0.006311324 -0.015952667 0.030573873 -0.020100879 0.00455065 -0.03355518 0.0006002898
-0.042164695 -0.049475335 -0.035460945 -0.033510346 0.028107975 0.047985524 -0.031493522 0.018393766
-0.035415217 0.026283259 -0.02187312 0.006839915 -0.018542053 0.003345981 -0.041618507 -0.009297025
0.0059975046 0.0027296548 0.043472897 0.048165493 0.020160874 -0.023804875 -0.018879877 -0.0045697005
-0.022040702 -0.01899759 0.032442763 0.032458913 0.038297888 0.03894086 -0.039284132 0.0073892204
-0.02476358 -0.00071923726 0.032689817 -0.008847992 -0.042668432 0.018148854 0.004330422 0.013710038
-0.010206282 0.00900799 0.0139926495 -0.045860466 -0.0006771654 -0.012195832 -0.005021358 0.0062628607
0.032806154 -0.002563523 -0.009017024 0.026949711 -0.005951131 -0.023286106 0.059181444 0.031391416
-0.024285514 0.011743516 0.033457644 0.009586338 0.0146380495 -0.019351523 0.017099917 -0.013512748
0.044870116 -0.029273514 -0.032229148 -0.034369867 0.006304217 0.048429966 0.045723673 0.04496998
0.017219454 -0.022978093 -0.0072580404 0.030962804 -0.042266075 -0.02155037 0.016084291 -0.0050904243
0.03750978 -0.016565278 0.033059947 0.016367644 0.014455375 -0.05104694 -0.025273731 -0.008183615
0.011110591 -0.042560175 -0.0062161526 -0.029496191 0.05004916 -0.028998528 -0.025998665 0.04222526
0.044936784 -0.042456288 0.03709386 -0.027337462 -0.031345073 0.00045164558 -0.009525414 0.037487518
0.0069300723 -0.015763007 0.050260928 0.03382243 0.0011372722 0.0043651327 0.03217932 0.05144483
0.02182118 0.0028224115 0.022613462 0.028800104 0.025895957 -0.0020086933 -0.024928542 0.039230965
-0.0026038866 -0.023095423 -0.0065414286 -0.013218641 0.031731192 -0.018037684 0.025468701 0.024623904
-0.032296654 0.02867098 0.0059977993 0.042160034 0.044430166 -0.004952877 0.01967025 0.045377623
00000000: 7d1f c73c f42f afbc 6048 8dbc 6d34 87bc
00000010: 6b93 503b 0e73 65bc 5456 d1bc a9c4 9cbc
00000020: fdc8 19bd 49e7 863c fd77 50bd f129 7f3c
00000030: a05c 303d b40b 6bbc 126b ca3c 1eb9 073d
00000040: 3f1e 0fbc cb3c dd3b 285a 5ebc 75cc d8bc
00000050: e086 66bc 008e fbbc 3f08 dfbc a5ba 35bc
00000060: 3384 783c ce54 dbbc 3910 6b3d 490f d33b
00000070: ddbd 863c 39ee 96bb ce90 973c aa64 0a3c
00000080: 0438 07bd a54b 3a3d cd98 1dbc 6c8e 033d
00000090: acf1 28bc cff5 253d 7000 f7bc 9e1e 5b3d
000000a0: bdae 473d cf30 223d aaef 91bc 5f95 593d
000000b0: 3a59 bf3a 467c e83c d5a1 7d3d 6766 663d
000000c0: 47f8 e63c c0b6 fb3c baf3 3fbb c708 ffbc
000000d0: d9fd b5bc 1e6e bdbb 2f6e 8cbb d1c1 eebc
000000e0: f018 f5ba 2329 dcbc 1f57 c9bb 0e3f e7bb
000000f0: 7c05 363d 3654 453c a9c0 373c 3074 993c
00000100: 60f2 f33b 1068 a33c 5d91 353c a471 a93c
00000110: 030f 373d 2f96 e3bc 5d32 d73c 70a4 ddbc
00000120: 7015 343c 10f0 a8bc f99d 183c 1add f9bb
00000130: d30c 173d 48ff 1dbd f280 c9bc a136 e23b
00000140: 80c2 e13c 767a 35bd 13fb 323c ec1a 0bbd
00000150: b367 18bd c6c9 323d cb98 ba3c a4f8 253c
00000160: eed5 1d3d 1b6f 113c 1728 d13c fcc6 373c
00000170: e546 2abd fb89 2dbd d2a2 4c3b d860 573c
00000180: 3bde 1c3d ebd6 8cbc 9c4a bd3c 2239 35bc
00000190: 7a4b 7c3c 96e4 46bd 664e 1a3b 916f 153d
000001a0: 2fd6 f23c ba04 68bb c352 263d 610a 043d
000001b0: cb54 80bc 7ded 8abc 3f70 e93c 29b7 dcbc
000001c0: 6821 803d 39cf cebb 2baf 82bc 0f76 fa3c
000001d0: 99aa a4bc 9e1d 953b 2871 09bd c45c 1d3a
000001e0: e3b4 2cbd a6a6 4abd 7f3f 11bd 2542 09bd
000001f0: b242 e63c 788c 443d 5aff 00bd 86ae 963c
00000200: 8c0f 11bd fd4f d73c 422f b3bc 5e21 e03b
00000210: 81e5 97bc 3f48 5b3b 2b78 2abd 8d52 18bc
00000220: b786 c43b 02e4 323b a310 323d 2e49 453d
00000230: 6b28 a53c 7102 c3bc f9a9 9abc 6dbd 95bb
00000240: b48e b4bc d5a0 9bbc b4e2 043d a3f3 043d
00000250: 3fde 1c3d 7480 1f3d 66e8 20bd 4621 f23b
00000260: fedc cabc 328b 3cba c2e5 053d 2bf7 10bc
00000270: 18c5 2ebd e8ac 943c 36e6 8d3b 11a0 603c
00000280: 4038 27bc 4096 133c 6d41 653c 2fd8 3bbd
00000290: cd83 31ba 07d1 47bc 348a a4bb af38 cd3b
000002a0: bf5f 063d c700 28bb 24bc 13bc a4c5 dc3c
000002b0: b501 c3bb 81c2 bebc 3e68 723d 4994 003d
000002c0: 6af2 c6bc e067 403c e20a 093d 0410 1d3c
000002d0: 6ed4 6f3c 1687 9ebc 2015 8c3c 9364 5dbc
000002e0: bac9 373d 02cf efbc b602 04bd 6bc7 0cbd
000002f0: 9b93 ce3b 805e 463d bf48 3b3d 7132 383d
00000300: d00f 8d3c 8e3c bcbc dbd4 edbb b5a5 fd3c
00000310: 311f 2dbd 678a b0bc 34c3 833c 93cd a6bb
00000320: dba3 193d e8b3 87bc de69 073d 7015 863c
00000330: 3dd6 6c3c 9916 51bd db0a cfbc 9214 06bc
00000340: 3209 363c 9453 2ebd deb0 cbbb ffa1 f1bc
00000350: 5900 4d3d 528e edbc 27fb d4bc 65f4 2c3d
00000360: a20f 383d a5e6 2dbd bbef 173d d0f2 dfbc
00000370: b163 00bd d8ca ec39 7b10 1cbc 838c 193d
00000380: a915 e33b 6c21 81bc 67de 4d3d 6389 0a3d
00000390: 8610 953a 6309 8f3b 76ce 033d d0b7 523d
000003a0: 55c2 b23c 35f8 383b de3f b93c 32ee eb3c
000003b0: c223 d43c 48a4 03bb f136 ccbc a6b0 203d
000003c0: f8a5 2abb 9d32 bdbc 7b59 d6bb 0093 58bc
000003d0: 91f8 013d c4c3 93bc bda3 d03c 12b8 c93c
000003e0: 7f49 04bd 67df ea3c 3089 c43b 00b0 2c3d
000003f0: 68fc 353d be4b a2bb 8123 a13c e3dd 393d

decoder.deconv.0.bias f4 [64]
-0.02268835 0.02965346 -0.037909012 0.056347836 -0.020723967 0.021514077 0.040361565 -0.014203161
0.06003896 0.031282764 -0.03632816 -0.04153899 -0.037078395 -0.024768045 0.026431713 0.0635797
0.04167125 0.037786607 -0.04483644 0.0019611353 0.03617969 -0.04119856 0.023712551 -0.03236508
0.03501683 0.049934316 -0.04025979 0.04542996 -0.044502012 0.035914183 -0.0040390817 0.04543496
0.031737264 0.043355063 0.04770454 -0.0034182419 -0.022817906 0.010025717 -0.004852603 0.013393287
0.021883316 0.014322192 -0.004042519 0.023126056 0.021571083 0.03467218 -0.017544325 -0.021191245
-0.0031274883 0.020950861 -0.017154453 -0.013844334 -0.012081539 0.030127058 -0.0037379381 0.011057105
-0.022703692 -0.0043881033 -0.02494855 -0.024586946 0.04231641 0.020506544 0.027089458 -0.01878299
00000000: ebdc b9bc d0eb f23c 7b46 1bbd fdcc 663d
00000010: 4fc5 a9bc 4a3e b03c 2b52 253d 60b4 68bc
00000020: 6aeb 753d 5b22 003d d6cc 14bd ca24 2abd
00000030: 84df 17bd 5be6 cabc 5287 d83c 1336 823d
00000040: 79af 2a3d 21c6 1a3d 6aa6 37bd 6486 003b
00000050: 2831 143d d2bf 28bd d340 c23c 3f91 04bd
00000060: cf6d 0f3d ed87 4c3d 73e7 24bd c414 3a3d
00000070: be47 36bd c01a 133d 465a 84bb 021a 3a3d
00000080: effe 013d 1495 313d d665 433d 9504 60bb
00000090: 9eec babc e842 243c 9602 9fbb 846f 5b3c
000000a0: a444 b33c a1a7 6a3c 1b77 84bb db72 bd3c
000000b0: d7b5 b03c 6a04 0e3d 1eb9 8fbc 4399 adbc
000000c0: 8cf6 4cbb 24a1 ab3c 7f87 8cbc 58d3 62bc
000000d0: a6f1 45bc 05cd f63c 32f8 74bb dc28 353c
000000e0: 18fd b9bc 14ca 8fbb e760 ccbc 906a c9bc
000000f0: f953 2d3d 57fd a73c b6ea dd3c c9de 99bc

decoder.deconv.2.weight f4 [64, 64, 3]
-0.068905465 0.01255916 -0.023604812 0.027009256 0.000985048 0.053387236 -0.05208959 0.06147786
0.06556464 0.0134571865 -0.053633273 -0.0005735746 -0.024544314 -0.0097933635 -0.037414994 -0.032400455
0.06128136 0.006327766 0.03765561 0.06045283 -0.021922054 -0.059549488 0.048647527 0.049085822
-0.05435463 0.033516347 -0.04723803 0.0012609694 -0.03408723 -0.05077051 -0.008141034 0.0692576
0.017162656 0.04646461 -0.011679689 -0.012449296 -0.061871856 0.0065749013 0.012122677 -0.065324314
-0.06669575 0.043291394 0.062246114 0.048647404 0.032756858 -0.022243185 -0.05467145 0.012182125
0.042278353 0.013858387 -0.009572614 -0.05979232 0.044606186 -0.069372065 -0.061847597 -0.029561771
-0.0042968458 0.03570839 -0.032432362 0.037648134 -0.014249333 0.056871366 -0.041621353 0.029956821
0.050471883 -0.06031122 -0.012329997 -0.07131857 -0.018282723 0.0057944115 0.009613711 0.033171877
-0.037922703 0.058163557 -0.059204165 -0.07018604 0.016539855 0.04337986 0.060114983 -0.071740836
-0.06997717 -0.005051216 -0.04982094 0.054215517 0.030549873 -0.057490434 -0.014657306 -0.035186812
-0.024570365 0.001217988 0.041704528 0.030729508 -0.051538102 -0.05187053 -0.051709436 0.03829499
0.011468266 0.057016484 0.013512177 0.01743334 -0.018356092 -0.0029491044 0.015485018 0.04312745
-0.06380285 -0.0066312007 -0.05975911 0.0606259 0.05807311 0.04358669 -0.004453888 0.03921875
-0.06341575 0.059827205 0.06911086 -0.03511488 0.018239295 0.027260797 -0.061329495 0.0168487
0.0381888 -0.0034456118 0.0074641528 0.06659703 -0.042509668 -0.04509925 -0.010231033 0.018806297
0.0064201644 0.020867389 -0.010655385 0.000848154 -0.05437965 0.0100500565 -0.029770494 0.059931614
0.044690188 -0.055628315 -0.01147342 -0.04466241 -0.027996112 -0.040852148 -0.03492623 0.047782525
0.03120202 0.03708657 -0.008159841 0.07003134 0.041995358 0.047606274 -0.000475808 -0.040486556
0.062573835 -0.05870737 0.03248794 0.010394511 0.012187562 -0.009790532 -0.019537877 0.04395316
0.0379898 0.04954376 0.023142561 -0.044669162 -0.0052069514 -0.050292283 -0.060320675 0.046964888
0.01778915 0.043095395 0.06989977 -0.037775315 0.06355519 -0.050282672 -0.06649236 -0.06197778
-0.052779086 -0.032242954 0.039760068 -0.015889678 -0.051708963 0.040473748 -0.047132537 0.009996725
0.057630725 -0.030886352 0.027798006 0.01332129 0.04637087 0.056344394 0.051912297 -0.03293774
-0.029781213 -0.04955123 -0.0058065676 -0.01289063 -0.045281615 -0.018252824 0.0226996 -0.043418318
0.04417704 0.017765714 -0.019782087 0.022806274 0.006705438 -0.028154874 -0.033215795 0.046495665
-0.03997308 -0.057725977 0.03940178 0.063762434 0.060313217 0.02351655 -0.040256552 -0.061769675
0.07080053 -0.03413253 0.08230106 -0.041735783 -0.034916166 -0.03763178 -0.033037923 -0.0676795
0.065526284 -0.065060936 0.061403662 0.023880526 -0.02933931 -0.027878894 -0.0389609 -0.014306587
-0.025657944 -0.068238646 0.06354056 0.005068805 -0.021315224 0.010754389 0.06639455 -0.0480555
-0.013468162 0.0047517857 0.08284279 0.053636853 0.07338111 -0.01292447 -0.025076257 -0.07006027
-0.026921289 0.031205475 -0.0005862788 0.0018925561 0.006934714 -0.024017248 0.049240153 0.06150284
00000000: 4f1e 8dbd efc4 4d3c e15e c1bc 8442 dd3c
00000010: ba1c 813a 93ac 5a3d e55b 55bd 35d0 7b3d
00000020: c146 863d 887b 5c3c 90ae 5bbd f15b 16ba
00000030: 2811 c9bc 5874 20bc 7740 19bd 57b6 04bd
00000040: 2a02 7b3d 2659 cf3b c53c 1a3d 639d 773d
00000050: e195 b3bc 2aea 73bd a142 473d 370e 493d
00000060: f6a2 5ebd 7048 093d aa7c 41bd 1d47 a53a
00000070: 0d9f 0bbd bdf4 4fbd f961 05bc eed6 8d3d
00000080: b398 8c3c ad51 3e3d 2b5c 3fbc 22f8 4bbc
00000090: 586d 7dbd 4572 d73b 319e 463c c1c8 85bd
000000a0: c897 88bd 5152 313d c8f5 7e3d 8042 473d
000000b0: 0e2c 063d 5737 b6bc 2cef 5fbd 8997 473c
000000c0: 112c 2d3d 4a0e 633c 74d6 1cbc cbe8 74bd
000000d0: fab4 363d f112 8ebd e853 7dbd 872b f2bc
000000e0: 8ecc 8cbb f642 123d ccd7 04bd ee34 1a3d
000000f0: 0976 69bc f3f1 683d 277b 2abd 0268 f53c
00000100: 9bbb 4e3d e608 77bd c103 4abc 780f 92bd
00000110: a6c5 95bc 0cdf bd3b d482 1d3c 3cdf 073d
00000120: d654 1bbd e93c 6e3d 1180 72bd b3bd 8fbd
00000130: 977e 873c 15af 313d 213b 763d dcec 92bd
00000140: 3150 8fbd ac84 a5bb 0b11 4cbd 1711 5e3d
00000150: ba43 fa3c 177b 6bbd 3225 70bc 0c20 10bd
00000160: ca47 c9bc e5a4 9f3a 5ed2 2a3d 73bc fb3c
00000170: 9e19 53bd 3176 54bd 46cd 53bd 35db 1c3d
00000180: 65e5 3b3c 1e8a 693d 2e62 5d3c 5dd0 8e3c
00000190: 845f 96bc c345 41bb dfb4 7d3c 69a6 303d
000001a0: 12ab 82bd 8b4a d9bb f8c5 74bd dd52 783d
000001b0: 12de 6d3d f587 323d ecf1 91bb d7a3 203d
000001c0: 1ee0 81bd 5f0d 753d ff89 8d3d 9fd4 0fbd
000001d0: 936a 953c 0952 df3c a334 7bbd 4906 8a3c
000001e0: dc6b 1c3d c6cf 61bb da95 f43b 0664 883d
000001f0: 9e1e 2ebd feb9 38bd 10a0 27bc aa0f 9a3c
00000200: 3e60 d23b 16f2 aa3c ed93 2ebc a756 5e3a
00000210: 32bd 5ebd fea8 243c 40e1 f3bc da7a 753d
00000220: 0f0d 373d 84da 63bd 03fb 3bbc eeef 36bd
00000230: 1a58 e5bc 9554 27bd ce0e 0fbd 9cb7 433d
00000240: 619b ff3c 16e8 173d dbb0 05bc 976c 8f3d
00000250: 5303 2c3d ccfe 423d de75 f9b9 3bd5 25bd
00000260: b626 803d 2477 70bd 1312 053d bd4d 2a3c
00000270: 57ae 473c 7868 20bc e60d a0bc 3b08 343d
00000280: 319b 1b3d 66ee 4a3d 7895 bd3c 03f7 36bd
00000290: 139f aabb 48ff 4dbd d012 77bd 415e 403d
000002a0: 8dba 913c cc84 303d 9c27 8f3d 4aba 1abd
000002b0: 3929 823d 34f5 4dbd 252d 88bd 6adc 7dbd
000002c0: e22e 58bd 3011 04bd 74db 223d 122b 82bc
000002d0: c7cc 53bd cdc7 253d 0c0e 41bd 4ec9 233c
000002e0: 320e 6c3d 6005 fdbc a5b8 e33c 8a41 5a3c
000002f0: 62ef 3d3d 61c9 663d fda1 543d b9e9 06bd
00000300: bbf7 f3bc 3bf6 4abd 0545 bebb 3933 53bc
00000310: 3779 39bd f286 95bc 83f4 b93c 68d7 31bd
00000320: fcf2 343d 6789 913c 0b0e a2bc 39d4 ba3c
00000330: 4ab9 db3b 0da5 e6bc 490d 08bd 3d72 3e3d
00000340: d0ba 23bd 1372 6cbd c363 213d e195 823d
00000350: fe0a 773d c8a5 c03c 0ee4 24bd 3302 7dbd
00000360: deff 903d 8dce 0bbd 758d a83d 24f3 2abd
00000370: 4104 0fbd c823 1abd c652 07bd 8d9b 8abd
00000380: a532 863d ab3e 85bd 6882 7b3d 18a1 c33c
00000390: fe58 f0bc 4762 e4bc 7795 1fbd 2d66 6abc
000003a0: 9c30 d2bc b4c0 8bbd 8e21 823d 3818 a63b
000003b0: 449d aebc 2d33 303c def9 873d d8d5 44bd
000003c0: 91a9 5cbc deb4 9b3b 7ba9 a93d 51b2 5b3d
000003d0: d648 963d 28c1 53bc b96c cdbc c27b 8fbd
000003e0: 098a dcbc a0a2 ff3c 81b0 19ba a50f f83a
000003f0: 993c e33b d2bf c4bc 0bb0 493d 67ea 7b3d

decoder.deconv.2.bias f4 [64]
-0.035388555 0.042138536 -0.040255398 -0.05009731 -0.038870137 -0.06519471 -0.03319913 0.09216802
-0.027610783 -0.06109172 0.04839682 0.08436314 0.015984956 0.088282265 0.0016320002 -0.059382197
0.039977062 -0.04381816 0.056221507 -0.024847826 0.056473464 -0.047991205 0.025384482 0.011656023
-0.045524336 0.030027054 0.02707391 -0.0012453288 -0.062265266 -0.066797875 0.04063726 0.013078228
-0.025016164 -0.037002325 -0.032037072 0.0774486 0.04921893 -0.021347463 -0.041056853 0.038321987
-0.026939493 0.0761394 0.0745964 0.046260078 -0.00971171 -0.065539055 0.018652387 0.055439636
0.06789981 0.044656303 -0.006678888 0.07672773 0.003951875 0.02854429 -0.032845274 0.058200873
-0.031333555 0.082433596 -0.004373001 0.06895784 0.077339776 -0.06086067 0.07652894 0.0871778
00000000: 97f3 10bd 7599 2c3d d8e2 24bd d632 4dbd
00000010: 4b36 1fbd ce84 85bd d0fb 07bd 96c2 bc3d
00000020: 0230 e2bc 503b 7abd be3b 463d 95c6 ac3d
00000030: e2f2 823c 55cd b43d d7e8 d53a bf3a 73bd
00000040: fdbe 233d ac7a 33bd 8648 663d ab8d cbbc
00000050: b850 673d 6d92 44bd 1ef3 cf3c e7f8 3e3c
00000060: ba77 3abd 4cfb f53c 1bca dd3c 4d3a a3ba
00000070: dd09 7fbd 53cd 88bd 4173 263d 1046 563c
00000080: b3ee ccbc c08f 17bd 4e39 03bd 5f9d 9e3d
00000090: ca99 493d e0e0 aebc 3b2b 28bd 84f7 1c3d
000000a0: 36b0 dcbc f9ee 9b3d ffc5 983d 357b 3d3d
000000b0: dd1d 1fbc 5739 86bd e4cc 983c ac14 633d
000000c0: 0e0f 8b3d 87e9 363d 93da dabb 6e23 9d3d
000000d0: bb7e 813b b7d5 e93c c488 06bd 0a64 6e3d
000000e0: 9d57 00bd f2d2 a83d 644b 8fbb c539 8d3d
000000f0: 5164 9e3d 0a49 79bd 34bb 9c3d 468a b23d
