model/vqvae/num_embedding_64_commitment_cost_0.25.pt (torch, 270809 bytes, 17 tensors)

encoder.conv.0.weight f4 [64, 5, 5]
00000000: db38 dd3d e8de 20be 4330 343e 332e 40be
00000010: 30cb 2bbe 0b87 ffbc 1c87 f43d f621 59bc
00000020: 9518 24bd d05a c5bd 8705 04be 6fc5 b1bd
00000030: 2c54 863d c8c0 163e 9fa1 35bc 1ae5 30bd
00000040: 7be6 043e cfce 52bb b1e3 ce3d 0491 f1bb
00000050: e429 ab3d 71d1 36bb 2049 d2bd 8f21 49be
00000060: a28a 263e b31e 4cbd 3289 c0bc 16e3 ddbd
00000070: 4c5a 0dbe 05f6 06bd 4802 fc3d 8d7f 40be
00000080: 36e3 973d ea19 2c3e d9af 3c3e aed2 b1bd
00000090: f873 d73d 6b91 88bd f713 35be cf74 873d
000000a0: db7f 05be 3332 c13c 9e84 36be f1d1 44bd
000000b0: 0e9c 133d fc1e 3d3e a85a 403e 7d3d 303d
000000c0: 21d1 20be 471f 5b3c dddd 643d 35c5 26be
000000d0: 82e5 6bbd bfbd fdbd 839c 04be efb6 3fbe
000000e0: da9e 183e 697c 9bbd 887a c93d 9000 0f3d
000000f0: 6ebb 2d3e cc60 aebd 1dfa 18bd b260 363e
00000100: 1ab0 2ebe 7669 e23d f0a1 fbbd 6400 233d
00000110: d537 113c 22b1 3d3e 4ae6 2c3d 1370 a5bd
00000120: 1058 47bd c819 18bb 7a95 c4bc ab82 23be
00000130: e2ac 0d3e bc65 3b3e e5a2 3b3c 396b a33d
00000140: 8922 9d3d f7dd e93d d82d 8bbd d9e6 3a3e
00000150: dd80 59be ef26 cc3c da9f d23c d80d ccbd
00000160: bf9a 2ebe b3cc a3bc e956 383d f440 12be
00000170: 0065 0e3e 0589 a9bd 9de4 0cbe 092a 2abe
00000180: 6a31 033e 65ea e93d 5f6e 0cbe 066c b53d
00000190: d4ac f33d 410b 3abe 02bc fabd de13 263e
000001a0: 5d6f 213e 2145 373e c7a5 033c 8326 a73d
000001b0: dc5e 583d 7164 f2bd 085a bcbc 1d75 183e
000001c0: 39d2 463c 1e1b dd3d 39cc 4e3e 2938 86bd
000001d0: 8c9e cabd 6777 43be 9648 52bd dbf6 9f3d
000001e0: d4ed aebd 3a1e 443e fb78 1bbe 48d3 a53b
000001f0: 09fd 973c dccf 44be e087 81bd 82b6 583e
00000200: d1b4 86bd a7a2 5a3b 556e ddbd 83e7 e5bd
00000210: 0153 4e3c c30b 08bd abf1 c43c 895b a93d
00000220: 94f4 75bb 17c0 a3bd 5251 183e af60 7d3d
00000230: e06c d1bd 65fd eabd 745b da3d 2dfe d4bd
00000240: 5926 293e abf9 e2bd cbb2 9c3d fe41 083e
00000250: 45f7 0fbe cdbf e13b 04cf 0dbd f451 d43d
00000260: f4dd 323e 00e7 af3b 5261 213d bc48 fd3d
00000270: 0d5c a13d 0fb2 713c db36 363e 6738 e93d
00000280: 0db4 173e dba5 843d e3e1 0abe 47f2 353e
00000290: 2b85 f2bc 2afc 7abd 4cef 4e3e 083d d23c
000002a0: c91d 473e 03a6 bfbd 4f90 363e a231 4f3d
000002b0: fa6d 173e 036b 0c3e a824 993d b529 0ebd
000002c0: 6c4b f23d bca9 173d 4357 06be c95e 263e
000002d0: 08c8 bbbd 1565 ca3d 5e13 1f3c 1424 1bbe
000002e0: 3430 cd3c 346f d2bc 9099 203d 4c98 253e
000002f0: 5ca5 3d3e 321a 043e 75c7 1dbc e2c0 25be
00000300: a85f ed3d afdf 0a3e 4c4f 9f3d 66da 483e
00000310: 662e 1dbe b8e3 cdbd 46e1 c33c 1346 42be
00000320: afc9 0e3e f724 1e3e a870 433e 3ab2 a2bc
00000330: db76 42be fc5d 073e 7875 dfbd 2889 c5bd
00000340: 5ffe 25be f195 50bd 43f8 10be fd80 e43c
00000350: 498a 113d e521 483e a81a 27be e497 47bd
00000360: 54a3 d73d a666 473d fd4a 4bbd 8fc3 f6bd
00000370: c23d e9bd 1d7f 1d3c 6859 c83d 9ccf 81bc
00000380: b1e2 f7bd f0bb 40be d3bc 04be 4878 16be
00000390: b737 efbd 8f1e 3e3e 8d9e 703d 6d64 2ebd
000003a0: e805 44be 0313 b23d ba83 163d 72c6 39be
000003b0: ad86 353e baa5 3e3e cd81 f4bd 00c5 d9bd
000003c0: 332d 0a3c 1a45 cf3c 6dd5 a73d 135f 183e
000003d0: 8bf8 46be 2a1d e7bd 675e a1bd b270 0fbe
000003e0: d3a0 3ebe 9856 1dbe 4fb9 013e 7aef 1e3d
000003f0: 3f55 31be bab0 073e b36f 083d 3aa4 903d
0.1080186 -0.15710032 0.17596535 -0.18767624 -0.16776729 -0.031192323 0.119398326 -0.013252726
-0.040062506 -0.09636462 -0.12892734 -0.086802356 0.06559023 0.14721978 -0.011085897 -0.04318724
0.12978546 -0.0032166725 0.101020224 -0.0073720235 0.083575994 -0.0027895833 -0.10267854 -0.19641708
0.16263822 -0.049833965 -0.02350292 -0.10834329 -0.13803977 -0.032949466 0.123051226 -0.18798657
0.07416384 0.1680676 0.18426456 -0.08682762 0.10520166 -0.06668361 -0.17683397 0.06614076
-0.13037054 0.023583507 -0.17824027 -0.04805178 0.036037497 0.18468851 0.18784583 0.04302739
-0.15704776 0.013374156 0.055875648 -0.16286166 -0.057591923 -0.12389707 -0.1295033 -0.18722127
0.14904347 -0.07592089 0.09837824 0.034912646 0.1696603 -0.08514556 -0.0373479 0.17810324
-0.17059365 0.11055271 -0.122867465 0.039795294 0.008863409 0.18524602 0.04221181 -0.08078017
-0.048667967 -0.0023208726 -0.023997057 -0.15967815 0.13835481 0.18300527 0.011452411 0.079794355
0.07672603 0.114192896 -0.067958534 0.18252124 -0.21240564 0.024920909 0.025710989 -0.09963578
-0.17051218 -0.01999507 0.04500476 -0.1428259 0.13905716 -0.082780875 -0.13759084 -0.16617598
0.12811819 0.1142166 -0.13713978 0.088584945 0.11898199 -0.18168356 -0.12242891 0.16218516
0.15765138 0.17897464 0.00803513 0.081616424 0.05282484 -0.11835564 -0.022992149 0.14888425
0.012135082 0.10796188 0.20195092 -0.065536804 -0.09893522 -0.19088517 -0.051338755 0.07810756
-0.08541456 0.19152156 -0.15182869 0.005060587 0.018553274 -0.19219917 -0.06324744 0.21163371
-0.06577457 0.0033361109 -0.1081206 -0.11225798 0.012593032 -0.03321434 0.024041018 0.08269412
-0.0037529813 -0.079956226 0.14874771 0.061859783 -0.102258444 -0.114741124 0.106619745 -0.10400043
0.16518535 -0.11082777 0.076512896 0.13306424 -0.1405917 0.0068893195 -0.034621254 0.10367194
0.17467481 0.0053681135 0.039399453 0.123673886 0.078788854 0.014751925 0.17794363 0.11387711
0.14814778 0.06476947 -0.13562731 0.17768203 -0.029604515 -0.06127564 0.20208472 0.025663868
0.19444956 -0.09357836 0.17828487 0.050584443 0.14788046 0.13712697 0.07477695 -0.034707744
0.11830792 0.037027106 -0.13119225 0.16247095 -0.09169012 0.09882561 0.009709207 -0.15150481
0.0250474 -0.025687791 0.03920895 0.16171378 0.18520111 0.12900618 -0.009630074 -0.1618686
0.115905106 0.13561891 0.077787966 0.19614562 -0.15349731 -0.100531995 0.02391113 -0.18972044
0.13944124 0.15443788 0.19085944 -0.019860376 -0.18990652 0.13219446 -0.10911077 -0.09645301
-0.16210316 -0.050924245 -0.14157204 0.027893538 0.03553227 0.1954418 -0.16318762 -0.04872884
0.10529199 0.048681878 -0.04963206 -0.120490186 -0.113887325 0.009612826 0.09782678 -0.015846066
-0.12103785 -0.18821692 -0.12962656 -0.14694321 -0.11680549 0.18566345 0.058744956 -0.042576242
-0.19142878 0.086950324 0.036746718 -0.18142107 0.17727156 0.18617907 -0.1193882 -0.10633278
0.008433628 0.025301505 0.081950046 0.14880018 -0.19430749 -0.112848595 -0.07879334 -0.14007834
-0.18616037 -0.15365064 0.12668346 0.0388026 -0.17317675 0.1325101 0.03330965 0.07062574

encoder.conv.0.bias f4 [64]
00000000: 0d61 2dbe 6161 18be d1c0 1e3e 97fe 3a3d
00000010: 840b 1e3e 9466 ac3d 809d 36be f1e2 e9bd
00000020: d448 01be 2dee 94bd e373 33be d732 0a3e
00000030: be4a 96bc 18c2 523d ebef 12be 681c dcbc
00000040: 3f5c dbbd a413 383e c01d 573e 1193 443d
00000050: 86d0 ee3d 79e7 96ba f369 eebb 8a35 bebd
00000060: 72db b1bd 8481 b63c 5c0b 373e 4ba8 f2bd
00000070: a35a 98bd 1a37 1a3e a9ab 383e 8665 2c3d
00000080: 8c2c 153e 0113 1c3e 25d7 b43d 5581 85bc
00000090: 1ee3 2f3e df42 19bc d6c3 133c 6ae1 cabb
000000a0: d666 e1bd baea c63d 2cf8 8e3d 7f2a 0fbe
000000b0: 8a26 e23d d944 c53b 4626 bc3d 393b 443e
000000c0: eab8 fabd 13db 3b3c 1062 5b3d 8eac 39bd
000000d0: 7d1b cb3c 44eb 97bd 5e84 c63d 0237 9dbd
000000e0: f504 0cbe f78f e3bd 9cb7 463d 659a 63bd
000000f0: 8008 e73d 0563 22be 10ca f43d 9a26 1f3e
-0.16931553 -0.14880897 0.15503241 0.045652952 0.1543408 0.08418003 -0.17833519 -0.11420239
-0.12625438 -0.07271991 -0.17524676 0.13495956 -0.018346187 0.051454633 -0.14349334 -0.026869014
-0.10710954 0.17976242 0.21007442 0.047991816 0.116608664 -0.0011513076 -0.0072758137 -0.092875555
-0.08684434 0.022278555 0.17875427 -0.118485056 -0.074391626 0.15060082 0.18034233 0.042089008
0.14567775 0.15241624 0.08830098 -0.016297022 0.17176482 -0.009354322 0.009018859 -0.006191422
-0.110059425 0.09712739 0.06980929 -0.13981055 0.11042507 0.00602017 0.091869876 0.19163217
-0.12242301 0.011465806 0.053560317 -0.045330577 0.02479338 -0.0741792 0.09693216 -0.076765075
-0.13673766 -0.111114435 0.048514947 -0.055567164 0.11280918 -0.15858085 0.11952603 0.15542069

encoder.conv.2.weight f4 [64, 64, 5]
00000000: 66f5 133d 18fa 23bd b4d7 1d3d 7805 9abc
00000010: 5e20 b8bc b604 07bc 0107 223b 636a 53bc
00000020: 43b5 413d ed8a aabc 82f2 62bd 9d65 38bd
00000030: 8c3f 82bd dd49 80bd 2c8c c1bc 0f9a c5bb
00000040: bfe9 283c 64f2 75bc 7bb5 883c 16b2 143c
00000050: 2d46 163d e78f a3bc 53e7 7fbc ea6f 2cbd
00000060: 81a1 913c 77f1 9ebc ee8e 543d 2a04 43bd
00000070: f04e 1d3d 2804 803b c955 e43c 0292 383d
00000080: 6fea 083c 1ab3 c43c 99a4 993c 740b e03a
00000090: c3af db3c 01e7 113d e76f 293c ca56 febc
000000a0: 23c0 5e3d 5dff 9cba 7cf3 33bd 2221 4e3d
000000b0: cede 29bc c370 b43c bfa0 a9bc 8591 4abd
000000c0: 0ce4 04bd 68d5 033d d555 5abd 5cde e3bc
000000d0: 1043 0f3c 822a c4bb 3172 2bbd 2ced 10bd
000000e0: ea75 bd3c 4396 19bd c260 43bd bcad 4e3c
000000f0: be99 85bb 4b72 853c 9d2d c13c 441f 81bd
00000100: 0c16 d8bc 1d35 203d a560 ddbc 3c5b cebc
00000110: 2428 773b 406c 0dbd 96ac 053d 414c aa3c
00000120: aed7 aa3c e0db 2c3d 0fb9 25bd cfe1 48bc
00000130: c122 efbc d6c5 3f3d 9123 333d 8e57 9c3c
00000140: 25e1 8d3b 3aa7 123d 5a52 1dbd 36d7 21bd
00000150: d93b 893b dcc2 0b3d b431 a3bc dbbf 0fbd
00000160: 7f78 46bd 5c11 b0bc 1777 47bd 81be 3a3d
00000170: 6860 2bbd ed09 4bbb 42c8 60bd f7ec 36bc
00000180: e76c ec3c 549d 873c 9e3c 94bb 04cb 183c
00000190: 67e4 a3bc 1321 44bd b7ad 37bc 0113 99bc
000001a0: f0bb 2cbd a4a0 19bd da1d 033d 0d99 563c
000001b0: 4a3a 503d 7f85 5c3d 5f51 5e3d 73e2 6bbd
000001c0: 108c b73b d694 01bd 5339 29bc 405c fd3c
000001d0: 8387 56bd 832b 013d c75e 61bd 3273 1a3d
000001e0: 84d9 7bbd dd1e a6bc 10c8 773a 5f88 0b3d
000001f0: 1284 433d ac14 6dbd 0205 d63c ddfb d63c
00000200: bcbc 4d3d 3ab4 be3c d02e 28bd 5dcd 033d
00000210: 7448 173d fbf3 113d 1bbd 27bd e4c3 303c
00000220: f561 a43c 60db 55bd 4d5a a4bc 14bd 1abb
00000230: c555 353c 6351 4e3d 426c 6fbd 56b4 9c3c
00000240: a7c6 c93b 43bf a1bc 1cfc 61bd ea0a e73c
00000250: 5165 533c 0b29 72bd f72a 4fbc 35a0 31bd
00000260: 62c1 21bd 2eb5 8fbb 6a4c 11bb 9ad5 3dbd
00000270: b3a8 3a3d c1bd 293d 0c15 51bd af98 af3c
00000280: e745 50bd ed10 053d 7878 adbc f9b9 233d
00000290: be55 773b c802 05bd 378b ddbc fc1c 673c
000002a0: ce56 c3b9 445e 7fbd 2ba2 eb3c 8635 5b3b
000002b0: 7f0c bebc 7a93 69bd 2d32 3d3d c40e 98bc
000002c0: 3ed4 8f3c c4ea 813c 27d6 08bc fcfc bd3c
000002d0: 7fce 50bc f926 d1bc 003d 55bc 64d2 873c
000002e0: 5da1 3fbd b5d5 323d 5415 59bd e1c8 0f3d
000002f0: 6854 4ebd 36d8 26bd 2752 76bd 7bb3 5a3d
00000300: 3450 9bbc f35b 6bbc 103e 9f3c 4cd7 13bd
00000310: 320a 65bd 01b7 1cbd ea4d 11bd fb28 57bd
00000320: 5f9d 273d 4d76 f0bb a3be 3f3d fd37 54bd
00000330: 87fe 3dbd f4a1 ee3c c0a1 03bc 9c3b e23c
00000340: 38ae 00bc eff9 193c 57e0 1a3d fd18 0cbc
00000350: 5a99 5bbd 8933 1b3d 8fc1 42bd 0373 243c
00000360: 886c 37bd 4b4c 1fbd c6f0 dcba a9ad 133a
00000370: b921 0f3d 739b 393d 1bef a3bc 2d92 b23c
00000380: 931b 28bc b10e 88bc 5b21 fc3b 2b89 ad3c
00000390: 0332 973b dab8 bb3c 43e3 703c 12dd 7dbd
000003a0: f4c9 b43c d985 463c 9273 2d3d 8c38 37bb
000003b0: 874d e43c 6d7b b53c d8b0 ec3c b8bc aebc
000003c0: 972a e9bc 4e1d 4abd 66df 4e3c dbb0 bcbc
000003d0: c91a 0abd c9be 4f3d 5d29 0ebd d320 51bd
000003e0: fae6 0dbd f01f 983c 7b51 94bb 6adb 37bd
000003f0: f80c 203c 27d5 47bd e089 af3b e6af 4cbd
0.036122702 -0.04003343 0.03853579 -0.018801436 -0.022476371 -0.008240869 0.0024723413 -0.012903783
0.047292005 -0.020818198 -0.055407055 -0.04501878 -0.06359777 -0.06264088 -0.02362641 -0.006030328
0.010309636 -0.015011404 0.0166881 0.009075662 0.03668802 -0.019966079 -0.015619117 -0.042098917
0.017777206 -0.019402249 0.05189412 -0.047611393 0.03840536 0.0039067455 0.027872937 0.04506112
0.008356675 0.024011184 0.018755244 0.0017093257 0.026817208 0.035620693 0.010341621 -0.031047244
0.054382455 -0.001197796 -0.043933377 0.050324567 -0.010368062 0.022026425 -0.020706533 -0.049455184
-0.032444045 0.032185942 -0.053304512 -0.02781599 0.008744016 -0.0059865126 -0.04185695 -0.035382435
0.023127515 -0.037496816 -0.047699697 0.012614664 -0.0040771654 0.01628985 0.02358132 -0.063047916
-0.0263777 0.039113153 -0.027023623 -0.025189988 0.0037713135 -0.034527063 0.032635294 0.020788314
0.020854797 0.042201877 -0.04045969 -0.012260868 -0.029191377 0.04681953 0.04373509 0.019084718
0.004329818 0.03580401 -0.038408615 -0.03951188 0.0041880426 0.03412138 -0.019921161 -0.035095077
-0.048454758 -0.021492653 -0.048697557 0.045591835 -0.041839987 -0.0030981258 -0.05487848 -0.011164895
0.028860522 0.016554512 -0.0045238277 0.009325746 -0.020006372 -0.047883105 -0.01121085 -0.01868582
-0.04217142 -0.037506714 0.03201089 0.013098014 0.05083684 0.05383825 0.05427682 -0.057589006
0.0056014135 -0.03163608 -0.010328609 0.030927777 -0.052375328 0.031535637 -0.055022027 0.037707515
-0.061486736 -0.020278389 0.0009452114 0.0340656 0.047733374 -0.057881042 0.026125435 0.026243145
0.05022882 0.023279298 -0.04106027 0.03217827 0.03693433 0.03563307 -0.04095183 0.010788891
0.02006624 -0.052211165 -0.02006259 -0.0023611235 0.011067812 0.050370585 -0.058452852 0.01912896
0.0061577144 -0.019744521 -0.05517207 0.028203446 0.012902574 -0.059121173 -0.012644521 -0.043365676
-0.039491065 -0.004385612 -0.002217079 -0.046346284 0.04557104 0.04144073 -0.051045462 0.02143511
-0.050847914 0.032486845 -0.021175608 0.03997228 0.0037740315 -0.032473356 -0.027043922 0.0141060315
-0.00037257973 -0.062345758 0.028763851 0.003344865 -0.023199318 -0.05702541 0.04619043 -0.018561728
0.01755726 0.015859015 -0.008351839 0.023191921 -0.012744545 -0.025531279 -0.013015032 0.016579814
-0.046784747 0.04366084 -0.052998856 0.035103682 -0.050373465 -0.04073354 -0.06013694 0.053393822
-0.018959142 -0.014365184 0.019438773 -0.036093995 -0.055917926 -0.038260464 -0.035474695 -0.052529316
0.040921565 -0.0073383213 0.046812665 -0.051811207 -0.046385314 0.02912996 -0.00803417 0.027616315
-0.007854037 0.009397968 0.037811603 -0.00855088 -0.053613044 0.037890945 -0.047547873 0.010037187
-0.044781238 -0.038891118 -0.0016856424 0.00056334824 0.03494427 0.045314264 -0.020011475 0.021798218
-0.01026048 -0.016608568 0.007694406 0.02118357 0.004614116 0.022915293 0.014702621 -0.061978407
0.022068955 0.012116873 0.042346545 -0.0027957289 0.027869 0.02215358 0.02889292 -0.021330222
-0.028462691 -0.049344353 0.0126265045 -0.02303355 -0.03371695 0.050719056 -0.034707416 -0.051056694
-0.034644105 0.018569916 -0.004526315 -0.044886984 0.009768717 -0.048787262 0.005357012 -0.049972437

encoder.conv.2.bias f4 [64]
00000000: 8b60 02bd dbfb 6cbc 761d 0d3c 6049 623d
00000010: cc01 003d 879a 82bc 3005 4b3d 5329 f739
00000020: 9441 db3c 48dc 1abd b9ea b0bc ffc0 0f3d
00000030: 75bb 313d 46c1 233d 9201 543d c327 443d
00000040: d27f dabb efd5 0c3d db2d 1a3d e300 c93c
00000050: b2f3 45bd 11c6 acbc 491b d0bc e4d5 9bbc
00000060: a872 02bc 11d7 323d 27a9 c23b 0147 5bbc
00000070: 1bd0 69bc 3b93 d0bc 4815 6b3c 9fbb 16bd
00000080: 0ba2 cfbb 9427 f5bc 5414 3fbb 4b6b 113d
00000090: c454 413d 224a 773c e68d 60bb 2078 6fbd
000000a0: e039 2a3d 7c50 3ebc 9056 a5bc 28b2 0cbd
000000b0: fe12 5dbc 9dd1 353d e8d6 023d 95d6 5bbd
000000c0: 398d 423d cac0 37bd 7b33 243d 7d67 6b3c
000000d0: 57b9 fd3c e80a dd3c 9bf0 dcbc 0967 593d
000000e0: bb72 77b8 74ab e3bc cc8d 51bd f107 ba3c
000000f0: f8d1 28bd 0a7d 593d dff8 003d 92c3 51bd
-0.03183035 -0.014464344 0.008612981 0.055245757 0.031251714 -0.015942825 0.049565494 0.000471423
0.026764669 -0.037807733 -0.0215963 0.035096165 0.043391664 0.03997924 0.05175931 0.047889482
-0.0066680694 0.03438371 0.037641387 0.024536556 -0.04832811 -0.02109054 -0.025403636 -0.01902289
-0.0079619065 0.043662135 0.0059405747 -0.013383628 -0.014270808 -0.02546083 0.014348336 -0.036800023
-0.0063364557 -0.029926099 -0.0029156404 0.035502713 0.04719998 0.015093358 -0.0034264266 -0.05846417
0.0415591 -0.011615869 -0.020182878 -0.03434959 -0.013493298 0.044389356 0.03194323 -0.05367144
0.04749796 -0.044861592 0.040088158 0.014367935 0.030972166 0.02698274 -0.026970198 0.053076778
-5.899624e-05 -0.027791716 -0.05116062 0.022708865 -0.041215867 0.053097762 0.031487342 -0.0512119

encoder.conv.4.weight f4 [8, 64, 3]
00000000: 8da6 e2bb 3fc3 31bb 2a83 3c39 8548 033d
00000010: 3f96 443d 5f11 023d 6606 39bd b1ca 49bd
00000020: db0a 8fbd 6940 eabc 4fd0 f0bc 9637 e3bc
00000030: dd23 18bd 87b6 61bd 4f4b 85bd 0c4c a6bc
00000040: 7723 e43c 5bc7 293d 8c70 583d c0a6 77bb
00000050: b01d 4c3a df85 5dbd 9325 883c 4e2f 483d
00000060: ac78 5abd a05a da3b 8d11 80bd f210 68bc
00000070: ff88 01bd d1ee 26bd 861c f2bc 1b43 363d
00000080: 0113 29bc 5923 3ebd 0ec4 6f3d e1da b1ba
00000090: e492 63bd 4c58 67bd bedc 03bd afd0 0fba
000000a0: a4d9 203d 4370 1d3c ea85 96bb d993 ba3c
000000b0: 63f2 a83c 74a6 62bc e378 9fbd 45aa 43bd
000000c0: 8cfd c739 900d 863c dd2e b2bc ecae 543c
000000d0: 913c 2e3d cba6 613d 62f1 f73c e5a7 4e3d
000000e0: 73ae c83b 6b26 153d 0a32 55bd acae c9bc
000000f0: ed16 61bd 01d0 f7ba 1950 693d c581 afbc
00000100: 4c08 32bd 0306 4d3c b061 3fbd 6bc7 3a3d
00000110: 8d91 e7bc e332 fc3b ad65 31bc 7eac 4f3d
00000120: 20b1 19bd db42 77bd dfda 393d 0c12 17bd
00000130: 106b 923c 3538 4b3d 9b3b 8a3c dc42 6bbc
00000140: 30b6 8c3c 5cc1 8cbd c311 17bd 3328 4ebc
00000150: b6a0 cd3c e286 c63c 9e4d 293c ed65 813d
00000160: 950a 503d 1d3a 4dbd 7cfc 96bc e75d e13c
00000170: b3ae ea3c da1a 26bd f112 12bd 19f0 d7bc
00000180: 4fc3 163d e19e 4b3c 6a70 1dbd 6b65 053d
00000190: f026 9dba 3a06 353d 00f2 a3bc 4d02 84bb
000001a0: 5e48 8c3d 96a8 143d 4312 2e3d 5679 b4bb
000001b0: 9e49 a8bc cf03 293c 1227 85bb 8bdb dabc
000001c0: 245f 10bd 2452 ec3c 3dd9 90bc 968d 373d
000001d0: 1b03 38bd bbf4 ee3c 2381 d53c 26dc fc3c
000001e0: 3531 003d c87c 5c3c 393e a3bd ccf5 713d
000001f0: 0e34 243c bad7 56bd 45be 193d ea3e 6c3d
00000200: 4609 3b3d 6713 3dbd 0a46 c8bc 388d 273d
00000210: 4bfa 273d f7e7 173d d94e 893d 8ff4 9d3b
00000220: 2c28 85bd 9690 7abd 7767 803d e5d2 66bd
00000230: 462f 143d 8c86 eebc 3f21 28bd df1e 4abb
00000240: b193 e3bc 97b9 403d 3ab4 2a3d c265 90bc
00000250: a806 053d 2089 1d3c 1108 86ba f614 593d
00000260: 8608 8dbd 4a3e 9dbd 7a81 7b3c 7a48 4bba
00000270: 2c18 793d 9611 b63c 1846 4ebd 9cde 083d
00000280: 1617 42bd 531c 4d3d 09b3 25bd 1d32 cc3c
00000290: f26c ca3c 1a5c 3e3d 6aa8 c9bc 6b5f 60bd
000002a0: 8f0f c1bc ec73 893d 9321 80bd 9fdb 45bd
000002b0: e3e3 18bd 37ba 01bd 58e6 7e3c 242b 4e3d
000002c0: 4f57 5abc 69d1 a4bc 480f 8ebd f0ce 24bc
000002d0: 0196 433d b318 2cbd 3bf3 2fbb 1984 343c
000002e0: c210 79bd 6553 9d3c 636d b83c 2361 023d
000002f0: 428e edbc 1404 413d 4c94 70bd 6626 8d3d
00000300: 002d 523c 75dd 653d a66b cd3c a089 7fbd
00000310: 5dfe 803d 1990 613d ce92 e3bc e238 583d
00000320: a78b eebc 4674 70bd e554 713c 7d3c 363d
00000330: 6ed6 2f3d 16dd 723d 18fc 1abd 1d92 a6bc
00000340: 486f 44bd 95fd 043d 8be7 2e3d 6d27 183d
00000350: 2099 3bbd 93f2 333d 13e8 10bc 7505 06bd
00000360: 5940 403d a7e3 d1bb 9319 5dbd 6965 f8bc
00000370: 8deb f93c da21 81bd dcc1 7cbb 6261 773d
00000380: 883a 13bb 9f01 3bbc 1508 1f3d 7b29 c13c
00000390: 1cdc 07bd 201d 263d 62d1 2bbc 90b6 98bc
000003a0: 5a58 093d 74e1 f43c 4113 e6bc cc57 febc
000003b0: 7633 af3b 56a9 643d 9b9a 82bd b34b 483d
000003c0: 7025 a23c f9d9 7a3d 2a41 803d 6e49 47bd
000003d0: 8179 0a3d 8625 503d b1be a8bd 02af 10bc
000003e0: f652 e3bc 4c5c a33c 4fc8 943c 23d2 02bc
000003f0: 8d83 893c 5c85 81bd 1dc2 e2bb 2355 febc
-0.006916827 -0.0027124432 0.0001797794 0.032051582 0.04799485 0.031754848 -0.045172118 -0.049265567
-0.069844924 -0.028595166 -0.029396204 -0.027736466 -0.037143577 -0.055105712 -0.065085046 -0.020299934
0.027848942 0.041449886 0.052841708 -0.00377886 0.0007786406 -0.054082748 0.01661948 0.04887324
-0.053337738 0.0066636354 -0.062533475 -0.014164196 -0.03162479 -0.040755097 -0.029554617 0.04449759
-0.010319472 -0.04642043 0.05853658 -0.0013569259 -0.055560008 -0.05648069 -0.032192938 -0.00054861134
0.03927006 0.009609285 -0.0045936005 0.022775577 0.020623391 -0.013833631 -0.07786729 -0.047769804
0.00038145145 0.016363889 -0.021750862 0.012981158 0.04253823 0.055090707 0.030266467 0.050453085
0.0061243116 0.03641359 -0.052049674 -0.024619423 -0.054953504 -0.0018906594 0.056961153 -0.021424184
-0.043464944 0.01251364 -0.04672402 0.045600336 -0.028267646 0.007696496 -0.010827464 0.05070161
-0.037522435 -0.060366493 0.045374747 -0.036882445 0.017873317 0.04961415 0.016874125 -0.014359202
0.017176718 -0.06872818 -0.036882173 -0.012582826 0.025101047 0.024234239 0.010333447 0.06318269
0.05079134 -0.05010425 -0.01843094 0.027510596 0.028647756 -0.04055295 -0.035662595 -0.026359605
0.036807355 0.012428016 -0.038437285 0.032567423 -0.0011989754 0.04419539 -0.020012856 -0.0040285946
0.068497404 0.03629359 0.042497884 -0.0055076284 -0.020542916 0.010315849 -0.0040634954 -0.026716014
-0.035246983 0.028847761 -0.017681712 0.04481276 -0.044924837 0.029169431 0.026062554 0.030866694
0.031296927 0.013457485 -0.079708524 0.0590723 0.010022176 -0.052451827 0.03753497 0.057677187
0.04566314 -0.04616108 -0.02444746 0.04090616 0.041010182 0.037086453 0.06704492 0.0048204134
-0.06501803 -0.061173044 0.06269734 -0.05635347 0.036177896 -0.029116891 -0.04104733 -0.0030841155
-0.027780386 0.047051992 0.041675784 -0.017626647 0.03247705 0.009615213 -0.0010225793 0.052998506
-0.06886391 -0.07677896 0.015350694 -0.00077546353 0.060814068 0.022225183 -0.050359815 0.03341542
-0.047385298 0.05007584 -0.040453944 0.02492624 0.024710152 0.046474554 -0.024616439 -0.054778498
-0.02356699 0.067115635 -0.06256404 -0.04830515 -0.037326705 -0.03167173 0.015557848 0.05033411
-0.01332648 -0.020119386 -0.069365084 -0.010059103 0.047750477 -0.042015743 -0.0026847858 0.011017823
-0.060806997 0.019204805 0.022513097 0.031830918 -0.028998498 0.04712303 -0.058735177 0.068920895
0.012828112 0.0561194 0.025075745 -0.06238711 0.06298516 0.055069063 -0.027779963 0.052788623
-0.029119326 -0.058704637 0.014729713 0.04449128 0.042929105 0.059292875 -0.03783807 -0.020333344
-0.04795769 0.032468397 0.042701285 0.037146974 -0.04580033 0.04393251 -0.008844393 -0.032720048
0.046936367 -0.006405312 -0.053979468 -0.030321794 0.030507827 -0.06305285 -0.0038567698 0.060395606
-0.0022465307 -0.011413961 0.038826067 0.02357935 -0.033168897 0.04055512 -0.0104869325 -0.01864174
0.033531524 0.02989266 -0.028085353 -0.031047724 0.005346711 0.055825554 -0.06377145 0.048900317
0.019793242 0.06124303 0.06262429 -0.048654012 0.03380728 0.050817035 -0.082394965 -0.008830788
-0.02774952 0.019941472 0.01816192 -0.007984671 0.016786361 -0.063242644 -0.0069201128 -0.031046456

encoder.conv.4.bias f4 [8]
00000000: 410e 47bd e607 4e3d e44d 43ba 1d05 59bd
00000010: 8b6d 49bc 1c89 093d 2d95 3f3d e687 fe3c
-0.048597578 0.0503005 -0.0007450266 -0.052983392 -0.0122941835 0.033578023 0.046773124 0.03107066

vq.embedding.weight f4 [64, 8]
00000000: aac4 fd3b 1466 923c 9718 7838 4e01 a1b4
00000010: 7b9a a93c d4c6 223d 9888 ec3c fe5a d73c
00000020: 0069 0b39 54fe e93b fc83 3a3c 882c 353c
00000030: e237 07bc 80a3 ff3b ae3c 2a3c c8c0 d13b
00000040: 881f 9c3b 9884 05bb 88e7 053b 48bf 503c
00000050: 0c16 f63b f0ec b2bb 9e68 1abc de78 2abc
00000060: 018f 0e3b 09d4 ee3b 82d7 093b b298 edba
00000070: 0979 c63b 788b 213c 6127 ac3c 0f80 3d3c
00000080: 609d 1d3c c0f6 beba 025c 3d3c 6c4e dbbb
00000090: 2892 d1bb 6827 823b 5cec 2e3c 341e d0bb
000000a0: 6844 243b ce0c 173c 9437 653c b085 b1ba
000000b0: b85b e83b 0436 2e3c 100d a3bb 703d af3a
000000c0: 3658 013c 44fb d73b a0f4 313b 00d8 9239
000000d0: c02d 1c3a 68f9 ca3b 86fa 04bc 9822 3abc
000000e0: f079 99bb 3080 f33b a26b 283c a022 dfbb
000000f0: 4c6e eebb 064f 29bc d231 14bc d03d f13b
00000100: e25a 723c d0c2 f4bb 1077 a4ba 8e55 72bc
00000110: acf7 a6bb a434 2c3c 989e 4a3c 5ac9 213c
00000120: dcf5 1bbc b69c 4f3c 388c 613b c062 dbb9
00000130: bcd8 643c c4bf 4b3c e839 433b 1441 77bc
00000140: d04f f8ba 2a67 1fbc 4016 5dba e223 643c
00000150: ac99 6fbc 54da 8abb 4eb6 4f3c c052 ecba
00000160: a475 10bc 6a71 483c 9cdb 42bc 2cca 363c
00000170: 548a ad3b 70f2 2a3c 70d2 c43b 56f1 2abc
00000180: aef8 8d3c ee55 5d3b cea3 7e3c 9a66 9fbb
00000190: f2c9 fe3b 5154 61bb 9da5 423c bf93 093b
000001a0: 625c 2d3c 560d 13bc 54e6 22bc c62d 253c
000001b0: 5cc8 433c e6f7 30bc 4862 53bc 50d0 2abc
000001c0: c090 20bb 18d0 0abb 5c97 78bc 3c49 eb3b
000001d0: 16a2 373c c674 35bc 1870 dcbb d8d2 843b
000001e0: fc20 753c de47 78bc e87e 713b 400b 793c
000001f0: 823a 60bc 0057 7539 4c18 533c 60ac f73b
00000200: f08c 69bb 0082 423b 045b ff3b 9a25 543c
00000210: 9002 973b 18e7 f3bb 9424 59bc 90a0 30bb
00000220: 2001 e23a 8805 20bc d073 943a 809d 77ba
00000230: fec2 223c 9cad 523c 80ae 34ba bcb1 ad3b
00000240: 46ac 793c 385e 0abb feba 6cbc dcc8 a43b
00000250: 8cbe 0bbc 1860 813b 2067 0f3b 60ed d23a
00000260: 805c 513a 9c5a 18bc bc4b 4b3c 5017 ffbb
00000270: da0f 103c c075 723a 7056 a6ba f40d 56bc
00000280: 52ec 63bc 4417 cd3b 7837 823b 186d 533c
00000290: 9c55 57bc 62a6 573c 0064 f039 e227 5abc
000002a0: 9eee 3c3c 2073 b83a c074 6e3c 3af1 153c
000002b0: 184c 063b 00c2 7e39 289e d4bb de62 4bbc
000002c0: 10e6 2ebb 0052 043c e87f febb 60f1 1fbb
000002d0: d04f bc3b 009a 83b9 e805 f2bb 281a 193b
000002e0: 100d 98ba 80ee bf3b 00a0 da3a 608f f43b
000002f0: 1461 af3b d00d 143c 2287 1ebc 8016 703b
00000300: f9bd 0d3c e92b 693c 7551 44bc cacf 98bb
00000310: 8486 883c 426f 933c 8f69 3e3c 6915 903b
00000320: 789a dfbb 9870 e03b 8495 30bc 6cd7 19bc
00000330: 34fa e43b f83d e73b d668 2fbc 147b 91bb
00000340: 6820 46bc 4466 cabb fef8 1abc 2c61 003c
00000350: 101b 153b dc2f ea3b 405d 19ba 8ee5 38bc
00000360: d0a9 ea3a be1c 60bc 46e2 5dbc b8df 1cbb
00000370: b806 b43b a038 1e3c 667d 56bc 2caa 57bc
00000380: 6c62 b3bb 5892 3d3c 70b8 4a3c b8bc 06bb
00000390: a8bc db3b 0cab cb3b fe06 2abc 58d5 95bb
000003a0: 325a 0a3c b40f 473c 748d c13b 88fe 323c
000003b0: 7c69 863b 1818 f53b a80a 1abc a098 593a
000003c0: 4026 54bb 287b 2c3b b815 3cbb 4e18 6dbc
000003d0: 34b8 d1bb c88e 9c3b 0080 edb6 a884 673c
000003e0: 6433 783c 2276 7a3c 2c28 6b3c f2ff 0d3c
000003f0: 34db f0bb f843 1d3c c864 36bc b0fc 92bb
0.0077443914 0.01787094 5.915071e-05 -2.9989536e-07 0.020703545 0.0397404 0.028873727 0.026288506
0.00013295189 0.007140914 0.011384007 0.01105798 -0.00825307 0.007801473 0.010390444 0.006401155
0.004764501 -0.0020373221 0.0020432193 0.0127409175 0.0075099524 -0.005460374 -0.009424357 -0.010404794
0.0021752717 0.00728846 0.0021032994 -0.0018127172 0.006056909 0.009859912 0.021014871 0.011566176
0.009620041 -0.0014569387 0.011557581 -0.006692698 -0.006395597 0.0039719827 0.01067647 -0.0063512567
0.0025065187 0.0092193615 0.013990302 -0.001354387 0.007091012 0.0106329955 -0.0049759224 0.001336975
0.007894566 0.0065912325 0.0027153865 0.00028008223 0.0005957745 0.0061942823 -0.00811637 -0.011360787
-0.0046837255 0.0074310526 0.010279568 -0.0068095475 -0.007276332 -0.010333782 -0.009045081 0.007362105
0.014792176 -0.0074695125 -0.001254769 -0.014790906 -0.0050954428 0.010510597 0.012366913 0.009874666
-0.009519067 0.01267164 0.0034415852 -0.0004184451 0.013967689 0.012435857 0.0029789153 -0.015091199
-0.0018944684 -0.009729186 -0.00084337965 0.013924571 -0.014624041 -0.0042374525 0.012677742 -0.0018030033
-0.00881711 0.012234071 -0.011893179 0.0111566 0.005296031 0.010433778 0.0060065314 -0.0104335155
0.017330494 0.0033773142 0.015541984 -0.004864526 0.0077755386 -0.0034382532 0.011880306 0.0020992605
0.010581108 -0.0089753475 -0.00994261 0.010081714 0.011949625 -0.010801291 -0.01290185 -0.010425642
-0.002450034 -0.0021181162 -0.015172806 0.007180361 0.011208078 -0.011075204 -0.00672723 0.004053455
0.014961477 -0.015153853 0.0036849324 0.015200436 -0.013685824 0.00023397431 0.012884211 0.0075583905
-0.0035636984 0.0029679537 0.0077928323 0.012948418 0.00460846 -0.00744332 -0.01325335 -0.0026951171
0.0017242767 -0.009766944 0.0011326019 -0.00094457716 0.009934185 0.0128587745 -0.00068924576 0.0053007286
0.015238827 -0.0021113288 -0.014448879 0.005028827 -0.008529317 0.003948223 0.0021881536 0.0016092472
0.0007986501 -0.009298947 0.012408193 -0.0077847615 0.008792842 0.00092491135 -0.0012690555 -0.01306485
-0.013911324 0.006258877 0.0039738975 0.012904428 -0.013142969 0.013162227 0.00045850873 -0.013315173
0.0115315 0.0014072396 0.014554203 0.009151751 0.0020492133 0.00024295598 -0.0064885803 -0.0124137085
-0.002668742 0.008076191 -0.0077667125 -0.0024405345 0.005746819 -0.00025101006 -0.007385958 0.0023361538
-0.0011600573 0.005857289 0.0016679764 0.0074633807 0.005352149 0.009036496 -0.009675773 0.0036634505
0.00865125 0.01423166 -0.0119823115 -0.0046634423 0.016665705 0.017997388 0.011621847 0.0043970835
-0.006823834 0.0068493597 -0.010777835 -0.0093897395 0.0069878343 0.007056948 -0.010706147 -0.004439721
-0.012092687 -0.006176742 -0.009458778 0.007835668 0.0022751726 0.0071468186 -0.0005850382 -0.011285199
0.0017903391 -0.013678728 -0.013542717 -0.0023937058 0.005493965 0.009657055 -0.013091421 -0.013163131
-0.0054743793 0.011570536 0.012373075 -0.0020559262 0.006705839 0.0062154587 -0.010377644 -0.0045725517
0.008444356 0.01214974 0.005906755 0.010924943 0.00410193 0.007479679 -0.009401955 0.0008300636
-0.0032371432 0.0026318524 -0.0028699469 -0.014471127 -0.0064001326 0.004777763 -7.0780516e-06 0.014130749
0.015148971 0.015286954 0.014352839 0.008666979 -0.00735035 0.009598725 -0.011132427 -0.004485689

decoder.deconv.0.weight f4 [8, 64, 7]
00000000: b89b b53c 1d47 2fbc b043 163d 8f1e e4bc
00000010: 90c0 203d cccf 9c3a b0da 32bc f84c 503d
00000020: 6079 8b3c 395d 073d d707 97bc 7f68 eb3c
00000030: 2109 813d fcfd 0b3d 614d 5d3c 23fa 143d
00000040: 7d4e 773c a15d c13b b11f efba 5e3f d7bc
00000050: 094b c0bb a0a7 0b3b cd7b 2e3c 8308 753c
00000060: 1fbf 4cbb 9a01 08bb 460f fcbb ed1f 693c
00000070: ecb9 dabc ee3d ccba 193a 13bc 5821 103d
00000080: 41fa 13bc fe88 143c 8a8b 31bb 14f2 923a
00000090: 7488 943c ae0c d6bb da61 9bbc 9703 a53c
000000a0: 22ef b33c 56ee dd3b 7324 b6bc da12 c6bc
000000b0: b5bc 88bb 66ed 09bd fcf5 d2bc c8d9 0ebd
000000c0: e7cf 0fbd cbc2 e53c 3831 63bc e978 f1bb
000000d0: 82d8 583c 9171 c9bc f2d7 a1bc 5cb7 e7ba
000000e0: 17cb fc3c 1912 2dbd 0659 b8bc d930 583c
000000f0: c865 383d 1258 fa3c ad58 953c 9510 183d
00000100: c38e b83c c5f4 6c3c b963 38bc b7b0 2abd
00000110: 4e44 bfbb da95 453a 52e9 ca3a 9c32 593b
00000120: 59dd 02bd a02c abbb 5469 5ebc c825 7a3d
00000130: fbbe 2e3d aea2 ff3c a83b 0bbd 7afc 96bc
00000140: bfbd a13c eb20 25bc 41d5 253d 3d3c cb3c
00000150: 7e27 213d 195d d2bc 0c4f 163d 661e a73c
00000160: e9a7 2e3c bf8c e2bc 0dd1 43bb fef8 a83c
00000170: 9d98 63bc 5c43 acbc 4a07 11bd a629 67bc
00000180: 0406 2cbc 9a2b 113c 5032 e4bc 46d4 8bbb
00000190: bd58 abbc e789 2fbd f3d3 333c 79c7 953c
000001a0: 5ba5 91bb 61f1 083c 5851 1bbd 8f7c 26bd
000001b0: 04bf 483c e0b1 93bc e144 1c3d 9781 97bc
000001c0: 5304 b3bc 728f b13b 373c 3bbd f3b1 db3c
000001d0: 7b83 bbbb 1492 d93c 894f 003d 0ed7 7d3b
000001e0: f860 06bd f6ff 1dbb b352 993c 5060 d6bc
000001f0: e38d 9abb 847e efbb b8f5 30bd c548 033d
00000200: b50c 883c 1bf6 83bb 34ac 3dbd 9b78 35bc
00000210: b2c4 303c 120f 0b3d 19e6 cabc 1472 7b3c
00000220: f1da b73c 709e 973c e81f 6ebc dccc 813d
00000230: 3b14 94bc 8543 cc3c ca06 c3bc bddc 923c
00000240: 96df 063d cb2d 0cbc 0fb5 08bd 65b7 a13a
00000250: dce3 40bd 6d9c 1fbd 8293 9abb c22c 3ebd
00000260: 7be2 81ba 995f 8fbc c226 3f3c 7b44 4abd
00000270: 29d6 42bd 132c d23c 42db e23c 29e1 34bd
00000280: 97a5 0e3a 3e82 473b 5a83 8cbb a005 1b3d
00000290: ed9b 7dbc 8658 a53b 9350 863c 8869 15bd
000002a0: 2886 1d3c e4ed 73bc d7f7 e53b 50d8 15bd
000002b0: b9d8 08bd fac0 703d fdc5 fc3c 4ebe bb3c
000002c0: 9685 b0bc ad77 f4bc 99cd 053c c99e 26bd
000002d0: b765 183d 90cd 84bc c4b5 c83c 5306 203d
000002e0: 65cf 0ebc 86d4 0a3d db37 cebc d814 8e3b
000002f0: af98 133c ddef d9bc a81e 27bd e044 ff3b
00000300: e217 05bd 0e8d be3c ef87 13bc 64c0 3abd
00000310: 40a5 2cbc 3da4 69bc fb63 34bc 7965 f3bc
00000320: 8a92 3d3d 04f5 debc a4dd dcbb 56cd 003c
00000330: 604d 073c e019 50bd d2ca 3dbc 5c33 c63c
00000340: ca8e 05bd b746 f5bc 5a2b 223d 7e65 12bd
00000350: 84f6 08bd b7a0 b3bb cdbc 923b 2d20 223d
00000360: 94e6 a1bc 0958 ba3c 5cdd fbbc e4ad 4bbc
00000370: ccf8 09bd dc02 663c d0f7 143d b1d9 843c
00000380: 154b babc 3640 f9bc 38ca 08bb e83e adbc
00000390: 4f0d b1bb d648 89ba 1bd0 eb3b c126 463c
000003a0: b420 3a3c 0cb3 94bc 1a16 6dbb 9c73 b23c
000003b0: 1cdf 173d d0be 4e3c 5fa2 473c e3ab 043b
000003c0: ae42 7d3c 0442 d8bc 44bd c93c 86fd 063d
000003d0: 655b 9dbc 8766 df3c 0ef0 c83c 02a0 11bd
000003e0: a0bc 253d 545f d0bc 49f2 933c 6302 0d3d
000003f0: 5a81 d5ba 2c5e 153c 2d62 ecbc 39b5 253d
0.022168979 -0.010698107 0.036685646 -0.027846603 0.039246142 0.0011963784 -0.010916397 0.050854653
0.01702565 0.03304789 -0.018436356 0.028736351 0.06300569 0.034177765 0.013507218 0.03637136
0.015094397 0.005901054 -0.0018243698 -0.026275333 -0.00586832 0.002130963 0.010649634 0.014955643
-0.0031241847 -0.0020752908 -0.0076922504 0.014228803 -0.026699983 -0.0015582421 -0.0089860195 0.03518805
-0.009031833 0.009065865 -0.0027091228 0.0011211061 0.018131472 -0.0065322733 -0.018967558 0.020143313
0.021964613 0.0067727966 -0.022234177 -0.024178911 -0.0041728863 -0.033673666 -0.02575206 -0.03487566
-0.03511038 0.028046986 -0.013866715 -0.00736915 0.013235213 -0.024590285 -0.019756291 -0.0017678547
0.03085856 -0.042253587 -0.022503387 0.01319524 0.04501894 0.030559573 0.01823076 0.03712519
0.022529012 0.0144626545 -0.0112542445 -0.041672435 -0.005837 0.0007537283 0.0015480912 0.0033141738
-0.031949375 -0.0052238256 -0.013574917 0.061071187 0.042662602 0.031205501 -0.03399244 -0.018430937
0.019743798 -0.010078649 0.040486578 0.024808997 0.039344303 -0.025679158 0.03669648 0.020400237
0.01066015 -0.027655004 -0.0029879243 0.020626541 -0.013891366 -0.021028213 -0.035407342 -0.014109051
-0.010499481 0.008860493 -0.027856022 -0.0042672483 -0.020916337 -0.042856123 0.010975826 0.018283593
-0.0044447607 0.0083583305 -0.037919372 -0.040646132 0.012252573 -0.018029153 0.038151626 -0.01849441
-0.021852648 0.0054187113 -0.045711722 0.026818251 -0.005722461 0.026558913 0.03132585 0.003873292
-0.03280732 -0.0024108863 0.018716192 -0.026168972 -0.0047166212 -0.007308783 -0.043203086 0.03205182
0.016607622 -0.004027141 -0.046306804 -0.011076118 0.010789083 0.03394992 -0.024767922 0.015347023
0.022443267 0.018508166 -0.014533974 0.06337902 -0.018076053 0.02493454 -0.023806948 0.017927522
0.032928072 -0.00855584 -0.033375796 0.0012337981 -0.047092304 -0.03896754 -0.0047172913 -0.046429403
-0.0009909415 -0.01750164 0.011666955 -0.049381714 -0.04756752 0.025655782 0.02769244 -0.044160042
0.0005441545 0.003044262 -0.0042881193 0.03784716 -0.01547907 0.005045953 0.016395843 -0.036477596
0.009614505 -0.0148882605 0.00701807 -0.036583245 -0.033409808 0.058777787 0.030856127 0.022917893
-0.021548074 -0.029842222 0.008166694 -0.040678773 0.037206378 -0.016211301 0.024500735 0.03906853
-0.008716439 0.033894084 -0.025173118 0.004335981 0.009008571 -0.026603634 -0.04080072 0.007790193
-0.03249348 0.02326062 -0.009004577 -0.045593634 -0.010537446 -0.014260349 -0.011010165 -0.029711472
0.04628233 -0.027216442 -0.006740289 0.007861456 0.008258194 -0.050805926 -0.011584001 0.024194412
-0.032606877 -0.029940946 0.039592125 -0.03574132 -0.03343822 -0.005481805 0.004478073 0.039581466
-0.019763269 0.022747057 -0.0307452 -0.0124315955 -0.033684537 0.014038768 0.036369145 0.016217085
-0.02274088 -0.030426126 -0.0020872485 -0.02114816 -0.005403198 -0.0010473977 0.007196439 0.012094201
0.011360336 -0.018151782 -0.0036176504 0.021783642 0.037078008 0.012618735 0.012184708 0.0020244054
0.015457792 -0.026398666 0.024626382 0.032956623 -0.01920862 0.027270569 0.02452853 -0.035552986
0.04046309 -0.025436081 0.018059867 0.034426104 -0.001628916 0.009116691 -0.028855408 0.04045603

decoder.deconv.0.bias f4 [64]
00000000: 2462 c6bc 9fa0 943c b10f 41bd 5fe2 1b3d
00000010: bed0 653d 4654 423d 2fd3 0cbd f25e 0b3d
00000020: 3929 4e3d 7fa6 0dbd 8001 733d d455 8dbb
00000030: f09b 3e3d efa7 6c3d 3f51 143d 3030 d53c
00000040: 1dc9 1a3d 67bf 22bd 6057 5e3c 168c 423d
00000050: 7617 423d 2783 18bd 1003 123d 16f0 23bc
00000060: b256 6b3d 3b32 abbc 2ca2 efbc 635c 44bb
00000070: aebb a0bc 60c6 153d f729 47bc b64c 2f3d
00000080: 70c5 b8bc a670 f9bc ed4f a9bb b961 753d
00000090: 417c 8b3d c408 c93c 4312 293d 7245 3dbd
000000a0: f8c4 f7bc e44f 843d 96b0 293d 5736 223d
000000b0: 7381 723d fd62 0fbd e18f 263d b3fb bebc
000000c0: 15dd f53c 6aaa c7bc 8031 3dbc 8c44 3cbb
000000d0: 542b 033d ee8c 86bc cf4b 69bb ebc0 efbc
000000e0: 8001 d3bc 8c57 eabc 5eca 783d 0411 1dbc
000000f0: 5816 10bd f108 be3c fe82 223d 5d39 18bc
-0.024216719 0.018142996 -0.047134105 0.03805768 0.056107275 0.04744365 -0.034381088 0.034026094
0.05033228 -0.03458261 0.059327602 -0.00431321 0.046535432 0.05777734 0.036210295 0.026023954
0.037789453 -0.039733317 0.0135706365 0.047496878 0.047385655 -0.03723445 0.035647452 -0.010005971
0.057455726 -0.020897975 -0.029252134 -0.0029962293 -0.019620743 0.03656614 -0.012156001 0.042797767
-0.022555083 -0.030449223 -0.0051669986 0.05990765 0.06810809 0.024540313 0.04127718 -0.046208806
-0.03024529 0.064605504 0.04142817 0.039602604 0.059205484 -0.035006512 0.040664557 -0.023313379
0.030012647 -0.024373252 -0.011547446 -0.002872738 0.032023743 -0.016424622 -0.0035598164 -0.029266795
-0.025757551 -0.028606199 0.060739867 -0.009586576 -0.03517756 0.023197623 0.039675705 -0.00929102

decoder.deconv.2.weight f4 [64, 64, 3]
00000000: 3460 67bd b620 b23b e68d debc 1bc3 9a3b
00000010: cadd 7ebb 206a abbc c3ab 0cbd 262b 40bb
00000020: 203c d83b 217f 183d bfcc 6b3b 7632 163c
00000030: 110e 193c 549d 0d3d 7674 fcbc 6f0e 2abd
00000040: b619 843c 853a e7bb caeb 2abd 4b3d 88bd
00000050: d2ce 293d c31a 153d 4eed 8d3d 3815 103d
00000060: dad7 243d 58e5 3a3d 0964 2abd dbb2 363b
00000070: 9a85 643d 6be5 763d 3370 74bc 53d4 993d
00000080: 7dbf 4abd 3d38 7cbd 7c2d 26bd 6abb a63c
00000090: e1a5 2bbc 54cb 923d ffa3 633d ec64 d83b
000000a0: 638b 93bc fa43 ab3d ffd8 4bbd a18c 423d
000000b0: 5a6b 26bd e10e 68bc b792 18bd a62d 1bbd
000000c0: 2f4d 46bc 5a91 b93d c73b 293d d657 ec3c
000000d0: 1f20 883d dd91 8d3c a669 843c 3d5a 1fbc
000000e0: 34d5 693d a83f a53b c35d a23d 3a6f 5f3d
000000f0: f321 16bb 8311 a1bc 3e77 a93c be09 633d
00000100: 7d8b 033d 0bc3 ebbb 42cc c8bc 8eea 233d
00000110: 57b1 823b 0bd7 e2b9 7e2e 2fbd db78 22bc
00000120: 00b6 b4bc 352b 793d 7af2 bdbc 20ea 883d
00000130: 9bcf a83b 34cb dcbc 7130 fcbc 19a1 953b
00000140: e7ae 0d3d ccb0 303c 8659 983b 026b 5abc
00000150: a6a0 cc3b a67b 3abb ecfb 61bd cc88 0d3d
00000160: 05fb f23c 008a 7cbc 4747 a5bc b1eb 893c
00000170: 64d7 33bd c41c 153d 311e 6f3d cc58 753b
00000180: 0fbe ccbc 0368 fdbc 2593 423c fb4d 8dbd
00000190: f15d 04bd 3b28 533d 9895 113d 6279 92bb
000001a0: b8f9 ab3c 327b 343b 295c 303d 33cd bf3c
000001b0: 7f4d 763d 2947 a6bb d443 aabb 4386 72bc
000001c0: c815 b83d e45e b5bc 80e7 1d3d 1eb4 30bd
000001d0: 4b67 09bd 15bb 41bd da0f 1cbd 7037 283d
000001e0: 62cf 20bb 838e f83c 76c6 6c3d 9066 55bd
000001f0: 1756 303c 2b61 173b 3576 80bb 1655 2bbc
00000200: 71c1 dd3b 4b35 3f3b 9643 e13c 4a38 583c
00000210: a292 3a3d 786b 893d 447f 983d 20b2 8e3c
00000220: eb57 e03c 0eac 13bd 2e90 33bd b8ac 3e3d
00000230: d97b 9f3d 0b8c 54bd 079f 8f3d cd0b 263d
00000240: 10e2 4cbd fc96 f5bc 4d4c a03d 7ad1 eb3a
00000250: a155 243d 9abd 923d bf9c 103c 4750 ec3c
00000260: 4bae 5e3d a834 a73d e68f 64bd 7eae 4dbd
00000270: a320 593d c267 34bc 102c 793c bea9 8ebd
00000280: 0f56 783d 20b0 2d3d 16b9 723d 09e0 8c3d
00000290: 6617 2fbc 235c 113d ae50 02bd 17bf 043c
000002a0: 9c72 d03c 802c 31bd a652 603c 6522 933d
000002b0: 13f8 12bd 1320 67bd 70b6 ac3c 7769 8b3d
000002c0: aaf4 aabc c3bc 20bd 372a dfbc 5841 c1bc
000002d0: d424 8c3d 7065 073c ef46 8dbd 05c9 39bc
000002e0: 6be9 483c 0e76 3e3a 9989 ae3c bc45 bd3d
000002f0: 6a09 b53d 60d7 a13b 0e5c 673d f46b 9fbb
00000300: a3ed 40bd 6269 f93b ee9b 243b 8722 753d
00000310: 79b8 3f3d 4047 00bc b29e 44bd 8dcf 26bd
00000320: 5ad8 a03c bdf6 403d ff50 423d 38df b3bc
00000330: 4850 89bd bca1 2c3d 24f9 503d 2277 b43c
00000340: 6e3e 783d c5ca 42bd 8b84 12bd 0239 abba
00000350: b7f3 18bc aa46 d93c 58da 44bc dabf f13c
00000360: f97e bf3c 1776 ebbc 533a 753d f3f1 423d
00000370: acab 31bd 10e7 133c d21d 6e3d 3599 a6bc
00000380: c638 8ebc f927 0abc 188f 56bd 5e78 4bbd
00000390: 9268 5fbc 4f84 14bd 45c1 57bd 0ed1 4b3d
000003a0: cc26 5fbd 347f 6bbb 5793 16bd 1faf e9bc
000003b0: dd2a 13bd 08d1 7f3d efe0 e7bc cd15 39bd
000003c0: d241 013d fe9a 273d 79d3 313d 4b5e cfbc
000003d0: 662d 4ebd 6ed3 75bc 17c7 0fbc f1c1 babc
000003e0: 003d e43b 8923 653d c46c 18bd d675 cf3c
000003f0: 25a3 8a3c 456c 07bd b072 723d 4aca e13b
-0.05648823 0.0054360284 -0.027167272 0.0047229654 -0.003888952 -0.020924628 -0.034343492 -0.0029322593
0.0065989643 0.037230615 0.0035980192 0.009167304 0.009341733 0.034573868 -0.030817252 -0.04151767
0.016125541 -0.0070565366 -0.041728772 -0.06652316 0.041457005 0.036402475 0.06930028 0.035176486
0.040244915 0.045628875 -0.041599307 0.0027877602 0.055791475 0.060277384 -0.0149193285 0.07511201
-0.049499024 -0.06157707 -0.04057072 0.020353038 -0.01047656 0.07167688 0.05557632 0.0066038277
-0.0180108 0.08362575 -0.04976749 0.047497395 -0.040629722 -0.014163704 -0.037249293 -0.03788533
-0.012103363 0.09060927 0.041316774 0.028850477 0.066467516 0.017281467 0.016163658 -0.009726104
0.057088092 0.005042989 0.0792804 0.054549433 -0.002290842 -0.01966167 0.020686742 0.055429213
0.03211545 -0.007194882 -0.02451146 0.04001861 0.0039884257 -0.000432663 -0.042768948 -0.0099165095
-0.02205944 0.06083222 -0.02318691 0.06685281 0.0051517016 -0.026952364 -0.030784817 0.0045663235
0.034590628 0.010784339 0.004649344 -0.013331177 0.0062447367 -0.0028455048 -0.055171892 0.034554288
0.029660711 -0.015413761 -0.02017559 0.01683602 -0.043906584 0.036404386 0.058378402 0.003743696
-0.02499297 -0.030933386 0.011875902 -0.06899639 -0.032316152 0.05155204 0.035543054 -0.0044700364
0.020993099 0.002753925 0.04305664 0.023413276 0.0601325 -0.005074401 -0.005196074 -0.014802518
0.089885294 -0.022139974 0.038550854 -0.043140523 -0.033545773 -0.047297556 -0.038101055 0.041068494
-0.0024537672 0.030341392 0.057806455 -0.052099764 0.010762713 0.0023098688 -0.0039203414 -0.010457298
0.006767445 0.0029176052 0.027498048 0.013197014 0.045549996 0.06709951 0.07446149 0.017418921
0.027385673 -0.036052756 -0.043838672 0.046551436 0.07787294 -0.051891368 0.07012754 0.040538598
-0.050020278 -0.029979222 0.07827053 0.0017991506 0.040120725 0.0716507 0.008826434 0.028846873
0.054365437 0.0816434 -0.055801295 -0.050215237 0.05300964 -0.011011066 0.015208259 -0.069659695
0.060628947 0.042404294 0.059258543 0.06878669 -0.010686731 0.03548826 -0.031815223 0.0081022
0.025445275 -0.04325533 0.01369158 0.071842946 -0.035881113 -0.056427073 0.021083087 0.06807225
-0.020868618 -0.039242517 -0.02724181 -0.023590729 0.06842962 0.008263931 -0.06898295 -0.011339431
0.012262682 0.00072655163 0.021305846 0.092418164 0.08839686 0.004939005 0.056484275 -0.004865164
-0.047101628 0.0076114396 0.0025117355 0.05984738 0.046806786 -0.007829487 -0.048002906 -0.04072528
0.019634414 0.047110308 0.047440525 -0.021957025 -0.067047656 0.04214643 0.05101885 0.022029463
0.060606413 -0.047556657 -0.035770934 -0.0013063254 -0.00933545 0.026522953 -0.012014948 0.029510427
0.023375975 -0.028742833 0.059870075 0.047594022 -0.04337661 0.009027258 0.058133908 -0.020336727
-0.017361056 -0.008432382 -0.05238256 -0.049675338 -0.013635771 -0.03625899 -0.05267455 0.049759917
-0.05448036 -0.0035933973 -0.036761608 -0.028525887 -0.03592955 0.062455207 -0.028305499 -0.045186806
0.03155691 0.040919296 0.043414567 -0.025313517 -0.050336264 -0.015004022 -0.008775494 -0.022797557
0.0069652796 0.055942092 -0.037213102 0.025324743 0.016923496 -0.03306224 0.059191406 0.00689057

decoder.deconv.2.bias f4 [64]
00000000: 20c6 f43c 18aa 24bd 6500 f83b 8b15 74ba
00000010: 99dd 593d 2438 033d c083 a83d 3d36 5bbd
00000020: d4f9 693d dc13 50bd f36d e3bc 49b8 853c
00000030: 28aa 8abd 67fb 9cbc 8e71 cf3c cd43 10bd
00000040: e01f 973c 5d00 8bbc 5f2a 8e3d 124e 903d
00000050: e8d3 84bd f671 a0bc c24a 30bd 07bc 4bbd
00000060: 968a 26bc f674 4ebd 1b5e 423d 6969 023d
00000070: 103a 05bd bffb d83a 3fad 8c3c c17c 66bd
00000080: 0c5d 8b3d 6449 80bd 4098 2abd 0c2f 2b3d
00000090: 50cc 66bd 5b23 88bd 0593 18bc 9d9f 0dbd
000000a0: f798 c6bb 608d 39bd 119f 8b3c 5e40 593d
000000b0: 005d fc3c c3d7 763d 87b1 91bd 16a8 9c3c
000000c0: 44bd 40bc a300 373d fe8d 85bd fe2a 2bbc
000000d0: e250 013c 33f7 313d 7e05 3fbc aed6 993d
000000e0: b001 0ebc 2d7d 96bc be10 b23d 80f7 a03d
000000f0: 984e 8dbd 90ba 08bd 2ee0 943d ece4 753d
0.02987963 -0.040201277 0.0075684064 -0.00093110715 0.053189848 0.03203596 0.08228254 -0.053518523
0.05712302 -0.05080019 -0.027762389 0.016323226 -0.06770736 -0.019162847 0.025322702 -0.03522091
0.018447816 -0.016967947 0.069416754 0.07046141 -0.064857304 -0.01958559 -0.043040045 -0.049739864
-0.010164877 -0.05040451 0.047453027 0.03183881 -0.032526076 0.0016554518 0.017172454 -0.05627132
0.06804857 -0.06263998 -0.041649103 0.041792914 -0.05634719 -0.066473685 -0.009312396 -0.034576047
-0.0060607153 -0.04530084 0.017043622 0.0530399 0.030806065 0.06026436 -0.07113939 0.019123118
-0.011763874 0.04467834 -0.065212235 -0.010447262 0.007892819 0.04344864 -0.011659024 0.0751165
-0.0086673945 -0.018370235 0.086945996 0.07859707 -0.06899756 -0.033381045 0.072693214 0.06003277
