model/vqvae/num_embedding_32_commitment_cost_0.25.pt (torch, 269785 bytes, 17 tensors)

encoder.conv.0.weight f4 [64, 5, 5]
000000 ed 94 d3 bd cd d6 f2 bd 3b e2 87 3c a6 b5 42 be
       -0.1033114 -0.11857376 0.016587367 -0.19014606
000010 ff 04 ea bd ca 77 21 be 53 a0 30 bd 88 fa a9 3c
       -0.11426734 -0.15768352 -0.043121647 0.020749345
000020 e8 65 97 bd 17 62 46 be a0 7f 87 bd 33 70 c3 3d
       -0.07392484 -0.19373356 -0.066161394 0.09542885
000030 d8 6c 0f 3e 85 21 7c 3d 9e ca 75 bd e3 50 de bd
       0.14006364 0.061555404 -0.060007684 -0.10855272
000040 10 b6 d0 bd 85 31 35 be 11 fa 02 3e 6c a5 51 3e
       -0.10190976 -0.17694671 0.12790705 0.2047326
000050 03 13 ce bd c0 ef ef 3d 63 7e 35 3e 99 97 07 3e
       -0.1006222 0.117156506 0.17723994 0.13241424
000060 c5 af fc 3c 1b e0 08 3e 70 a2 0f 3e 82 3a 9a bd
       0.030845532 0.1336674 0.14026809 -0.07530691
000070 6d 7a 28 3e 0b 17 76 bd 8b 95 34 be dd fd 2f be
       0.16452952 -0.06008057 -0.17635171 -0.17186685
000080 a7 cb 35 3e f4 f2 c4 3d 1f 2c 4e bc 7f f2 88 3d
       0.17753468 0.09616652 -0.0125837615 0.066868775
000090 ec f5 bc bd f7 4f 41 be 79 ad f5 3d b4 25 91 3d
       -0.092265934 -0.1887816 0.11995978 0.070872694
0000a0 07 12 19 be b5 37 41 be d1 30 18 bd a3 af 2a be
       -0.14948283 -0.18868907 -0.03715593 -0.16668563
0000b0 1a 44 c7 3d 01 2f da bd d7 10 70 3d f9 89 52 bd
       0.09729786 -0.106534965 0.05860981 -0.051401112
0000c0 a7 82 29 3d 38 df 41 be 00 75 91 bd 13 2d c3 bd
       0.041384365 -0.18932807 -0.07102394 -0.095300816
0000d0 ed 48 d7 3d f7 73 b3 bd 50 97 ee 3d 3a 36 0b bd
       0.10511956 -0.08762353 0.11649954 -0.03398726
0000e0 b7 8f e4 bd c3 55 9c bd 0a 8c 31 be c0 29 14 bd
       -0.11160224 -0.07633545 -0.17338577 -0.03617263
0000f0 d0 1e 1c be d7 51 99 bd a7 21 cb 3d 10 15 d0 3d
       -0.15246129 -0.07486313 0.09918528 0.10160267
000100 ed 87 3e be 13 d1 8f 3d 33 f7 0d bb fd c8 e1 bd
       -0.18606539 0.070222996 -0.0021662235 -0.110246636
000110 e2 ad 0f be 9a dc cd 3b 9a 8a 4c 3c 97 84 0e 3e
       -0.14031175 0.0062824013 0.012484217 0.13917767
000120 cd c7 d0 3d 3a 93 64 bd 90 b3 86 bd bc 78 58 bc
       0.10194359 -0.05580447 -0.065772176 -0.013212379
000130 0e 0e 62 3c 3f dd d5 3d fa 1b 44 bd c1 9d 7d bc
       0.013797296 0.1044259 -0.047878243 -0.015479506
000140 2e d6 db bd 1d e8 9d bd 03 a6 40 3e a8 f7 34 bd
       -0.10734211 -0.07710288 0.18813328 -0.044181496
000150 50 6a 91 3d c3 6e 02 bb 73 9d 0c bd b1 07 ea bd
       0.071003556 -0.0019902445 -0.034329843 -0.11427248
000160 d3 7c 0d 3e 6c 1d 41 be b5 75 15 bd 19 92 c3 3d
       0.13817148 -0.1885888 -0.036489207 0.0954935
000170 01 67 50 be e8 45 7b 3d f3 9a c3 bd 0b 43 da 3d
       -0.20351793 0.061345965 -0.095510386 0.10657319
000180 3c 09 ca 3d b7 0a 09 3e ed d5 22 3c be 2e 1a bd
       0.098650426 0.13382994 0.009938699 -0.037642233
000190 0f 4f 1e 3e 2c 6c 62 3d 0d 07 04 3e c6 4b 2e 3b
       0.15459846 0.055278942 0.12893315 0.0026595457
0001a0 f1 50 bb bd 5c 0e e4 bc cb a2 0c 3d c7 6d 18 be
       -0.09146298 -0.027838878 0.03433494 -0.14885627
0001b0 55 4b e6 bd 11 80 ac bd 9d 95 ca bc c4 5e 42 3d
       -0.11244837 -0.08422864 -0.024729544 0.047453657
0001c0 13 86 23 3d 3c a2 8a bd 4c 24 b1 3d 64 f6 ef bd
       0.039922785 -0.06769225 0.08649501 -0.11716917
0001d0 60 c0 af 3d 38 af 22 3e 87 4c a7 bd dc 6d 5a bd
       0.085816145 0.15887153 -0.08168893 -0.053327426
0001e0 93 fa 15 3e 1f fd f7 bd db 97 2a bd db 92 36 3e
       0.14646368 -0.12108826 -0.041648727 0.17829458
0001f0 a5 6d e0 bd 96 0d 4a 3e 89 8c 3f 3d b4 90 09 bd
       -0.10958413 0.19731745 0.046764884 -0.033585265
000200 02 4b 61 3d 27 b3 3f 3e 77 c3 e5 3d 12 49 09 3e
       0.055003174 0.18720685 0.112189226 0.1340678
000210 21 19 35 be 38 78 e9 bd 4f 28 23 be 84 a9 07 be
       -0.17685367 -0.11399883 -0.15933345 -0.13248259
000220 03 f3 4c be e1 30 34 3e 9d b9 29 be 94 bf 47 3e
       -0.20014577 0.17596771 -0.16574712 0.19506675
000230 e6 bd 2e bc b2 51 09 3e 4c a9 34 bc 31 41 1d 3d
       -0.0106653925 0.1341007 -0.011026692 0.03839225
000240 1f 0b 20 be 60 7f fd bc 30 54 d4 3d 13 7e 0e bd
       -0.15629242 -0.030944526 0.1036762 -0.034788202
000250 f0 ae 1d bd ec 2e 06 3d 62 db a9 3c 14 98 c2 3d
       -0.03849691 0.032759592 0.020734493 0.09501663
000260 d0 0d c8 bc ec 05 35 bd 51 2d 51 be cc a1 bf 3d
       -0.024420649 -0.0441951 -0.20427443 0.09357032
000270 35 e6 05 be 22 41 83 bb 9d fc 13 be f8 78 39 3e
       -0.13076098 -0.004005567 -0.14451833 0.18112552
000280 b7 5d 86 bd 35 01 1d 3e 85 92 94 3d 39 13 35 be
       -0.065608434 0.15332492 0.07254509 -0.17683114
000290 34 d1 3c bd a6 9d aa bd b2 11 17 3c 15 ee 2b 3c
       -0.04609795 -0.0833085 0.0092205275 0.010493775
0002a0 6e 35 47 be 61 7c a2 bb 9e 89 23 bd 44 5d 2c 3e
       -0.19453976 -0.004958675 -0.039926164 0.16832453
0002b0 72 02 ff 3d 83 32 19 3d 89 62 54 be 77 cd 8f 3d
       0.12451638 0.037401687 -0.20740713 0.07021611
0002c0 57 03 df bd 85 df 5f 3d 94 81 5f bd bc 2b 84 3d
       -0.10889309 0.054656524 -0.054566935 0.06453654
0002d0 49 50 4c be 54 f7 2d be 64 6b 77 3d 2b cf 1c bc
       -0.19952501 -0.1698888 0.06040515 -0.009570877
0002e0 86 4a 3f be 8f d5 d2 bc b8 47 30 3a c0 94 c9 bd
       -0.18680772 -0.025736598 0.0006724554 -0.09842825
0002f0 39 87 43 3e c1 8b 1e 3e 83 e4 41 bd 32 58 27 be
       0.19094552 0.15483 -0.047337066 -0.16342238
000300 49 a4 be bd 89 f3 48 3d e3 60 f1 bd 3a 72 80 3d
       -0.09308679 0.04906038 -0.11786058 0.06271787
000310 57 60 fc 3d ef 46 b0 bd cb 4e 26 3e fb da c8 3c
       0.12323063 -0.086072795 0.16240995 0.02451848
000320 cb d9 45 3e e7 a1 00 3e 4e 04 40 bd ba 03 2a be
       0.19321363 0.12561761 -0.046879105 -0.16602984
000330 16 b2 40 3e 24 a5 a8 3d 78 a2 26 be 07 94 f3 3d
       0.18817934 0.08234623 -0.16272914 0.11893468
000340 ad 9e 23 3e 7b 3d d4 3d af 74 3f 3e 8f 42 09 3e
       0.15978499 0.10363289 0.18696855 0.13404296
000350 76 9e 3f 3e a8 da 4d bc de ed 30 3e ad e6 02 be
       0.18712792 -0.012564339 0.17278239 -0.12783308
000360 4d 5f e2 3d 98 f1 dc bd f5 35 e2 bc 0e e7 4f be
       0.110533334 -0.10788268 -0.02761362 -0.20302984
000370 3c c2 12 be 0a e0 41 bd 2a 0d 17 3e 3a 0d 3b 3e
       -0.14331907 -0.0473328 0.14751115 0.18266764
000380 c2 09 a4 bd 7d a7 38 3e 13 d6 32 3e 4d 54 89 bd
       -0.08009674 0.18032642 0.17464475 -0.06705532
000390 2f 08 da 3c 03 a5 47 bd ad 84 56 bd e9 f4 44 3d
       0.02661523 -0.04874135 -0.052372623 0.048085127
0003a0 b0 32 42 3d 6e 72 0b be 55 26 7a bc 70 98 19 3d
       0.04741162 -0.1361787 -0.015267928 0.03749889
0003b0 41 e8 ae 3d 7e 98 aa bd f3 52 00 3e 87 2d 48 be
       0.08540393 -0.08329867 0.12531643 -0.19548617
0003c0 98 5b ea bd 3d d3 41 be ff 55 03 3e b4 26 d8 3d
       -0.11443251 -0.18928237 0.12825774 0.10554257
0003d0 ed e8 d7 bd 77 b8 e6 3d da 5c 99 bd 00 39 fe 3d
       -0.10542474 0.112656526 -0.07488413 0.12413216
0003e0 96 64 4e be 84 9f eb 3c 79 69 aa bd a4 7d 11 3e
       -0.20155558 0.028762586 -0.083208986 0.14208084
0003f0 90 a1 09 bd ea aa 08 3e 46 a0 31 3e 19 35 2a be
       -0.033601344 0.13346449 0.17346296 -0.16621818

encoder.conv.0.bias f4 [64]
000000 36 f2 15 be cc ec 3e 3e 13 be 39 be b6 54 16 3e
       -0.14643177 0.18645018 -0.18138914 0.14680752
000010 be de af 3c 52 14 23 3e 6a 37 95 bd fa c5 a0 b9
       0.021468516 0.1592572 -0.0728596 -0.00030665082
000020 0b b2 95 bd e2 29 18 3d d0 46 2c 3e f2 93 ab bd
       -0.073093496 0.037149318 0.16823888 -0.08377828
000030 06 10 8b 3b 30 2e 04 bd 86 10 05 3e d6 9e 2b bd
       0.0042438535 -0.03227061 0.12994584 -0.041899525
000040 07 da 41 3d 67 34 bd bc 01 69 e6 bc 69 ad 3a 3e
       0.047327068 -0.023096276 -0.028126242 0.18230213
000050 71 50 07 be 71 65 2d 3d 77 4a 59 3d 22 71 08 be
       -0.1321428 0.04233307 0.05304953 -0.13324407
000060 61 1e 29 be 4f bb c9 bd d9 50 0d 3e 21 60 26 3e
       -0.16515495 -0.098501794 0.13800372 0.16247608
000070 86 fd 06 3e 8d bd 1a be ac 3f 9a bd 0e cb 1b 3d
       0.13182649 -0.1511137 -0.07531676 0.038035445
000080 8e a7 da 3d 8c b6 37 bd 93 91 4c be da b6 28 be
       0.1067649 -0.044851825 -0.19977407 -0.16476002
000090 ec 94 bd 3d 2d 01 23 be ab a9 d3 bd 1f de 4b be
       0.0925692 -0.15918417 -0.10335096 -0.19908951
0000a0 5e 3a 99 3d a6 c3 42 3e 47 ae 45 3e f4 f1 4b be
       0.07481836 0.19019946 0.19304763 -0.19916517
0000b0 8d 56 0e be d6 ef 07 3e d8 31 c8 bc 33 2d b2 bc
       -0.13900204 0.13275084 -0.02443783 -0.021750068
0000c0 6b d8 8e bd 6a 90 cd bd 2e 67 d6 bd 3a 58 42 bd
       -0.06974872 -0.100373104 -0.10468899 -0.04744742
0000d0 f7 2d f9 3c b8 0f 13 be f7 e0 20 be c6 d0 41 3e
       0.030417426 -0.14361465 -0.15710817 0.18927297
0000e0 58 3e 25 be 8e f9 15 bd f5 c3 9d ba 8a 43 0d bd
       -0.16137064 -0.036614947 -0.0012036549 -0.03448824
0000f0 b1 cd 0e be 94 9c 01 be ee 50 f5 3c d5 19 fc bc
       -0.13945653 -0.12657386 0.029945817 -0.030774036

encoder.conv.2.weight f4 [64, 64, 5]
000000 f2 2a 4d bd 44 17 36 bd 6b 25 c2 bc 21 57 86 3c
       -0.050089784 -0.04445578 -0.023699483 0.016398968
000010 55 88 b8 bc 7c 44 04 3d 06 1f af 3a 8a e6 07 bc
       -0.022525946 0.032291874 0.0013360686 -0.008294711
000020 cc 86 3b bd 92 c4 a7 bc da c6 fa 3a d3 12 1f bd
       -0.04578285 -0.020479474 0.0019132749 -0.03883631
000030 43 04 4a bd 16 c4 87 3c 84 e8 95 bb 90 60 89 3b
       -0.04932047 0.016572993 -0.004574837 0.0041924194
000040 a3 a2 59 bd 5c fe 98 3c 7b 89 c8 3c 25 84 24 bd
       -0.053133618 0.018675976 0.024479618 -0.040165085
000050 bd 63 51 bd d6 2a 1d 3c 5e 0d af bb 4b a0 0e bc
       -0.05112051 0.009592732 -0.0053421697 -0.008705209
000060 b8 17 45 bd fb ab 43 bd 06 88 d7 bc 19 1b 64 bd
       -0.048118323 -0.047771435 -0.026309978 -0.055689905
000070 26 f7 2c 3d 0f 8e 8c bc e5 c2 44 3d 00 08 32 bd
       0.042227887 -0.017157583 0.04803743 -0.04346466
000080 72 c0 d2 3c 39 a8 d8 3c 52 15 a5 bc d3 68 80 bc
       0.02572653 0.026447402 -0.020151768 -0.015674984
000090 dd 47 d6 3a 40 23 c5 3c a9 a2 c6 bc 80 22 86 3c
       0.0016348321 0.02406466 -0.024247484 0.016373873
0000a0 37 d7 42 3d c3 b6 21 bd 15 7c a9 3c 72 ed 29 3d
       0.047568526 -0.039480936 0.02068905 0.04148621
0000b0 b6 10 ba bb 12 55 03 bb 50 89 3b bd 33 3f d6 3c
       -0.0056782616 -0.002003972 -0.04578525 0.026153183
0000c0 1c 5b 9c bc 10 11 54 bd 21 94 6d bc c9 21 b9 3b
       -0.019086413 -0.051774085 -0.014500649 0.0056497795
0000d0 c8 73 14 bc ff 19 e7 bb 0f dc 71 bd 77 af 80 bd
       -0.0090608075 -0.0070526595 -0.059047755 -0.06283467
0000e0 17 4b ed bc 48 35 0f 3c 30 6d b9 3b b8 9c 3e 3d
       -0.02896647 0.008740731 0.005658768 0.046536177
0000f0 42 f2 21 bc 1f 05 24 bd 80 66 f9 3c 47 c7 28 bd
       -0.009884419 -0.040043946 0.030444384 -0.04120567
000100 bb a6 3c 3d e9 af 62 bd fd 38 cc bc f6 78 4c bd
       0.046057444 -0.055343542 -0.024929518 -0.049920045
000110 fb 6c 54 bd 7f c9 1b bd 6a 83 7b 3c 96 cb f1 3c
       -0.051861744 -0.03803396 0.015351156 0.029516023
000120 50 8f e9 3c 5c 9d 22 bd 5f 60 2a 3c b1 eb af bc
       0.02851072 -0.03970085 0.010398953 -0.021474691
000130 58 ca 5e bb 89 de ba bc 13 53 ea ba dd 4e 64 bd
       -0.0033995118 -0.022811191 -0.0017877541 -0.055739272
000140 6d 31 13 3c 4a 19 c4 3c 34 e3 eb 3c b2 bc 4b 3d
       0.008983952 0.02393784 0.028794862 0.0497405
000150 36 b0 22 3d 18 2b 7e 3c a8 81 4e bd 5a 4d 5c bd
       0.03971883 0.015513204 -0.05041662 -0.053784706
000160 07 e6 b7 3c d6 b0 cb 3b 4c 00 e6 3b 52 74 2d bd
       0.022448553 0.006216149 0.0070190784 -0.04234726
000170 9e 0d 0a bd 80 4d 14 3c 00 b5 37 3d 1a 93 22 bd
       -0.033704393 0.009051681 0.04485035 -0.03969107
000180 8b 49 2d bd 93 2d 27 3d 49 65 7f bd b3 cb 04 bc
       -0.042306464 0.040814947 -0.062352452 -0.008105206
000190 c8 d2 22 3d 00 b1 2b bd 1a cf 84 bc ea be 4a bd
       0.039751798 -0.041916847 -0.016212035 -0.049498476
0001a0 66 7a 5c bd fc bf 0b 3d a1 5d ea bc fc c1 5b bd
       -0.053827666 0.034118637 -0.028609099 -0.053651795
0001b0 a6 3a 10 bb cb 74 31 bd 72 c5 0c 3d 48 d7 12 bd
       -0.0022007613 -0.043324273 0.034367986 -0.03584984
0001c0 5a 52 11 bc 0e 84 55 bc 54 4f 06 bd f3 3f 1d bd
       -0.008869732 -0.013031973 -0.032790497 -0.038391065
0001d0 64 51 93 bc 04 71 80 bd 74 94 0d 3d 1c d2 2a 3d
       -0.017983146 -0.06271556 0.034565404 0.041704282
0001e0 85 bd 67 bd 24 65 a6 3c 39 9a cb 3c f5 a1 90 3c
       -0.056577224 0.0203119 0.024853813 0.017655352
0001f0 bb 50 14 bb 00 4b 02 bd d6 b6 26 bd 82 0f 3f 3d
       -0.0022631127 -0.031809807 -0.04070171 0.04664565
000200 1a f6 95 3c a5 0c 4b bd b0 7b 35 bd 48 07 3c bd
       0.018305827 -0.049572606 -0.04430741 -0.04590538
000210 ef 23 03 3c b1 36 de bc f9 e9 39 bd 72 2d 89 bc
       0.008004173 -0.027125688 -0.04538915 -0.016745303
000220 68 79 13 3d 5a 23 c8 bc df a4 d2 bc f7 58 2f bd
       0.036004454 -0.02443092 -0.025713382 -0.042809453
000230 d4 7e 2c 3d 66 95 37 3d 7c b7 e2 3c 45 31 21 bd
       0.04211314 0.04482021 0.027675383 -0.039353628
000240 02 22 57 bc b3 49 5c 3d f2 e5 16 3d 6c 80 b8 bc
       -0.013130667 0.053781223 0.036840387 -0.022522174
000250 60 67 4e bc 16 7a 0f bd 27 41 94 bc a8 88 cf ba
       -0.012597889 -0.03502854 -0.018097473 -0.0015833573
000260 62 ab 46 3c f8 07 ae 3c de e3 e6 3c 59 8e 37 3d
       0.012125822 0.021244034 0.028184827 0.044813488
000270 ed 0c d7 bc 09 02 30 bc c6 7f 23 3c 2b 85 1a 3d
       -0.02625128 -0.010742673 0.009979194 0.037724655
000280 1e 45 74 bd 33 e0 d3 bc 7d 4a f3 bc 90 e2 03 bd
       -0.059636228 -0.025863742 -0.029698605 -0.03219849
000290 c7 8e 48 3b 68 22 4d 3d 81 41 27 bc 71 ea 83 3c
       0.003060268 0.05008164 -0.010208488 0.016103001
0002a0 14 19 0d bd ec a5 9a bc af cd e7 bc b6 16 f2 3a
       -0.034447744 -0.018877946 -0.02829632 0.0018469903
0002b0 a6 fe 16 bd d9 a8 53 bc 22 be 32 3d f6 46 29 3d
       -0.036863945 -0.012918674 0.043638356 0.04132744
0002c0 d3 63 fa bc 6a e7 87 bc 4e 6c c3 bc 3f ea 35 bd
       -0.030565178 -0.016589839 -0.023855355 -0.044412848
0002d0 47 6d 4b 3d 9b ff e5 3c 7b c7 4a bc 3d 7f ef 3c
       0.049664762 0.028075984 -0.012376661 0.029235477
0002e0 89 d3 1a bc 0f ec 2c 3d 7d b7 00 bd ee cd ec bc
       -0.009449848 0.04221731 -0.031424988 -0.028906789
0002f0 b3 e8 67 bd 14 82 31 3c ae 27 f9 3c cf cd c1 3c
       -0.056618404 0.010834236 0.030414429 0.023657707
000300 ac 34 51 3c dd 4b 7e bc 73 0b e2 bc b0 8c 52 bd
       0.012768906 -0.015521017 -0.02759335 -0.0514037
000310 0a 49 e9 bc 87 78 a9 bc d5 66 c8 3c 61 fa 43 bd
       -0.02847721 -0.020687355 0.024463097 -0.0478462
000320 fb f9 2d bd f8 e6 16 3c 90 ca 46 bd c8 cb ba 3c
       -0.042474728 0.009210341 -0.048533022 0.022802249
000330 ba ab 3d 3a e0 4a 8f bc dd 9e d9 bc f8 af 8b 3c
       0.0007235367 -0.017491758 -0.02656501 0.017051682
000340 8c 55 68 3b 14 72 95 ba f8 92 11 3d 47 5b c9 3c
       0.003545138 -0.0011401796 0.03554055 0.024579657
000350 d4 a5 16 bc 24 98 ce 3b e9 4b 1d bd 61 d4 6d 3c
       -0.00919481 0.0063047577 -0.03840247 0.014515967
000360 4b ff 19 bd a0 65 3b 3c 80 16 36 3d b8 c0 ee 3c
       -0.037596982 0.0114378035 0.04445505 0.02914463
000370 d4 f9 d3 bc 60 88 43 bd c3 83 e8 bb 0f c3 52 bc
       -0.025875963 -0.04773748 -0.0070957853 -0.012863888
000380 6b 4d c8 3b bb ca 73 bd 82 2e 0c bd c2 a3 42 bd
       0.0061127446 -0.05951951 -0.03422404 -0.047519453
000390 f0 08 48 3b b8 e2 9b bb ea e0 44 3c eb f5 0f bd
       0.0030522905 -0.0047572516 0.012016514 -0.035146635
0003a0 79 b5 84 bb b5 2a 3c 3d 81 69 dc 3b 9b b7 bc bc
       -0.0040499535 0.045939166 0.0067264442 -0.023036769
0003b0 c8 76 d8 bc c9 ec dd 3b 28 f0 1b 3c 7f 96 1d 3c
       -0.026423827 0.0067726118 0.009517707 0.009618401
0003c0 36 dc 1a bc 88 85 28 3d d3 ef 17 bc 22 d7 15 bd
       -0.009451916 0.04114297 -0.009273487 -0.03658212
0003d0 56 77 33 3b f7 44 e0 bc cb 95 c6 bb 67 0e 76 bd
       0.0027384362 -0.027376635 -0.006060337 -0.06007233
0003e0 c2 0d 20 3d 0d a0 02 3b 61 25 69 bd f9 77 2d bd
       0.03907562 0.0019931823 -0.056920413 -0.042350743
0003f0 c3 3b 43 3d 03 90 9e 3b 02 e2 62 bd d5 d9 29 bc
       0.047664415 0.004838945 -0.05539132 -0.010366877

encoder.conv.2.bias f4 [64]
000000 29 6d a3 3b cd 6a 0b bc 34 4c b3 bb e8 6f a8 3c
       0.004987378 -0.00850935 -0.0054717306 0.020561174
000010 08 f6 93 3b d2 ba 0e 3a 42 f0 24 bd da df 2d bd
       0.004515413 0.00054447085 -0.04026819 -0.04244981
000020 89 63 f8 3c 08 86 33 bd de ac 0a bc 50 8d dc bc
       0.0303209 -0.043828994 -0.008464066 -0.026922852
000030 2c 7c 10 3c 9d 5e f7 3c 8e 86 13 bd 7e 8a 48 bd
       0.008818667 0.030196482 -0.036016993 -0.0489602
000040 81 0b 74 bc 8b 04 88 bc b3 6c 2d bd 45 09 84 3a
       -0.014895321 -0.016603729 -0.04233999 0.0010073563
000050 a7 b0 63 3c c7 2d 1c 3d 02 db 06 bc 1b c6 2a bc
       0.013897098 0.038129594 -0.0082309265 -0.010423209
000060 f4 6e b2 3c 62 fa 15 bd 73 19 02 3d f3 58 3f bd
       0.021781422 -0.036615737 0.03176255 -0.046715688
000070 e8 90 82 3c 3a b5 ae 3c a5 0b 62 bc 55 47 3b 3d
       0.015938237 0.02132665 -0.013796722 0.045722324
000080 e2 f2 7e 3c db 15 de 3c 02 6c 63 bd 4b 51 cf bb
       0.015560837 0.02711003 -0.055522926 -0.0063268295
000090 2b 98 a9 bc f1 65 3d bc fc 60 4f bd 4e d9 3c 3d
       -0.020702442 -0.011559949 -0.0506296 0.046105675
0000a0 8d d4 0f bc c4 bd 3d bd 0e fe 8d 3c 9b 38 1b 3c
       -0.008778703 -0.046323553 0.017333057 0.009473945
0000b0 4a 6a 6c bd 6d a0 9c bc 2b dd 6b 3c 53 1a 1c bd
       -0.057718553 -0.019119466 0.014395992 -0.038111042
0000c0 a2 93 86 bc bc 38 a4 3c af aa d6 bb c8 38 fe 3c
       -0.016427819 0.020046584 -0.006551109 0.031032935
0000d0 5a c0 71 ba d0 f9 3f bc 90 26 1a bd a0 9e 45 3d
       -0.0009222083 -0.011717275 -0.037634432 0.04824698
0000e0 43 de 1e bd db 15 e7 bc 4d f2 0a bd 6e 78 3d bd
       -0.038786184 -0.028208664 -0.033922482 -0.04625743
0000f0 c4 8c 25 bd 6c a6 84 bc e3 45 51 3c fc 57 47 3d
       -0.040417448 -0.016192637 0.01277301 0.048667893

encoder.conv.4.weight f4 [8, 64, 3]
000000 f0 a0 f0 3c e4 78 3c 3d 54 27 eb 3c a9 1a 04 bd
       0.029373616 0.046013728 0.028705277 -0.032251988
000010 8b 81 00 bd ad e5 7a bc b4 de 3f 3d d8 d6 48 bd
       -0.03137354 -0.015313548 0.046843246 -0.049033016
000020 96 3a 86 bd 75 0b a7 3c ad fc 47 bd 7a 4b 65 3d
       -0.06554143 0.020391205 -0.048824955 0.055980183
000030 2f 76 93 3d 5a db 2c 3d 14 66 8d bc ad 5e 89 bd
       0.07200276 0.042201377 -0.017260589 -0.06707511
000040 c8 20 44 bd 94 56 ca bc f4 38 8e bb 3f fe 92 39
       -0.047882825 -0.024699487 -0.0043402854 0.00028036718
000050 b7 06 4c 3d 1d a8 54 bd dc 1e 32 3d 9e 1c 8d 3d
       0.04981109 -0.051918138 0.04348646 0.06890224
000060 cb 69 98 bd 48 71 65 bc 73 0c a9 bb 5e db 96 bd
       -0.074420534 -0.014004059 -0.0051589548 -0.0736606
000070 a6 18 77 bc 34 99 83 bd 92 b4 44 3b 4e 76 b8 bb
       -0.01508156 -0.064257056 0.0030014855 -0.0056293374
000080 24 88 f3 3b 03 05 f8 bb 3b b7 36 3d 9f 7c 87 bd
       0.0074320007 -0.007568957 0.044608336 -0.066155665
000090 64 35 9b 3c 23 d7 2d bd a7 3a cf bc db ab be bc
       0.018946357 -0.0424415 -0.025296522 -0.023275306
0000a0 0d 6d 4e bd cb b2 b7 bb 1f b9 43 3d bb e2 ad ba
       -0.050396968 -0.0056060306 0.047783967 -0.0013266423
0000b0 ef 61 51 bd 40 d4 1c 3c 4a 7e c3 3c ef 3c 99 bc
       -0.051118787 0.009572089 0.02386393 -0.018705813
0000c0 38 ca 5e bd ea 16 7f 3d 88 bb d0 3b b4 90 63 3d
       -0.05439207 0.062277712 0.0063700117 0.05555792
0000d0 a9 29 c2 3c fe b1 64 3b 21 11 21 bd 5f 6c 2c 3d
       0.023701506 0.003489613 -0.039322976 0.04209554
0000e0 17 f4 11 3d 62 d3 f6 3c 82 90 55 bb 79 f8 8d 3c
       0.035633173 0.030130092 -0.0032587354 0.017330395
0000f0 5e a0 3c 3d 7b f3 e9 3b e3 cf ce 3c 40 68 7a 3d
       0.046051376 0.007139621 0.025245612 0.061134577
000100 01 79 db bc b3 b3 71 3d 07 38 86 3d 4b ad a6 3c
       -0.026791098 0.059009265 0.06553655 0.020346304
000110 6b 26 05 bd f0 83 3e 3d 6a e0 6e bd ce 6a 59 3d
       -0.03250734 0.046512544 -0.058319487 0.053080373
000120 8e 17 2f 3b 3d ca 1e 3c fc 5d ee bb f9 04 6a 3d
       0.002671692 0.009691772 -0.0072743874 0.05713365
000130 97 64 db bc da 8b 0b bd 81 3a 8c bd 03 e4 85 bd
       -0.026781363 -0.03406892 -0.06847096 -0.065376304
000140 b5 1b de bc a8 ce b7 3c 7e f1 20 bd 0c 1d 8b 3c
       -0.027112821 0.022437409 -0.039292805 0.016981624
000150 35 70 83 bd 10 b4 59 bd 97 60 25 bc f2 18 d9 bc
       -0.06417886 -0.053150237 -0.01009383 -0.026501153
000160 0a 9a a4 bc 17 f6 41 bb 46 dc 91 bb 66 e1 2e 3d
       -0.020092983 -0.0029596144 -0.0044513075 0.042695425
000170 36 48 1f bd 06 15 e6 3a 68 5f 43 3d 82 a7 0c 3d
       -0.038887225 0.0017553873 0.04769841 0.034339435
000180 25 26 6f 3d dc d4 2f bd 31 56 32 bc ae 60 a8 3b
       0.058385987 -0.042927608 -0.010884807 0.0051384782
000190 f8 4a 57 bd 33 59 53 3d ec 82 8d bd 57 98 40 bd
       -0.05256173 0.05159874 -0.06909737 -0.047020283
0001a0 df f4 76 bd 72 12 d9 bc d0 ed 8e bd 9e 7a 8d bd
       -0.06029212 -0.026498053 -0.06978953 -0.06908153
0001b0 90 99 50 3d af 2a 7f 3d 6b 69 8d bd db af 1f 3d
       0.0509277 0.062296566 -0.069048725 0.03898607
0001c0 42 9f c1 bc 2f 57 e5 bc 88 d0 71 bc 62 84 05 3c
       -0.02363551 -0.027995674 -0.01475919 0.008149238
0001d0 ef 97 5d bd 2c 5a a9 bc 6d f5 37 bd 0c 21 16 3a
       -0.054099973 -0.02067288 -0.04491179 0.000572697
0001e0 82 e5 10 bd 64 0a 0d bc 42 24 4b bd ab bf 3c 3d
       -0.035375126 -0.008608434 -0.049595125 0.046081226
0001f0 6f fc 19 bd f4 2f 38 3d 53 4f 4f bc 50 fd e4 bc
       -0.037594255 0.044967607 -0.01265319 -0.02795282
000200 e5 43 85 bd ef 88 8f 3a 7c ba 8a 3d ed af 0d bd
       -0.065070905 0.0010950844 0.0677385 -0.034591604
000210 13 63 82 bd 6c 06 e8 bc 0d a8 ce bc d6 04 06 3d
       -0.06366553 -0.028323375 -0.025226617 0.032719456
000220 b6 9e 15 3d e4 7d 16 3b 5e e1 dc 3b 96 9f 72 bd
       0.03652831 0.002296322 0.006740733 -0.059234224
000230 b3 28 b3 3c e0 6b 81 3d 77 c0 75 3d cc a2 fe bc
       0.021869993 0.06319404 0.059998002 -0.031083487
000240 d9 bb 16 bd e0 7c 3e bd 62 69 86 bc 6d 13 6f bd
       -0.03680024 -0.04650581 -0.016407672 -0.058368135
000250 37 04 69 3d ac 41 88 3c 42 cc 6f 3d ac de 95 bd
       0.056888785 0.016632877 0.058544405 -0.07317862
000260 4e db f3 3a 35 d7 7b bd 4c 58 34 3c a1 9b 5d 3d
       0.0018604787 -0.061484534 0.01100738 0.054103497
000270 cb 6f 82 3d 16 04 bd bc 2d 9b 76 bd cf 96 69 3d
       0.06368979 -0.023073237 -0.06020658 0.057028588
000280 9f b6 8c 3d dc f6 eb bb cb d1 f1 3a d5 ba 86 3b
       0.0687077 -0.007201059 0.0018449364 0.0041116276
000290 e4 e7 61 3d dd 6a 9a bd 2f a6 ed 3c 33 d3 c6 3c
       0.05515279 -0.07539914 0.029009907 0.02427063
0002a0 2d f4 78 bc f5 2d 39 bd 6b e2 e7 3c db b4 b6 3c
       -0.015194935 -0.045209844 0.028306207 0.022303035
0002b0 6e b4 58 3c c6 67 4d bd 85 2f d6 bc ff 33 81 bd
       0.013226612 -0.050147794 -0.026145706 -0.063087456
0002c0 8d e5 27 3d 51 b3 93 3d 32 7f 95 3c 45 5c 7e 3c
       0.0409904 0.07211936 0.018249128 0.015524928
0002d0 d7 98 94 3c 61 c1 91 3b 83 0e 61 bd 19 e1 85 3b
       0.018139286 0.0044481014 -0.05494548 0.0040856716
0002e0 9c b9 f2 ba 39 b6 04 bd c5 cf 06 3c a2 48 55 bc
       -0.0018518451 -0.032400344 0.008228247 -0.013017805
0002f0 6c a5 38 bd 22 d4 59 3d 21 6b 3b bc 90 e9 81 bd
       -0.045079634 0.05318082 -0.011439116 -0.06343377
000300 6c b1 e2 bc 74 44 6c bc d1 cd 21 bd c9 f9 14 bd
       -0.027672492 -0.014420617 -0.039502922 -0.036371026
000310 d3 ce e3 bc 55 39 49 3d 49 a0 23 3d b6 65 90 3d
       -0.027808582 0.04912694 0.03994778 0.0705065
000320 ff 92 ad bb c1 f1 7d bd 71 49 25 3d f8 a3 95 bd
       -0.0052970643 -0.061998133 0.040353242 -0.07306665
000330 88 70 3e bd f7 1f 08 3d 4c 1d 74 3c 52 85 20 bd
       -0.046494037 0.03323361 0.014899563 -0.039189644
000340 25 63 ca bc 0a bb 96 bc 59 03 28 3c c6 84 29 bb
       -0.024705479 -0.018399734 0.010254704 -0.0025866493
000350 fa 32 d3 bc c1 e9 7d 3d c5 ca ed bc 32 1c 60 bd
       -0.025781143 0.061990503 -0.029027352 -0.05471439
000360 6e 0c f7 3c 90 83 5b bc 70 68 54 3d f8 60 03 3d
       0.030157294 -0.013398066 0.05185741 0.0320749
000370 b3 9e 57 3d eb 24 76 3d 11 9d 6b 3c 5c 54 8d bd
       0.05264158 0.0600938 0.014380709 -0.06900856
000380 70 80 99 bc 6c 94 77 3d bf d9 05 3d 2c f5 3e 3d
       -0.018738002 0.06044428 0.032678362 0.046620533
000390 f0 2b 77 3d 56 44 4c bc 1d b7 71 3d 6d 33 87 bd
       0.060344636 -0.012467464 0.05901252 -0.066016056
0003a0 8f a7 d2 3c 50 f8 38 bd d7 a2 47 bb 68 ad 65 bd
       0.025714664 -0.045158684 -0.003046205 -0.056073576
0003b0 c2 fa 53 3d 29 f5 5b bd 1b a9 69 bd 38 1e 51 bd
       0.051752813 -0.0537006 -0.057046037 -0.05105421
0003c0 a6 fd 2d bd c4 e4 10 bc af 27 18 bc f1 04 e8 3c
       -0.042478226 -0.0088436045 -0.009286805 0.028322669
0003d0 66 14 47 3d 5a 8a eb 3c 38 37 95 bc 7c 3f cb 3c
       0.048603438 0.028752495 -0.018214807 0.024810545
0003e0 fd 21 be bb 91 25 9a 3d de ed 36 3d 11 9c 87 3d
       -0.0058023916 0.075266965 0.04466044 0.06621564
0003f0 85 47 44 3d 4a a7 51 3c 39 b7 86 3c 66 8a 20 bc
       0.04791977 0.0127962325 0.01644479 -0.009798622

encoder.conv.4.bias f4 [8]
000000 19 28 ee bc c4 68 00 3d 98 08 07 bc e6 aa 76 3d
       -0.029071854 0.031349912 -0.008241795 0.060221575
000010 75 d0 96 bd 1a c2 8d bd 8b fb 27 3c b6 65 05 3d
       -0.07363979 -0.069217876 0.010252844 0.032567702

vq.embedding.weight f4 [32, 8]
000000 36 7c c4 bc 36 49 bd bc d8 94 97 3b 30 b4 a8 bc
       -0.02398501 -0.023106199 0.004625898 -0.020593733
000010 58 c0 65 3c a8 e3 f4 bb a0 d3 fd bb 06 ba f8 bc
       0.014022909 -0.007473428 -0.007746175 -0.03036214
000020 b0 e6 7a 3c 5e 46 ba 3c 94 af 5a 3c c4 56 d1 bc
       0.015313789 0.022738632 0.013347525 -0.025554068
000030 62 68 c0 3c dc 5e 15 bc 68 4e d5 3c 58 3c 5f bc
       0.023487274 -0.0091168545 0.026038364 -0.013625227
000040 f0 cf b1 bc 40 f5 bc ba 84 bd 2d 3c 3c 98 8a 3c
       -0.021705598 -0.0014416352 0.010604266 0.016918294
000050 9c 28 9e 3c 8a 4a e4 3c c4 65 8e 3c 3c 8d d6 bc
       0.019306473 0.027867574 0.01738251 -0.026190393
000060 0e 33 d8 bc 52 9c d4 3c fa fe 8f bc 0c e4 48 bc
       -0.026391532 0.025953446 -0.017577637 -0.012261402
000070 30 46 48 3b ca 7a e5 3c 20 0b 67 bc e0 f5 91 bb
       0.0030559413 0.028012652 -0.0141017735 -0.0044543594
000080 4a 2d f1 3c 70 a6 73 bc 50 c9 c6 3c 42 a9 e7 3c
       0.02944054 -0.014871225 0.024265915 0.02827895
000090 4c 61 d4 3c 10 bf d4 bc 0a 40 b8 3c 80 e4 87 bc
       0.025925301 -0.025970012 0.022491474 -0.01658845
0000a0 9c 8b cf 3c 06 ad 86 3c bc 6f 0d 3c 04 90 1c bc
       0.025335126 0.016439926 0.008632597 -0.00955582
0000b0 cc f1 21 bc 64 e6 3a 3c 7c 02 ef bc 3e 10 91 3c
       -0.009884309 0.0114074685 -0.02917599 0.01770794
0000c0 bc 35 ef 3c 88 8e 79 3c 56 c1 89 3c 96 ce ba 3c
       0.029200427 0.015231736 0.016815823 0.022803586
0000d0 d8 66 ef 3c a0 c2 2d 3c 78 b7 91 bb 80 3e 9f bc
       0.029223844 0.010605484 -0.00444692 -0.019438982
0000e0 38 ea 09 3c 5c ba 06 3c d0 36 a7 bb 3a 0e d8 3c
       0.0084176585 0.0082231425 -0.0051029697 0.026373971
0000f0 72 84 ca 3c 56 08 b3 bc 8e e6 d5 bc ae 7c f5 bc
       0.024721358 -0.02185456 -0.026110914 -0.029966678
000100 82 c6 a2 bc 02 50 a0 bc 24 ab 34 bc 74 f0 84 3c
       -0.019870047 -0.0195694 -0.011027131 0.016227938
000110 42 23 d1 3c 08 81 97 bb b8 4b 66 3c 3e c4 8d bc
       0.025529508 -0.004623536 0.014056139 -0.01730549
000120 ac af 6b 3c 00 9f 4d 3a 60 6d 92 bb 48 cb e1 bb
       0.014385145 0.0007843822 -0.004468605 -0.006890688
000130 ea c0 8b 3c 6a 6a 8d 3c 38 39 01 bc 82 2e ff 3c
       0.017059762 0.017262656 -0.007887177 0.031150106
000140 c4 7d 7b bc 18 da 98 3b f8 6f dc bb 98 16 e5 bc
       -0.015349809 0.0046646707 -0.006727215 -0.027964875
000150 00 9f 3a b9 80 a5 41 ba 58 f4 f6 3b f0 84 12 bb
       -0.00017797574 -0.0007387027 0.0075364523 -0.002235707
000160 ce d0 cc 3c 10 79 c0 3b 02 de 94 bc b0 fb 95 3b
       0.02500191 0.005873807 -0.018172268 0.0045771226
000170 68 42 a4 3b 28 5f 55 bc 5e 6e a3 bc de ad c6 3c
       0.005012799 -0.013023175 -0.019950088 0.024252828
000180 7a 91 a0 3c 22 85 be bc 74 db fc 3c 3c d4 9a 3c
       0.019600619 -0.023256842 0.030866362 0.01890003
000190 68 c7 e4 3c da a5 e5 3c 58 46 e9 bb 86 cf a8 3c
       0.027927116 0.028033186 -0.0071189813 0.020606767
0001a0 b8 d9 f5 3b 4e 86 b5 bc 90 f2 3c 3b b2 df cb 3c
       0.0075027607 -0.022158768 0.0028831102 0.02488694
0001b0 80 83 f5 ba f2 71 d4 bc 5e 0c 96 3c ac 42 1d 3c
       -0.0018731207 -0.02593324 0.018316444 0.009598415
0001c0 3e 69 9f bc 58 c7 d5 bc 3c b5 a8 3c b0 46 f5 bc
       -0.019459363 -0.026096031 0.020594232 -0.029940933
0001d0 2c 63 11 3c bc 2a 5b 3c b0 80 dd 3c 3c d9 f2 bc
       0.008873742 0.013376888 0.027038902 -0.029644601
0001e0 e4 fc 59 3c 5a 4c e7 3c 48 26 5a 3c 44 77 3d 3c
       0.013304923 0.02823465 0.013314791 0.01156408
0001f0 cc b2 b7 3c 80 e5 a4 3c 86 2b cb 3c 50 60 68 3b
       0.022424124 0.020128965 0.024801027 0.0035457797
000200 00 bc 6c 3c 16 3a aa bc 66 5b f9 bc 64 0d dc 3c
       0.01444912 -0.02077965 -0.03043909 0.026861854
000210 b8 db 16 3c 98 51 7a bc 80 90 18 bb ce 27 fb bc
       0.0092076585 -0.0152782425 -0.0023279488 -0.030658629
000220 e0 9f 0f bb e0 0a 12 3b 0a c6 b7 bc 26 e1 c4 bc
       -0.0021915361 0.0022284314 -0.0224333 -0.02403314
000230 26 96 aa 3c 06 80 8c bc 2c 10 54 bc b8 47 6e 3c
       0.02082355 -0.01715089 -0.012943309 0.014543466
000240 80 fe 12 3b ee d7 b9 bc 02 97 de 3c fa a2 f0 3c
       0.0022429526 -0.022685971 0.027171616 0.029374588
000250 b4 08 26 3c 5c 01 68 bc 50 4c 58 bc 00 a7 59 3a
       0.010133911 -0.01416048 -0.013201788 0.0008302778
000260 ce d8 9d bc e0 37 4c 3b f0 5d c1 bb 70 68 ff 3c
       -0.01926842 0.0031161234 -0.005901091 0.03117773
000270 40 39 6d bc 3c 45 97 3c e8 df 84 3c 38 3c 6e 3c
       -0.0144789815 0.01846563 0.016220048 0.014540724
000280 b0 fe fb 37 3a 2b 48 3d 3f 4b b4 b7 17 3a 49 3d
       3.004013e-05 0.04886935 -2.1492711e-05 0.049127664
000290 d3 41 b8 38 48 65 3d bb 41 09 7f 3c 25 44 4e 3d
       8.7860644e-05 -0.002889948 0.015566171 0.050357956
0002a0 43 26 78 3c 8d 48 ff 3b 5d 3d d1 3b 3f c2 ff 3c
       0.015145841 0.007790631 0.006385489 0.031220553
0002b0 25 d8 5c bc d9 15 d5 ba d6 0e cc 3c d0 4d a9 3c
       -0.013479267 -0.0016257121 0.024909418 0.020666987
0002c0 14 3e 1d bc 44 db ee 3c 40 40 c3 3a ac bc 4e 3c
       -0.00959732 0.029157288 0.0014896467 0.012618225
0002d0 58 b7 e5 3b a8 26 a4 3b 8c e9 f2 bc 6c 18 2f bc
       0.0070103817 0.005009491 -0.02965238 -0.010686975
0002e0 4c f2 4f 3c dc c9 2f bc a0 2e a0 bc e8 79 89 3c
       0.012692045 -0.010729279 -0.019553483 0.016781762
0002f0 a8 ac af bb 66 ba 92 bc 98 9e c0 bb c6 ec c4 3c
       -0.0053611584 -0.017911147 -0.005878281 0.024038684
000300 2a 30 d0 bc b0 a9 29 bc 88 a9 e7 3c 38 7b 4e 3c
       -0.025413591 -0.010355398 0.028279081 0.01260262
000310 24 f4 bb 3c 00 39 23 39 84 aa e5 3c f8 03 f1 bc
       0.022943564 0.00015566126 0.02803541 -0.029420838
000320 74 ce 50 bc 12 6c f4 bc c8 69 dc 3c 7e fc cd 3c
       -0.012744535 -0.029836688 0.02690591 0.025144812
000330 e8 c0 25 bc b8 a7 ad 3b 58 d9 36 bc 9a 7a 98 3c
       -0.010116793 0.0052995346 -0.011160217 0.018613148
000340 b8 fe b4 3c bc db 31 bc f8 39 96 bb da 4c ef bc
       0.022094116 -0.010855611 -0.004584547 -0.02921145
000350 40 3e ea ba 4c 2b 40 3c 04 60 8f 3c 88 d0 f0 3c
       -0.0017871335 0.011729073 0.017501839 0.02939631
000360 88 70 49 bc b8 8b d7 bb 60 aa ad 3b 86 dc ef 3c
       -0.012294896 -0.006577935 0.0052998513 0.029279958
000370 68 54 9e 3b 22 f5 a5 3c b8 99 58 3c a0 bb b1 bb
       0.0048318394 0.02025849 0.013220243 -0.005423978
000380 a0 20 d3 3b 2c 8e 6f bc d4 e2 da 3c ac 4c 41 3c
       0.006443098 -0.014621299 0.026719488 0.011798065
000390 ec 5c 13 3c ae 1b a3 3c 52 c2 e7 3c b0 a9 3b 3c
       0.008994322 0.01991066 0.028290901 0.011454031
0003a0 64 c5 91 3c 30 f6 06 bc 1c 71 60 bc 5c 4e 9a 3c
       0.017794318 -0.008237407 -0.013698842 0.018836193
0003b0 88 a0 ce bb fc 98 41 3c 58 6b 14 3c 20 1f ea 3b
       -0.006305758 0.0118162595 0.009058796 0.0071448237
0003c0 b4 ed 90 3c 5f 85 47 3d 9c 3f 4f 39 7c ea 02 3d
       0.01769147 0.048711177 0.00019764755 0.031961903
0003d0 33 48 0d 3d 64 10 52 39 0b 1d 54 3d 8f 59 32 3d
       0.034492683 0.00020033267 0.05178551 0.04354244
0003e0 b0 43 25 3c c8 10 a7 bb 86 75 d5 3c 40 66 89 ba
       0.010086939 -0.005098436 0.026057016 -0.0010482743
0003f0 3c ec 72 bc f0 8a 0b bb dc 0e b8 3c 26 68 ff bc
       -0.0148268305 -0.002129253 0.022468023 -0.031177592

decoder.deconv.0.weight f4 [8, 64, 7]
000000 69 8d 5b 3d 32 54 49 3d ac 72 2e 3d 2b 8f a0 3c
       0.053601656 0.04915256 0.04258983 0.019599518
000010 78 37 ba bc 9b f8 6d 3d 87 96 31 3d 89 9f d7 3b
       -0.022731528 0.058098417 0.043356445 0.0065802974
000020 e3 96 1a 3c b2 ac ea bb 27 5b 08 3d 4a b6 2d 3d
       0.009435388 -0.0071617 0.033290055 0.042410173
000030 d8 9c b9 bb cd 2c 6c bc c4 a3 c2 bb f6 81 ef 3b
       -0.005664449 -0.014414978 -0.0059399325 0.0073091937
000040 6a 8b 2c bd 6a d0 54 3c dc ed da bc 88 24 c6 ba
       -0.042125143 0.012989143 -0.026724748 -0.0015117088
000050 9c 05 32 3d c1 cd 75 3d 07 5d ed 3c f9 3d e5 3c
       0.04346238 0.060010675 0.028975023 0.027983652
000060 a1 1b 35 3d 97 01 b9 3c a2 f3 16 3c 5b 5f d0 3b
       0.044215802 0.022583766 0.00921336 0.0063590235
000070 bf 13 34 3d 79 96 8c bc 32 5f 13 3d 5f c3 b1 3c
       0.043964144 -0.017161595 0.035979457 0.021699606
000080 f3 b1 ad 3c ae ef 03 bd a0 82 63 bc f2 cb 43 3b
       0.021203017 -0.032211 -0.013886124 0.00298762
000090 4a af 90 3b 06 d7 38 bd ba 5e d6 bc 14 01 ef 3b
       0.0044154273 -0.045126937 -0.026168216 0.0072938297
0000a0 5d c6 07 bd b5 71 d8 bc 37 df 20 3d 4c 78 9c 3a
       -0.03314816 -0.026421407 0.039275374 0.0011937707
0000b0 82 21 22 bb f3 97 9e bc eb 16 0b 3d 04 fa fa 3c
       -0.002473921 -0.019359564 0.033957403 0.030636795
0000c0 2d 79 10 bd 74 12 1e bd 1d 31 d7 bc b1 ff 11 bd
       -0.035271812 -0.038591817 -0.026268536 -0.035644237
0000d0 7e 5c 0d bd ae 8d f5 bc 79 d0 ea 3c f7 dc a3 bc
       -0.034512036 -0.029974785 0.02866386 -0.020002825
0000e0 98 2d d3 bc 21 5d 0e 3c f3 51 0a 3d 36 38 e1 3b
       -0.025778577 0.008689196 0.03376956 0.006873156
0000f0 93 31 f9 bc d6 45 0c bc b2 3b 3d bd 42 1d e3 3c
       -0.030419147 -0.008561572 -0.046199508 0.027723912
000100 17 01 05 3d 80 5e ab bc dd 5b 07 bd 88 2d a3 bc
       0.032471742 -0.020919085 -0.033046592 -0.019919172
000110 ed db a5 bc aa 58 14 bc b9 6b 16 3d be 5d 86 3b
       -0.02024647 -0.009054342 0.036723826 0.0041005304
000120 06 30 9a 3c 75 f8 3c bd 42 4b 8d bc b3 ba 18 bd
       0.018821727 -0.046135385 -0.0172478 -0.037287425
000130 04 36 55 bc 5a dd 86 bc 56 8e 27 ba f7 34 7f 3c
       -0.013013367 -0.01646297 -0.0006391754 0.015576593
000140 07 a1 e1 bc c3 55 60 3d 94 3b 8a 3c 81 87 e7 3c
       -0.027542604 0.05476929 0.016874112 0.028262855
000150 6e 37 bb 3c b5 d1 05 bd 8f 10 d7 bc c7 47 3d 3d
       0.02285358 -0.032670695 -0.026253013 0.04621103
000160 75 1a 2e bd ac 4d e2 bc a0 d3 41 bc 94 2c 80 bc
       -0.0425057 -0.027624927 -0.0118302405 -0.015646257
000170 32 a7 a2 bc 7d 3d 8e 3c f9 03 85 3c 0d ec 8b bb
       -0.019855116 0.017363304 0.016237246 -0.004270083
000180 2e 88 09 3d a7 31 c0 bc 40 ca 6b bb 4a 0b b1 bc
       0.033577137 -0.023461176 -0.0035978705 -0.021611828
000190 59 d2 27 bd 46 ca 2f 3d 48 c4 24 bd d4 f8 bd 3c
       -0.040972088 0.042917512 -0.04022625 0.02318994
0001a0 d7 72 25 bd 56 5f 92 3c 1b ea aa bc 89 88 e2 bc
       -0.040392723 0.017867725 -0.020863583 -0.027652996
0001b0 8a 18 e2 3c 2a 55 45 3d d4 62 8e 3c ed ae eb 3c
       0.027599592 0.048176922 0.01738111 0.028769935
0001c0 00 8a 52 3d 26 96 47 bc 7f 64 06 3d da 39 35 3d
       0.05140114 -0.012181794 0.032810684 0.044244625
0001d0 1f 17 25 3d ed 9f 68 3d e3 c5 9c 3c a7 85 45 3c
       0.040305253 0.056793142 0.019137328 0.012055791
0001e0 14 66 46 3d 36 be 14 bd 1d 1c b4 3b bd 47 21 3d
       0.048437193 -0.03631421 0.0054965154 0.039375056
0001f0 27 42 28 bc 96 a9 74 3d 01 44 65 3c c8 3e 12 bd
       -0.010269678 0.059732042 0.013993264 -0.035704404
000200 37 70 db bc 7f 2e 23 bd f1 ff 89 bc 65 54 d0 3c
       -0.026786907 -0.039839264 -0.016845675 0.025430867
000210 97 b9 4e 3b 7c 53 99 3b 73 c0 e0 bc 8b 9d 08 3d
       0.0031543726 0.0046791416 -0.027435517 0.03335337
000220 53 6c ab bc d4 16 9d 3c f4 0b 13 bd a0 13 55 3d
       -0.020925676 0.019175924 -0.03590007 0.05202067
000230 e7 b2 e8 bc 55 4e 26 3d 22 9d 80 bb e5 7c e1 bc
       -0.02840562 0.040602047 -0.0039249817 -0.027525375
000240 61 0f 80 bb 18 be 2f bc 73 f7 ea 3c 34 7e b3 3c
       -0.0039080833 -0.010726474 0.028682446 0.021910764
000250 3d 0d 26 3d 38 d4 ed 3a 8f 75 3f 3d af 71 a6 bc
       0.04053997 0.0018144911 0.046742972 -0.02031788
000260 ad 6c 58 ba d6 b4 04 bd ce d1 fd bc 9e 85 2a bd
       -0.000825594 -0.03239902 -0.030983832 -0.041631334
000270 5b 25 28 3d 6e 8b e3 3c 7b d8 31 3d d5 18 fb bc
       0.04105125 0.027776446 0.043419342 -0.03065149
000280 3b 56 7c 3d 19 86 1e bd 17 7e e5 bc 82 24 97 bb
       0.061605673 -0.038702104 -0.028014226 -0.0046125064
000290 91 05 25 bd b1 14 0a 3d c7 9c 17 bd 70 6c 29 bc
       -0.04028851 0.03371114 -0.03701475 -0.010340795
0002a0 6f 41 b6 b9 fb 7f 34 bd 6e 86 3b bd f3 a2 30 3d
       -0.00034762497 -0.044067364 -0.0457825 0.04312415
0002b0 a8 bf af bc 7b 23 c3 3c 0e e4 aa 3c b6 31 a5 bc
       -0.021453694 0.02382063 0.020860698 -0.020165306
0002c0 10 12 39 3d 18 54 9a bc b0 66 28 bd 2a 29 73 3c
       0.04518324 -0.018838927 -0.041113555 0.014841357
0002d0 ec 51 91 bc 6b ee 2a 3d 57 de e1 3c 3b 2c 1a bd
       -0.017739259 0.04173128 0.02757184 -0.037639838
0002e0 54 28 0c bd c5 60 cd bc 4c a2 1e bc b0 63 d0 bc
       -0.034218147 -0.025070557 -0.009682249 -0.02543816
0002f0 d3 da 00 3d 9c 9d 3a 3d 65 00 3d 3d d2 3a 22 bc
       0.031458687 0.045560464 0.046142954 -0.009901719
000300 35 31 2e bd 11 d1 13 bd da c3 b5 bc e9 3b e2 bc
       -0.042527396 -0.036088053 -0.022188116 -0.027616458
000310 5b b5 eb bc b7 31 bc 3b e3 34 92 3c 99 11 cb 3c
       -0.028773 0.005743231 0.017847484 0.024788665
000320 c5 b4 a6 3b 16 45 49 3c af fb 84 bc d6 cd ca bc
       0.0050874674 0.012284538 -0.016233293 -0.024756353
000330 22 dd 19 bd 51 17 74 3c 07 a1 3c 3d ca af e5 bc
       -0.037564404 0.014898137 0.046052005 -0.028037924
000340 6c ec a1 bb b1 89 74 bc 59 f0 3d 3d ac 54 f1 3c
       -0.0049415138 -0.014925406 0.04637179 0.02945932
000350 85 39 db bc fe 99 f4 bb 6a e0 3a 3a 57 69 56 3d
       -0.026760826 -0.0074646464 0.0007128777 0.052346554
000360 ac 3c ad ba 48 9b 16 3c 18 81 1a bd f7 d2 16 bd
       -0.0013216934 0.009192295 -0.03772077 -0.036822286
000370 70 ad 3b 3c a1 15 1b bd 02 aa 1f 3d 77 fb 8b 3c
       0.011454925 -0.037862424 0.03898049 0.017087681
000380 fe cf 1d 3d 57 c5 e0 3c 33 25 17 bd 65 84 12 bc
       0.038528435 0.027437849 -0.03690071 -0.008942698
000390 70 25 50 3c b8 7c 21 3c ad 1d 41 3c 9f a5 93 3c
       0.012704238 0.009856395 0.01178686 0.01802331
0003a0 2a 97 30 3d 35 22 12 bd e5 bc eb bc 83 dd 5b 3b
       0.04311291 -0.035677154 -0.028776595 0.003354878
0003b0 72 c5 c9 3b 1a 6a 9a 3c a8 c0 03 3d a3 50 6f ba
       0.0061575705 0.018849421 0.032166153 -0.0009129142
0003c0 e7 9c 28 3d fa 58 0f bd cd e4 e8 3c d8 3b 01 bd
       0.04116526 -0.034996964 0.028429413 -0.031551212
0003d0 2c 25 79 3c a1 33 dc bc a4 31 39 bc 5d 02 13 bd
       0.015206616 -0.026880087 -0.011303339 -0.035890926
0003e0 9e 89 7f bc 8b fc 2f 3d c9 68 80 bc 27 91 fb bc
       -0.015596775 0.042965453 -0.015674965 -0.030708862
0003f0 8c e9 ea bb f0 67 9b bc 8c 69 36 bd f3 e4 85 bc
       -0.0071689542 -0.01897046 -0.04453425 -0.016344523

decoder.deconv.0.bias f4 [64]
000000 17 78 ba 3c 03 45 b5 bc 94 44 bf bc 0f 23 7e 3d
       0.022762341 -0.022127634 -0.02334813 0.062045153
000010 f1 55 ed bc 1c ba 1a bc 59 a2 c3 bc b9 c2 3a bd
       -0.028971644 -0.009443786 -0.023881124 -0.04559586
000020 01 3a 26 bc 69 3d 6b bc 6d 4d e3 bc de f5 69 3d
       -0.010145665 -0.014357903 -0.02774688 0.057119243
000030 99 49 46 bc fb ce 77 bb e9 63 97 bc c0 99 e5 3c
       -0.012102508 -0.003781258 -0.018480258 0.028027415
000040 ab 80 aa 3c 13 30 21 3d 21 8d d0 3c f8 4c 03 3d
       0.020813307 0.039352488 0.02545792 0.032055825
000050 e9 8a f6 3c df 80 2c bc 3e 21 31 3d 86 c2 dc bc
       0.030095534 -0.010528772 0.043244593 -0.026948225
000060 f9 33 65 3d 20 ac 3f bd 24 3f 90 bc 41 9e 16 3d
       0.055957768 -0.04679501 -0.017608233 0.036772016
000070 35 bb 1c bd 23 04 25 3d a1 be 5d 3d 96 92 17 3d
       -0.038264472 0.04028715 0.054136876 0.03700503
000080 93 a6 0d 3d d9 a4 e0 3c b7 a6 b2 bc 1c f6 02 bc
       0.034582686 0.027422355 -0.021808011 -0.007993247
000090 dd ba 1c bd 6d c8 43 3d c1 dc 3f bd 52 bb 01 3d
       -0.038264144 0.047798563 -0.046841387 0.031672783
0000a0 bc f0 7a 3d bd c1 17 3d 2b 04 4c 3d 32 55 e0 bc
       0.06126474 0.037049998 0.049808662 -0.027384374
0000b0 ef ae 1e 3d 65 19 cb 3c ec 4c 04 bd fb 6b 04 bd
       0.03874105 0.024792382 -0.03229992 -0.03232954
0000c0 cb a0 d7 3b b0 07 71 3d 8f 44 a5 3c f9 ea b6 3c
       0.0065804473 0.058845222 0.020174293 0.02232884
0000d0 c2 37 ab bc a0 c5 1a bd 7c 00 6c bc 56 9e f5 bc
       -0.02090061 -0.037786126 -0.014404412 -0.029982727
0000e0 d3 92 a9 bc e6 d7 0e bc 11 dc f5 3c 4c 00 d3 3c
       -0.020699894 -0.008718466 0.030012162 0.025756977
0000f0 5a 1e b6 3c da dc 1f 3d 93 93 3c 3d 24 27 04 bd
       0.02223127 0.03902898 0.046039175 -0.03226389

decoder.deconv.2.weight f4 [64, 64, 3]
000000 cd 8d 30 bd 7d b8 82 bd fa 56 dc bc 4d 9b 4d bd
       -0.04310398 -0.063828446 -0.026896942 -0.050196934
000010 4e 03 9a bc bb 40 28 3d 4d bc db bc fb c0 97 3c
       -0.018800404 0.041077357 -0.026823187 0.018524637
000020 54 eb 1f 3c 94 83 f6 3c eb be 79 3d f5 b3 87 bc
       0.009760696 0.030092038 0.06097309 -0.016565302
000030 b0 95 93 bd cd 69 81 bc a9 e5 7d bb 7f c2 e3 bc
       -0.07206285 -0.01579752 -0.0038741624 -0.027802704
000040 b2 df 82 3d be 2c 08 bd 3a 88 7e bd bc 30 b6 3b
       0.06390323 -0.033245794 -0.062141635 0.005560009
000050 e0 db 5a bd 81 c1 40 bd 8c 26 15 3d 52 66 34 3c
       -0.053432345 -0.04705954 0.036413714 0.011010723
000060 f4 6c 06 3d e2 46 84 bd 53 33 5c 3b d0 ca 8c bd
       0.03281875 -0.06458832 0.0033599928 -0.06874621
000070 e6 b7 0f 3c bc 5b ee 3c 17 97 b5 b9 e3 2a af bc
       0.008771872 0.029096477 -0.0003463558 -0.021382755
000080 bc 2a d8 3a 59 49 23 3d 21 fc 3b 3d 17 56 25 bd
       0.0016492228 0.03986487 0.045894746 -0.040365305
000090 c9 25 b7 bc 04 21 6d 3d 94 33 8d 3d 18 02 35 bd
       -0.022356885 0.057892814 0.06894603 -0.04419145
0000a0 82 ce 21 bd 2f fa 41 3d 2e dc 3f 3d 6e 1d 68 3c
       -0.03950358 0.047357734 0.04684084 0.014167173
0000b0 7a f0 32 3d 59 6e 4c 3c 56 5a 7a bd eb 66 ba 3c
       0.043686368 0.012477481 -0.061121307 0.022754153
0000c0 b2 f9 d5 3b 0c a5 89 bd fc d8 62 3d 9b 1b 58 bd
       0.00653001 -0.06720933 0.055382714 -0.0527607
0000d0 58 88 b0 bc fd 12 7c 3d 35 6c 30 3d 41 0a 89 3b
       -0.021549389 0.061541546 0.043071944 0.0041821306
0000e0 92 5b 8b bd af 75 41 3b 8d d4 52 bd 30 4d 0d 3d
       -0.06804575 0.0029519608 -0.051472235 0.03449744
0000f0 d4 04 85 3d 50 cc e8 bc 47 48 92 bd c7 06 33 bd
       0.064950615 -0.028417736 -0.07142692 -0.043707635
000100 c4 42 a7 bc 21 e0 83 3d 47 66 6c bd 83 fc 0c 3c
       -0.020417579 0.064392336 -0.057714727 0.008605125
000110 87 58 45 3c b8 78 5f bd 5f 9d a4 3b 81 f8 30 bd
       0.012045032 -0.054558486 0.005023643 -0.04320574
000120 e5 59 60 3d d7 69 4f bd be fd 81 bd d7 d0 03 3d
       0.05477323 -0.050638046 -0.063472256 0.032181587
000130 b6 fa 79 bd 62 e4 e8 3c 06 4f 8f bd 8a a4 da bc
       -0.061030112 0.028429214 -0.069974944 -0.026689786
000140 fc 39 f9 3c 00 ca 65 bd d4 18 74 bd eb 69 0d 3c
       0.030423157 -0.056100845 -0.05959399 0.00863121
000150 88 c3 24 bd e9 55 a9 bb ff 4e ef bb 74 27 0f bd
       -0.040225536 -0.005167712 -0.0073031182 -0.034949735
000160 1a fa ca ba 19 ec 7b 3d 09 08 6a bc 3c b6 2e 3d
       -0.0015485913 0.061504457 -0.014284142 0.04265426
000170 24 6a ca 3c 4b 1b 37 3d 66 97 9f bb ab a6 10 ba
       0.024708815 0.044703763 -0.004870343 -0.00055179995
000180 b8 9c 38 3d 41 ba 9c bc 4a 84 cd 3c 00 28 7d bb
       0.045071334 -0.019131782 0.025087494 -0.0038628578
000190 33 e1 76 3c be e0 d6 bc c6 8e 51 bd 17 09 95 bc
       0.01506834 -0.026230212 -0.05116155 -0.018192811
0001a0 8b 89 54 bd 67 3f b3 3c 85 d3 71 3d 95 a9 1f bc
       -0.051888984 0.021880819 0.05903961 -0.009745021
0001b0 cb be 7b 3d 56 64 9f bc bd 5b 29 3d 4d 9c e4 3c
       0.06146125 -0.019457024 0.041347254 0.027906561
0001c0 2d 84 c9 3c 45 92 4c bd 55 92 31 bd 60 b2 da bb
       0.02459916 -0.04994418 -0.043352444 -0.006674096
0001d0 73 bd 54 3a 0b 2b f3 bc 5f ab ea bc b0 db 21 bd
       0.00081153883 -0.02968361 -0.02864617 -0.03951615
0001e0 0e 56 34 3d d4 43 3e 3c 03 f9 8d bd 55 cc 85 3c
       0.04402738 0.011612851 -0.06932261 0.016332785
0001f0 3d 04 7b bc 53 6b 8d bc d2 40 dd 3c c7 9e 89 bb
       -0.015320835 -0.01726309 0.027008448 -0.004199836
000200 09 4b 3c bd 58 fd 03 3d 6c b0 75 3d f5 0d db 3b
       -0.045969997 0.03222403 0.059982702 0.0066850134
000210 85 ff 6b 3d 69 ed da bb a5 cf f6 bc cb 8f 14 bb
       0.05761673 -0.0066811335 -0.03012831 -0.0022668715
000220 95 ae bb bb c0 45 8c 3d 53 0f d3 bb d5 e6 b2 3c
       -0.005727599 0.06849241 -0.006441036 0.021838585
000230 39 f4 84 bc 74 95 c0 3b 6c 09 34 bd fa dd 51 3c
       -0.016229736 0.005877191 -0.043954298 0.012809271
000240 32 54 0f bd 1d 83 63 bd bf 8d 60 bd 39 f1 2f 3c
       -0.034992404 -0.05554496 -0.05482268 0.010738664
000250 ec ef c5 3c 96 8d ef bc 06 4a 60 bd 53 f1 81 bd
       0.024162255 -0.029242318 -0.054758094 -0.06344857
000260 9b 4d a1 bb 52 ee 66 bd bf 89 72 bd a1 24 e8 3c
       -0.0049225814 -0.056379624 -0.059213396 0.028337779
000270 34 84 6f 3d 3d 6e 4a 3c 72 d1 8f 3c 18 b0 58 3d
       0.058475688 0.012355384 0.017555926 0.05290231
000280 fd cd 80 3c 7d 24 22 3c f6 fa 1b 3d 4e d5 8c 3c
       0.015723223 0.009896395 0.038081132 0.017191555
000290 cd 24 27 3c b0 be 8a 3d f0 0e 61 b8 49 fe 18 3d
       0.010201645 0.06774652 -5.3658092e-05 0.03735188
0002a0 12 9e 43 bd a8 e0 67 3d e0 72 5a 3d ed 67 b3 3a
       -0.04775817 0.056610733 0.05333221 0.0013687589
0002b0 91 bd ac bb ce fd 15 bd f7 d3 ed bc 90 04 90 bd
       -0.0052716215 -0.036619 -0.029031737 -0.0703212
0002c0 c1 da 7d bd e6 05 91 3d 5c 6a 30 3c c0 ec 90 bd
       -0.061976198 0.07081203 0.010767546 -0.070764065
0002d0 d6 a2 2e 3d ba f6 99 bc 04 40 65 bc 31 74 6f 3d
       0.04263576 -0.018794406 -0.013992313 0.058460418
0002e0 9a 8d 62 3d 26 9b 29 3d 37 be ad bc 54 48 95 bb
       0.055310823 0.041407727 -0.021208866 -0.0045557413
0002f0 22 72 4a 3d 36 28 6a bd bd 27 a3 bc a0 64 86 bc
       0.04942525 -0.057167254 -0.01991641 -0.016405404
000300 d8 60 a9 3d 9b 79 c3 3c a0 3d 8d 3d 1c 56 aa 38
       0.082704246 0.023861697 0.0689652 8.122271e-05
000310 d9 0f 3d bb 3a af 66 bd 01 2f ea bc a4 47 38 3d
       -0.0028848557 -0.056319453 -0.028586866 0.044990197
000320 e7 56 32 bd 5e a3 35 bc 42 bb 07 3c b0 cb b2 3c
       -0.043539908 -0.011086313 0.008284392 0.021825641
000330 2e ee 81 3d 63 27 ca 3c 54 f5 8b bc d8 a2 42 bd
       0.06344257 0.024676984 -0.017084755 -0.04751858
000340 4a 43 f4 3c 3f 79 36 bd c7 53 21 bc 2d 3d 5a bd
       0.029817242 -0.044549223 -0.009846634 -0.053280998
000350 a1 d7 a3 ba 32 5d 4a bd e1 89 91 bd 33 35 f5 bb
       -0.0012500176 -0.049405284 -0.071063764 -0.0074831485
000360 be 94 e5 3b 85 01 5f 3d 3c 52 3d bd 00 43 17 bd
       0.007006257 0.05444481 -0.046221003 -0.03692913
000370 01 cc 30 3d c6 2e 49 bd b0 a6 c2 3c 96 17 6a bc
       0.043163303 -0.049116872 0.023761123 -0.01428785
000380 ae a2 73 bd 3a 3c 54 3d b6 38 ac 3d 13 32 cc bc
       -0.059481315 0.05181525 0.08409254 -0.024926221
000390 38 8d 8e 3d f0 2d 35 bc 1b c6 e6 bc 71 5c f8 bc
       0.06960529 -0.011058316 -0.028170636 -0.030317517
0003a0 6f b9 43 bd eb 81 fc 3b e0 51 8b bd 2a d7 d9 bc
       -0.047784265 0.007705917 -0.06802726 -0.026591856
0003b0 47 e0 f5 3c b6 06 e0 bc eb ae 3f bd 59 9e 1e bd
       0.03001417 -0.02734695 -0.046797674 -0.03872523
0003c0 d0 9b 67 3c 68 73 0a 3d 0d ca 25 3d 88 b9 96 bc
       0.01413627 0.033801466 0.040475894 -0.018399015
0003d0 71 ce bc 3d 10 02 23 3c f5 70 85 3d e4 29 78 3d
       0.09219063 0.009949222 0.065156855 0.060586825
0003e0 67 51 84 3d 0b 23 94 ba 91 f5 ae 3c 5c 9a 4f 3d
       0.06460839 -0.0011301948 0.02135733 0.050684318
0003f0 e0 15 ad 3d 80 aa 67 3d af 00 42 bd 99 78 81 bd
       0.08451438 0.056559086 -0.047363933 -0.0632183

decoder.deconv.2.bias f4 [64]
000000 08 f9 c3 bc 66 35 af 3d 5d d3 ec 3b eb 3a c5 3c
       -0.023922458 0.08555107 0.007227345 0.024075946
000010 76 1d 1d 3d 38 ad 9f 3d 39 1f 84 bd 3d 9d 90 bd
       0.038358174 0.07796711 -0.06451268 -0.07061241
000020 1c e9 ea bc 9a 98 1a bd d7 44 e4 ba 50 6f 00 bd
       -0.028675608 -0.03774319 -0.0017415535 -0.031356156
000030 97 7e 8a 3d 0e 80 83 bd a0 00 8d bd 84 b4 a1 3d
       0.06762426 -0.06420909 -0.06884885 0.07895759
000040 0d 58 83 bd ad f0 63 b9 41 c3 f9 3c 4f 15 ba 3d
       -0.06413279 -0.00021738066 0.030488612 0.090860955
000050 41 ad 52 3d e4 8e 5a bb 66 a4 69 3d e0 50 5a bd
       0.05143476 -0.003334933 0.05704155 -0.053299785
000060 97 92 6d bd ca bf 31 bd b4 cd 35 bd ae e9 38 bd
       -0.058001127 -0.043395795 -0.044385627 -0.04514473
000070 05 67 94 bb cf 65 15 bc c5 44 8f bd ea ab d8 bc
       -0.0045288824 -0.009118511 -0.069955386 -0.026449163
000080 4e 7a 5f 3d 87 03 8e bd 53 8c 88 3d c6 28 34 3d
       0.05456 -0.069342665 0.0666739 0.043984197
000090 b3 6a 63 bb 37 49 d1 3c 0c f2 b1 3d 1d 80 15 bb
       -0.003470105 0.025547607 0.08688745 -0.0022811957
0000a0 44 92 8b 3d 3c 40 bb 3d 26 eb 1d bc fd 76 2a bc
       0.06815007 0.09143111 -0.009638583 -0.010404346
0000b0 cb 18 8d bd 78 fd 93 3d 1d f1 af 3c 45 c5 95 bc
       -0.068894945 0.0722608 0.021477276 -0.018282542
0000c0 98 20 96 3d 33 a8 85 bd 57 fd 5f 3d 32 cd b3 3d
       0.073304355 -0.06526222 0.054684963 0.08779372
0000d0 e3 9c 1a bd a4 0b 98 3d 17 d3 47 3d 1b d5 9d 3c
       -0.037747275 0.07424095 0.048785295 0.019266656
0000e0 3b 3d 13 bd 41 b0 20 3d 7a 90 2b bd 4a 8a 68 bd
       -0.035947066 0.03923059 -0.04188583 -0.056772508
0000f0 e4 a7 a2 3d 45 a6 bf bc 3d 59 31 bc ae 2b cb bc
       0.07942179 -0.023394713 -0.010824499 -0.024801102
