model/vqvae/num_embedding_16_commitment_cost_0.4.pt (torch, 269252 bytes, 17 tensors)

encoder.conv.0.weight f4 [64, 5, 5]
-0.014389082 -0.071206525 0.14623007 -0.008669263 0.08441243 0.14160408 -0.05351611 -0.070255175
-0.07591499 0.025847817 -0.012528957 0.0111007 0.059953067 0.06036084 -0.05724294 -0.121240474
-0.066658676 0.09320187 0.031439893 -0.16463545 0.19484325 0.075258926 0.0031347019 0.122379795
-0.11051125 0.018665073 0.081702486 -0.08574188 -0.11646474 -0.12629835 0.23600112 0.07799616
-0.13674392 -0.2557135 -0.26098 0.08361251 0.19088855 0.08217065 -0.2266669 -0.03627713
0.094649166 0.2190616 -0.044742346 0.03716985 -0.23723151 0.20526406 0.14943951 0.02966854
-0.2643901 -0.109411485 0.05021691 0.21494992 0.091348656 0.06129022 -0.016357318 -0.11076593
-0.15375394 0.11462507 0.15742385 0.13896915 0.049028926 -0.03764568 0.16126537 -0.02142153
0.11145894 -0.0054908497 0.17666316 0.1508862 -0.12401343 -0.10090395 -0.05415767 -0.086024396
0.09345745 0.0692998 -0.08029024 0.08917319 -0.021355852 0.16967581 -0.13878553 0.12899585
0.19395061 0.14971177 -0.03345666 0.0970322 -0.1435702 -0.14079872 -0.1164904 -0.07488371
-0.06697876 -0.0035799968 0.039620418 0.032533113 -0.01954482 -0.1117934 -0.12358004 0.011156156
0.15017754 0.005123472 0.1551956 -0.15589772 -0.06412019 -0.18131685 0.13488755 -0.18298584
0.0045988234 0.07876298 0.005770575 -0.14638375 0.15805483 -0.18947667 0.067016885 0.054874387
-0.020985898 -0.05868917 0.045777503 0.09035988 0.10390177 0.1387517 -0.20292483 -0.02576868
0.08080935 -0.09255538 0.15164284 0.016847767 0.1028918 -0.09915417 0.04305172 -0.08876326
0.108614825 -0.18335855 -0.12321365 -0.18984364 0.05097101 0.048619486 0.044129133 0.044330336
0.17450705 0.02699175 -0.13874291 -0.12378953 -0.13261954 0.00010905266 0.07578995 0.048670936
-0.191958 -0.13385032 -0.19845477 -0.13477503 -0.014477372 -0.15304427 -0.03417481 0.00786238
-0.16345526 0.070699066 0.14595297 0.09113933 0.048056375 -0.15473251 0.048210103 -0.049656365
-0.025875289 0.044542104 -0.11722476 0.04981339 -0.20925334 -0.09830668 0.14112951 0.1760198
0.14028707 -0.052879542 0.16532916 0.030366752 -0.18287641 -0.002063674 -0.088421404 0.19037387
-0.055418834 -0.07041253 0.12684943 -0.1829194 -0.14748707 0.11951562 -0.14120689 -0.12922145
0.1857732 -0.03732085 0.0663972 -0.17156011 0.06463665 -0.030535774 -0.13058348 0.037177764
0.018358199 0.047308873 0.019392755 -0.0666471 -0.000235628 0.1908247 0.1329492 0.046532463
-0.019512938 -0.13599023 -0.15015315 -0.105590425 0.08731681 0.15625742 0.17471662 -0.12568977
-0.21661906 0.04444695 0.066258 -0.13302554 -0.08610299 -0.122028194 -0.17291406 0.17708276
-0.1150419 0.019967461 -0.17792757 0.09582369 0.09404871 0.08799797 0.17840841 0.09379965
-0.18377382 -0.05385302 -0.1629025 0.052933596 -0.17270704 0.09371918 0.15933444 -0.001867407
0.10294782 -0.010334715 -0.06659727 -0.082867816 -0.15916573 0.045549 -0.1705813 -0.03456079
0.19733706 -0.09571358 0.056575075 -0.17240015 0.11873852 0.13178053 0.15608972 0.052455954
0.083942264 -0.033526286 -0.24018942 -0.071543865 0.09604492 0.055681042 -0.08662842 -0.14837325
00000000: 2fc0 6bbc bad4 91bd 56bd 153e 8609 0ebc
00000010: 6de0 ac3d a900 113e b533 5bbd f2e1 8fbd
00000020: 5179 9bbd cdbe d33c 4146 4dbc b6df 353c
00000030: 5991 753d ee3c 773d 9377 6abd ed4c f8bd
00000040: 5884 88bd 9fe0 be3d 1ec7 003d 3296 28be
00000050: fd84 473e 5a21 9a3d 926f 4d3b 42a2 fa3d
00000060: b953 e2bd 7fe7 983c a253 a73d 7099 afbd
00000070: 1185 eebd 5b54 01be 47aa 713e 73bc 9f3d
00000080: 9906 0cbe e1ec 82be 2c9f 85be 093d ab3d
00000090: 4a78 433e 1649 a83d 5e1b 68be 5497 14bd
000000a0: 6cd7 c13d af51 603e c043 37bd 6a3f 183d
000000b0: d1ec 72be be30 523e ac06 193e 700b f33c
000000c0: 245e 87be 2113 e0bd 3fb0 4d3d d51b 5c3e
000000d0: 0115 bb3d 740b 7b3d c8ff 85bc 3fd9 e2bd
000000e0: ac71 1dbe 8cc0 ea3d b833 213e ee4d 0e3e
000000f0: 8ed2 483d 5b32 1abd c022 253e 347c afbc
00000100: 9644 e43d 96ec b3bb 30e7 343e e981 1a3e
00000110: c1fa fdbd bba6 cebd 6fd4 5dbd 8f2d b0bd
00000120: 9f66 bf3d 0eed 8d3d 366f a4bd 6fa0 b63d
00000130: 78f2 aebc 7fbf 2d3e cb1d 0ebe 7d17 043e
00000140: fd9a 463e 0b4e 193e da09 09bd d1b8 c63d
00000150: 1104 13be 8a2d 10be 8592 eebd a15c 99bd
00000160: 292c 89bd 619e 6abb 0549 223d 7141 053d
00000170: 751c a0bc f0f3 e4bd 8817 fdbd 4fc8 363c
00000180: 24c8 193e cce2 a73b 98eb 1e3e a7a3 1fbe
00000190: 7251 83bd 20ab 39be f61f 0a3e a460 3bbe
000001a0: bab1 963b 7c4e a13d 1717 bd3b 9fe5 15be
000001b0: 20d9 213e 2c06 42be 2640 893d f7c3 603d
000001c0: 9eea abbc 0e64 70bd 3181 3b3d 9a0e b93d
000001d0: 74ca d43d ed14 0e3e 87cb 4fbe d718 d3bc
000001e0: 5f7f a53d ad8d bdbd 4348 1b3e 5404 8a3c
000001f0: f0b8 d23d 5711 cbbd 0057 303d 83c9 b5bd
00000200: 7371 de3d 58c2 3bbe 7057 fcbd 5f66 42be
00000210: fac6 503d 3a25 473d c0c0 343d ba93 353d
00000220: fab1 323e cd1d dd3c 9f12 0ebe 5d85 fdbd
00000230: 6bcd 07be 33b3 e438 c337 9b3d 2d5b 473d
00000240: a390 44be 0f10 09be ba37 4bbe 7702 0abe
00000250: 8032 6dbc a3b7 1cbe e3fa 0bbd 36d1 003c
00000260: d160 27be acca 903d b274 153e 42a7 ba3d
00000270: c3d6 443d 3372 1ebe f577 453d 7964 4bbd
00000280: 6af8 d3bc c871 363d 8913 f0bd 2009 4c3d
00000290: 8246 56be 0355 c9bd 4184 103e 893e 343e
000002a0: 6aa7 0f3e 3898 58bd 0c4c 293e b2c3 f83c
000002b0: f443 3bbe b43e 07bb 4816 b5bd 5ef1 423e
000002c0: dcfe 62bd 7234 90bd d1e4 013e 394f 3bbe
000002d0: da06 17be 9bc4 f43d 8a98 10be a152 04be
000002e0: 543b 3e3e bfdd 18bd 41fb 873d 74ad 2fbe
000002f0: 3860 843d 2926 fabc adb7 05be b647 183d
00000300: ef63 963c f3c6 413d 8edd 9e3c 467e 88bd
00000310: e912 77b9 8d67 433e d623 083e d398 3e3d
00000320: 99d9 9fbc 0641 0bbe bfc1 19be cb3f d8bd
00000330: 28d3 b23d f201 203e eae8 323e d2b4 00be
00000340: 63d1 5dbe 010e 363d 46b2 873d d937 08be
00000350: c456 b0bd ebe9 f9bd 6210 31be 2f55 353e
00000360: 169b ebbd cd92 a33c a532 36be 363f c43d
00000370: 9c9c c03d 4838 b43d b2b0 363e 081a c03d
00000380: 342f 3cbe fc94 5cbd eacf 26be e6d0 583d
00000390: 1dda 30be d7ef bf3d 9128 233e c8c3 f4ba
000003a0: 4fd6 d23d f052 29bc 2664 88bd 9ab6 a9bd
000003b0: 57fc 22be 9791 3a3d ddac 2ebe 9d8f 0dbd
000003c0: ba12 4a3e 7b05 c4bd 44bb 673d aa89 30be
000003d0: 2e2d f33d 7af1 063e fcd5 1f3e 0edc 563d
000003e0: ece9 ab3d dc52 09bd 37f4 75be 9785 92bd
000003f0: 33b3 c43d ce11 643d 3e6a b1bd 28ef 17be

encoder.conv.0.bias f4 [64]
0.13311015 -0.049587976 -0.1543913 0.13991944 0.1976686 -0.04799316 0.108914785 0.12885883
-0.1283477 -0.065568686 -0.0670245 -0.035415895 0.13038713 0.06933187 0.102363504 0.14438073
0.087863 -0.11773436 0.10077879 -0.18155359 -0.112049505 0.08974568 -0.034980256 0.102371074
0.22618152 -0.08216594 -0.03665562 -0.042010933 -0.08721099 -0.14283986 0.145805 -0.00820458
-0.13389683 0.20764881 0.047253635 -0.19783655 0.06881336 0.13564856 0.09486378 0.0684065
-0.13137265 -0.010812847 -0.15745156 0.14065686 -0.15010232 0.10148384 -0.16860285 -0.13807718
0.06587226 0.19325708 0.057206098 -0.061491046 0.060594425 -0.071736366 -0.17277415 -0.11082606
-0.1210423 -0.14175914 0.23688322 -0.030474348 -0.12813093 0.06196216 0.20245597 -0.12059042
00000000: 074e 083e c31c 4bbd c118 1ebe 0b47 0f3e
00000010: a369 4a3e 7a94 44bd b70e df3d 92f3 033e
00000020: 946d 03be e048 86bd 2444 89bd 4210 11bd
00000030: 3484 053e defd 8d3d f5a3 d13d 8bd8 133e
00000040: 84f1 b33d b61e f1bd 1c65 ce3d 2fe9 39be
00000050: 367a e5bd 95cc b73d 7547 0fbd eda7 d13d
00000060: 219c 673e 9e46 a8bd 3424 16bd a813 2cbd
00000070: ad9b b2bd 9d44 12be e84d 153e 816c 06bc
00000080: 401c 09be e4a1 543e 078d 413d aa95 4abe
00000090: 05ee 8c3d 75e7 0a3e f147 c23d b518 8c3d
000000a0: 8d86 06be 5e28 31bc fb3a 21be 5a08 103e
000000b0: 6cb4 19be c2d6 cf3d 3aa6 2cbe 1b64 0dbe
000000c0: 09e8 863d 2fe5 453e f150 6a3d 09de 7bbd
000000d0: dc31 783d 84ea 92bd b5eb 30be c6f8 e2bd
000000e0: 06e5 f7bd 4f29 11be 8491 723e 57a5 f9bc
000000f0: c134 03be 09cc 7d3d 9e50 4f3e 1cf8 f6bd

encoder.conv.2.weight f4 [64, 64, 5]
0.028391048 0.024550105 -0.057933994 -0.023396676 -0.069243394 0.08643271 0.04133917 0.07919905
0.12491299 0.06243252 -0.025271876 -0.029844262 0.05728396 -0.00928232 0.047749523 0.03198504
-0.07312886 0.014315658 0.008183527 -0.014426152 -0.04723023 0.016142698 0.033916302 0.053294383
0.024975989 -0.0306391 0.0034642613 -0.040608093 -0.008816448 0.04885114 0.095867686 -0.026488738
-0.06380014 -0.030734684 0.0025587117 0.0904938 0.0045157177 0.06489671 -0.0049026567 -0.034862883
0.09515432 0.0139164515 -0.03817063 -0.101079606 -0.11179938 0.058453374 -0.035705328 -0.0579931
0.028654652 0.05101928 -0.08012755 -0.06346182 -0.035614405 -0.019549495 0.043222297 0.010403533
0.016669594 0.04135975 -0.005579354 -0.09235259 0.005240588 0.054472018 0.051191766 -0.03649931
-0.03923584 -0.0016992631 -0.014334226 -0.049564715 -0.0132684 -0.013373573 0.0116637675 0.020950798
-0.037995692 -0.056535263 0.02768825 0.006947225 0.053744435 0.023698043 0.020008497 0.053032957
-0.00951017 -0.032342568 -0.03494465 -0.021307115 -0.0345216 -0.0098177865 -0.00092472666 0.11412612
0.07270993 0.13091579 -0.051620007 -0.046629913 -0.047331203 0.039820947 -0.014680991 0.039654024
0.015032455 0.046231907 0.016428491 0.0020619489 -0.0022357553 0.009228242 0.039194193 0.04321729
0.035192735 -0.0024491886 -0.055608846 -0.022804001 -0.006541339 0.008991334 0.037968162 -0.036908228
0.047660444 -0.03402731 -0.033927515 0.051159486 0.034257002 0.038092062 0.02516001 0.019824037
0.029506179 -0.0045766807 -0.016957752 -0.055578813 0.002099207 0.012620578 0.06179959 -0.0055838972
0.025383716 0.0469565 0.045285556 -0.034002267 -0.01100219 0.004866499 0.05284173 -0.030102024
0.06817584 -0.018509002 0.020869272 -0.017592287 -0.03558593 0.030579664 0.047129933 -0.0020231241
0.014084731 0.040666085 -0.030280178 -0.010217121 -0.055482574 -0.009003419 -0.006085511 -0.01716689
-0.035173815 -0.030651823 0.007281457 -0.045763947 0.028434604 0.034376923 -0.020080354 -0.004253801
-0.014404671 0.04302085 0.032806475 -0.013365365 -0.056813724 0.03906781 0.008971803 -0.038971327
0.042705167 -0.06902505 0.028023083 -0.024899527 0.002157887 0.03382084 -0.0077362778 0.037280705
-0.017885229 -0.036721747 0.035899736 0.024539353 -0.019087436 0.054363437 0.027279014 0.054356243
-0.03217879 0.034108207 -0.0031680937 -0.018146375 0.055071905 0.00962992 -0.0447271 -0.039097216
0.043636937 -0.035397634 -0.03555818 -0.01612161 -0.049824186 -0.02363971 0.050879657 0.010577148
-0.046999045 0.012558072 0.02017225 -0.027906144 -0.015365041 -0.011219421 0.04032608 -0.029628487
-0.035836052 -0.026557462 0.0854343 0.008314607 0.06170355 0.1421203 0.022789655 0.03160825
0.029269475 0.014779951 -0.032043077 -0.12851354 -0.009434976 0.03456323 0.020653956 0.056461137
-0.017042914 -0.0045646587 -0.038265035 -0.030309144 0.010094634 0.033850797 -0.0330358 0.0097956285
0.03521099 0.033012897 -0.00814817 -0.02419936 -0.042589307 -0.021233607 0.034137994 0.053405836
-0.020026926 -0.030599684 0.017647067 0.021537881 -0.046070628 -0.010817088 0.044617787 0.0062010204
-0.02301792 -0.0015249345 -0.0043153795 -0.050231837 -0.021162748 -0.0016831644 0.016778233 -0.045663126
00000000: 5894 e83c 4d1d c93c 324c 6dbd 63aa bfbc
00000010: 7bcf 8dbd a203 b13d 4353 293d 1d33 a23d
00000020: 62d2 ff3d 3eb9 7f3d f706 cfbc f47b f4bc
00000030: 96a2 6a3d df14 18bc 0195 433d bf02 033d
00000040: 95c4 95bd 398c 6a3c 3314 063c ab5b 6cbc
00000050: 7c74 41bd b13d 843c d2eb 0a3d 364b 5a3d
00000060: 729a cc3c dafe fabc a908 633b ac54 26bd
00000070: dd72 10bc 2218 483d 4756 c43d e9fe d8bc
00000080: a6a9 82bd 4ec7 fbbc 0fb0 273b d054 b93d
00000090: 96f8 933b 91e8 843d 77a6 a0bb 62cc 0ebd
000000a0: 45e0 c23d d401 643c ce58 1cbd d302 cfbd
000000b0: 13f7 e4bd ce6c 6f3d c03f 12bd 2c8a 6dbd
000000c0: 29bd ea3c 98f9 503d ea19 a4bd 45f8 81bd
000000d0: 69e0 11bd 4326 a0bc dd09 313d 9473 2a3c
000000e0: ac8e 883c d768 293d 03d3 b6bb 5b23 bdbd
000000f0: 3db9 ab3b 0d1e 5f3d 75ae 513d 4d80 15bd
00000100: c3b5 20bd cfb9 deba 1ada 6abc 5f04 4bbd
00000110: b463 59bc d51c 5bbc 6319 3f3c 02a1 ab3c
00000120: 5fa1 1bbd 8591 67bd 78d2 e23c 8ca5 e33b
00000130: 2023 5c3d 6622 c23c dce8 a33c 1639 593d
00000140: 8bd0 1bbc a479 04bd 1f22 0fbd 428c aebc
00000150: 8566 0dbd c8da 20bc 5b69 72ba f5ba e93d
00000160: f2e8 943d ca0e 063e 806f 53bd 02ff 3ebd
00000170: 5dde 41bd 4a1b 233d 8a88 70bc 426c 223d
00000180: b04a 763c ab5d 3d3d 0b95 863c c321 073b
00000190: c085 12bb 0d32 173c 178a 203d 9d04 313d
000001a0: 4226 103d 9182 20bb 1ac6 63bd 75cf babc
000001b0: bb58 d6bb 6350 133c 8184 1b3d 152d 17bd
000001c0: 9937 433d 3860 0bbd 94f7 0abd 9c8c 513d
000001d0: 1251 0c3d 6c06 1c3d 5e1c ce3c 0566 a23c
000001e0: f1b6 f13c fbf7 95bb fcea 8abc 9ca6 63bd
000001f0: d992 093b 8ac6 4e3c 9121 7d3d 20f9 b6bb
00000200: 83f1 cf3c 7555 403d 597d 393d f645 0bbd
00000210: 8842 34bc 2777 9f3b 9270 583d 8598 f6bc
00000220: c69f 8b3d 31a0 97bc 09f6 aa3c b31d 90bc
00000230: 8dc2 11bd 3482 fa3c 510b 413d 6496 04bb
00000240: a5c3 663c 7b91 263d 230e f8bc b665 27bc
00000250: b241 63bd 1483 13bc f768 c7bb 94a1 8cbc
00000260: 6b12 10bd 8819 fbbc 4a99 ee3b fa72 3bbd
00000270: b0ef e83c d1ce 0c3d 8e7f a4bc 7863 8bbb
00000280: 9201 6cbc a136 303d 1560 063d 67fa 5abc
00000290: 82b5 68bd 9105 203d 78fe 123c 66a0 1fbd
000002a0: 9deb 2e3d 015d 8dbd aa90 e53c 18fa cbbc
000002b0: 566b 0d3b b987 0a3d 9a80 fdbb a7b3 183d
000002c0: 0b84 92bc 8b69 16bd 9a0b 133d c106 c93c
000002d0: 415d 9cbc 32ac 5e3d 3d78 df3c a7a4 5e3d
000002e0: e8cd 03bd 0cb5 0b3d cb9f 4fbb b5a7 94bc
000002f0: 1493 613d d0c6 1d3c c333 37bd 6724 20bd
00000300: a5bc 323d 1cfd 10bd 74a5 11bd 7711 84bc
00000310: 7214 4cbd 11a8 c1bc 3067 503d c64b 2d3c
00000320: 1282 40bd 5fc0 4d3c 4640 a53c 6d9b e4bc
00000330: a7bd 7bbc aad1 37bc f62c 253d 71b7 f2bc
00000340: d3c8 12bd 098f d9bc 2ef8 ae3d fd39 083c
00000350: ddbc 7c3d fc87 113e 5fb1 ba3c a777 013d
00000360: 8ac6 ef3c 9c27 723c 9a3f 03bd 0e99 03be
00000370: 2895 1abc 2c92 0d3d 7c32 a93c cb43 673d
00000380: 959d 8bbc 2293 95bb ccbb 1cbd e24a f8bc
00000390: f763 253c 22a7 0a3d 8c50 07bd d87d 203c
000003a0: 6639 103d 8838 073d e77f 05bc bc3d c6bc
000003b0: 2072 2ebd 1af2 adbc 48d4 0b3d 14c0 5a3d
000003c0: 820f a4bc 30ac fabc 9590 903c 3670 b03c
000003d0: 8eb4 3cbd 283a 31bc 24c1 363d ee31 cb3b
000003e0: 1490 bcbc 50e0 c7ba 0768 8dbb e6bf 4dbd
000003f0: 805d adbc a09d dcba 8172 893c 4209 3bbd

encoder.conv.2.bias f4 [64]
-0.013311191 -0.054772336 -0.020222174 -0.0386583 0.0056960364 -0.011253513 0.016366074 -0.025503974
0.016696736 0.032604877 0.008682716 0.04234213 -0.03341357 -0.010757146 0.030623585 0.016346289
0.072025076 0.08584172 -0.022512581 0.041271828 0.0014180585 -0.017177345 -0.0011141056 0.025823103
-0.028917592 0.0040940875 -0.022615658 0.024113512 -0.05953679 0.04516866 0.032542434 -0.008056949
0.06811964 0.04555325 0.047002066 0.018474529 0.02346116 0.07997835 0.0033310575 0.011875818
-0.04556493 0.019811612 -0.025458617 -0.04831421 0.086419076 0.010976255 0.08644693 -0.016669316
-0.057166874 -0.0060539534 -0.017642336 0.01739208 0.027650392 -0.024879817 0.024660656 -0.0074971463
-0.046163466 0.032755278 -0.043867577 -0.011395986 0.040411193 -0.03940625 -0.029455816 0.044483278
00000000: 2f17 5abc f558 60bd f9a8 a5bc 2a58 1ebd
00000010: d1a5 ba3b a860 38bc 2512 863c b6ed d0bc
00000020: 98c7 883c b18c 053d f341 0e3c f16e 2d3d
00000030: abdc 08bd be3e 30bc 50de fa3c a7e8 853c
00000040: e281 933d c9cd af3d 4e6c b8bc a60c 293d
00000050: 26de b93a 81b7 8cbc 2e07 92ba f98a d33c
00000060: 96e4 ecbc b227 863b 7944 b9bc b389 c53c
00000070: d9dc 73bd c602 393d 374b 053d 4b01 04bc
00000080: 4f82 8b3d 0b96 3a3d 3d85 403d e557 973c
00000090: 9e31 c03c b0cb a33d df4d 5a3b ca92 423c
000000a0: 4ba2 3abd f64b a23c 978e d0bc 1fe5 45bd
000000b0: 7cfc b03d c0d5 333c 170b b13d 178e 88bc
000000c0: d027 6abd 3e60 c6bb a986 90bc d679 8e3c
000000d0: 1383 e23c c2d0 cbbc 2505 ca3c 9faa f5bb
000000e0: e715 3dbd 662a 063d 7dae 33bd 3bb6 3abc
000000f0: 3586 253d 7368 21bd 534d f1bc 1934 363d

encoder.conv.4.weight f4 [8, 64, 3]
0.020400407 -0.0028652137 -0.019410629 -0.055775177 0.039297342 -0.047893625 -0.067004785 -0.013079755
-0.0056103226 -0.0110652875 0.0070130355 -0.039353725 -0.10744859 -0.11149466 -0.0060120914 0.052030735
0.03793015 0.027364753 -0.110313624 -0.16238154 -0.0051715863 -0.03978809 0.048999608 0.032876313
0.026926998 0.017106151 0.04552235 -0.09321036 0.022245431 -0.06574955 -0.046028793 0.008317441
0.04282439 0.022791196 0.10193266 0.09306915 -0.027200822 0.0125280395 -0.01933022 0.05772906
0.028899394 0.11549332 0.02909685 0.009128882 0.110278115 -0.05709525 -0.04817323 0.01942102
0.080232605 0.12443006 0.042877443 0.12307539 0.10675523 0.12226073 -0.06689031 -0.11555766
-0.021590637 -0.0024229581 -0.0028437814 0.039139856 -0.061059743 -0.13985293 -0.10233066 -0.12795338
-0.07995796 -0.004490949 -0.10670665 -0.11882169 -0.079214476 0.04370646 -0.039076403 -0.03801196
-0.12723884 -0.019767102 -0.11089636 0.016379822 0.0982498 -0.0058797314 0.04583888 0.00699472
-0.04438944 0.060539197 0.059812628 0.042073525 -0.05444462 0.024261102 -0.011778844 -0.048578944
-0.13942613 -0.1273592 -0.1350415 -0.13229671 -0.058229428 0.05939664 0.011165193 -0.015955025
0.07077384 0.09148101 0.12484714 -0.0812767 0.01531858 -0.0536126 -0.07242077 -0.024376784
0.037275113 0.07351348 0.053213608 0.015011659 -0.025569288 0.025190378 -0.045444228 0.046460416
0.073163286 -0.0497457 -0.040454786 -0.037989564 0.05801415 -0.06407642 -0.051859744 0.040725596
-0.061717324 -0.032932788 -0.011134465 0.05934226 -0.011924843 -0.021665832 0.0013020067 -0.043625835
-0.00896867 -0.10808878 -0.019150302 -0.073606454 0.10375998 0.08199803 0.1238799 -0.13660392
0.004025076 -0.10321495 0.094712526 0.09344608 0.07085253 0.050581124 0.042196598 -0.0524677
-0.1029759 -0.044023883 -0.012811799 0.024728756 -0.0044300156 -0.051982794 -0.036078725 0.044451423
-0.06265527 0.041630287 0.032219157 0.06293639 0.12708426 0.04417084 0.044100698 0.008921713
-0.08676428 -0.1189599 0.017766379 -0.0022234817 -0.034292415 0.02641771 0.031873636 0.12390817
-0.11782167 -0.14080447 -0.1152259 -0.08356835 -0.08264163 -0.083489835 -0.006594757 -0.08871693
-0.010590787 0.0164457 0.0806166 0.03244269 -0.050235514 -0.10223044 -0.028867114 0.0011734145
0.018361758 0.003271686 -0.011402584 0.06947736 0.043448333 0.062302828 -0.020031434 -0.03364105
-0.06744161 0.007785413 0.009632432 -0.030173235 -0.047233883 0.058443442 -0.029724639 0.0009597288
0.019564908 -0.065495186 0.028850123 -0.06274309 -0.052205324 0.01716325 0.06460601 -0.007521037
0.061977796 0.065967515 0.04076538 0.051195636 -0.06821581 -0.041728202 0.020633597 -0.052514307
-0.0369531 -0.024534885 0.003935589 0.07074328 0.00070550456 -0.016561389 0.018489527 0.06283484
0.06297035 -0.05049821 -0.03183217 0.012623099 -0.010944375 -0.05020066 0.06275509 0.040417217
-0.06901385 0.026039239 0.05463722 0.019959563 -0.009642325 -0.05000108 0.019904356 -0.057516012
0.06586998 -0.043659173 -0.013325746 -0.014497071 -0.018167758 -0.054941937 -0.04695138 0.011058169
-0.054994624 0.06376149 -0.021660801 -0.060466267 -0.010925396 -0.015609214 -0.04852593 -0.009868228
00000000: c11e a73c 4fc6 3bbb 0a03 9fbc 8374 64bd
00000010: 40f6 203d 1b2c 44bd ce39 89bd 784c 56bc
00000020: ccd6 b7bb 2e4b 35bc 9bcd e53b 5f31 21bd
00000030: 020e dcbd 5057 e4bd 1401 c5bb 2e1e 553d
00000040: a55c 1b3d 0c2c e03c 1cec e1bd 5947 26be
00000050: 6976 a9bb d6f8 22bd d0b3 483d 50a9 063d
00000060: 0296 dc3c 3322 8c3c a575 3a3d 13e5 bebd
00000070: 0d3c b63c b3a7 86bd b088 3cbd e045 083c
00000080: a168 2f3d 9ab4 ba3c 12c2 d03d 0a9b be3d
00000090: 42d4 debc 6842 4d3c 695a 9ebc 4f75 6c3d
000000a0: 6cbe ec3c c387 ec3d 845c ee3c 4e91 153c
000000b0: 7ed9 e13d b5dc 69bd 4b51 45bd d518 9f3c
000000c0: fe50 a43d 30d5 fe3d 42a0 2f3d f30e fc3d
000000d0: 7ca2 da3d d563 fa3d c9fd 88bd 7fa9 ecbd
000000e0: d9de b0bc 7eca 1ebb bc5e 3abb 1d51 203d
000000f0: c819 7abd 9b35 0fbe bd92 d1bd 3606 03be
00000100: 00c1 a3bd d028 93bb 0489 dabd c958 f3bd
00000110: 333b a2bd 8c05 333d 940e 20bd 6eb2 1bbd
00000120: e64a 02be 9eee a1bc a11d e3bd fa2e 863c
00000130: 3137 c93d c3aa c0bb 8dc1 3b3d f733 e53b
00000140: b4d1 35bd f3f7 773d 16fe 743d 4a55 2c3d
00000150: 5201 5fbd 38bf c63c 0dfc 40bc b7fa 46bd
00000160: b9c5 0ebe 736a 02be 5248 0abe ca78 07be
00000170: fb81 6ebd e449 733d 37ee 363c 1db4 82bc
00000180: e0f1 903d 655a bb3d dbaf ff3d 6674 a6bd
00000190: c8fa 7a3c e398 5bbd 5751 94bd d2b1 c7bc
000001a0: caad 183d 3c8e 963d 83f6 593d 76f3 753c
000001b0: af76 d1bc 0d5c ce3c ba23 3abd 474d 3e3d
000001c0: a2d6 953d 26c2 4bbd ebb3 25bd f29a 1bbd
000001d0: 3fa0 6d3d 803a 83bd e26a 54bd e2cf 263d
000001e0: 4ecb 7cbd 88e4 06bd 556d 36bc df10 733d
000001f0: 6b60 43bc 8b7c b1bc 18a8 aa3a 01b1 32bd
00000200: 54f1 12bc a65d ddbd 18e1 9cbc fbbe 96bd
00000210: 1d80 d43d 95ee a73d bfb4 fd3d e6e1 0bbe
00000220: c9e4 833b 5c62 d3bd a4f8 c13d a960 bf3d
00000230: 221b 913d 272e 4f3d 57d6 2c3d 5fe8 56bd
00000240: 07e5 d2bd 6352 34bd 94e8 51bc f693 ca3c
00000250: aa29 91bb e9eb 54bd 49c7 13bd b212 363d
00000260: 6851 80bd 8584 2a3d 3cf8 033d cbe4 803d
00000270: 6022 023e 7cec 343d efa2 343d 602c 123c
00000280: 79b1 b1bd 40a1 f3bd cc8a 913c d5b7 11bb
00000290: 3476 0cbd f469 d83c ee8d 023d 91c3 fd3d
000002a0: 7d4c f1bd 0c2f 10be 8ffb ebbd e225 abbd
000002b0: 0440 a9bd b8fc aabd d518 d8bb 39b1 b5bd
000002c0: fb84 2dbc 22b9 863c 511a a53d a0e2 043d
000002d0: c1c3 4dbd 315e d1bd ba7a ecbc 42cd 993a
000002e0: 666b 963c c869 563b e7d1 3abc 254a 8e3d
000002f0: e1f6 313d 4031 7f3d f618 a4bc 33cb 09bd
00000300: d41e 8abd c71c ff3b 59d1 1d3c dc2d f7bc
00000310: 5178 41bd 6462 6f3d 1681 f3bc 4f96 7b3a
00000320: 9646 a03c 5722 86bd 1857 ec3c 737f 80bd
00000330: 40d5 55bd f299 8c3c 2850 843d 0873 f6bb
00000340: 6edc 7d3d fa19 873d 99f9 263d 84b2 513d
00000350: bbb4 8bbd 31eb 2abd ca07 a93c 3e19 57bd
00000360: 225c 17bd 62fd c8bc 1df6 803b dae1 903d
00000370: 9cf1 383a c0ab 87bc 5977 973c 8daf 803d
00000380: 99f6 803d 36d7 4ebd 7362 02bd 1dd1 4e3c
00000390: 0950 33bc 359f 4dbd be85 803d 868c 253d
000003a0: 2257 8dbd 3e50 d53c 47cb 5f3d 3d82 a33c
000003b0: d8fa 1dbc efcd 4cbd 760e a33c e995 6bbd
000003c0: d7e6 863d f6d3 32bd 3b54 5abc 1f85 6dbc
000003d0: 8dd4 94bc cc0a 61bd 1750 40bd 532d 353c
000003e0: 0b42 61bd 6295 823d fe71 b1bc 7aab 77bd
000003f0: 6f00 33bc cabd 7fbc 20c3 46bd 59ae 21bc

encoder.conv.4.bias f4 [8]
0.024371743 -0.03385439 0.045925267 -0.032698583 -0.056773163 0.058051962 -0.04366675 0.05009682
00000000: 40a7 c73c e7aa 0abd 221c 3c3d f3ee 05bd
00000010: fa8a 68bd e5c7 6d3d e8db 32bd 5332 4d3d

vq.embedding.weight f4 [16, 8]
0.0016844062 0.002407429 0.020575471 0.0050271284 0.017580882 0.057696946 -0.022164254 0.012150927
-0.043519408 0.04317236 -0.04168263 -0.00502374 0.050381236 0.011949964 -0.010065578 -0.015901305
0.042022645 0.0012551397 -0.054656073 -0.03673967 0.04526253 0.03687469 -0.009793453 0.04888451
0.117475875 9.282974e-06 0.12265899 0.07149591 0.13488662 0.12160521 0.04292489 0.0009581616
-0.0055358466 -0.0021094428 0.05105617 0.026194897 0.0031260247 -0.03539875 0.001540758 0.053464737
-0.051902 0.016481977 0.052546278 0.051441766 0.005299695 0.021667 -0.021196103 0.019159056
0.053907834 0.061784714 0.023645982 0.043946408 0.022460058 -0.028436005 0.059213184 0.025598891
-0.014469504 -0.054790862 -0.030045457 0.03520541 0.025426164 0.018019758 0.014763281 -0.017120264
0.027462043 -0.0011541247 0.0008790642 -0.04274279 -0.049382873 0.0362883 -0.017206393 -0.06004095
-0.008212179 -0.00038992614 -0.041605607 -0.010546759 -0.039928116 -0.021578014 0.059904628 -0.058456503
0.0021360002 -0.00032502625 0.051596038 0.008409478 0.035184454 0.029092489 0.020871455 0.0044840686
0.04891458 -0.009103335 -0.04071764 0.038221523 0.04250831 -0.024911389 0.0033484995 0.060497858
0.0181627 3.4145902e-09 0.14267237 0.009722097 0.14653468 0.13868883 0.06465426 -0.0010124197
0.19443052 2.6632538e-09 0.01800483 0.11717312 0.02051977 0.031219302 0.009695026 0.0040146117
-0.035431728 -0.03552369 0.02154366 0.060323603 -0.059046835 -0.04495918 -0.010273814 0.0475199
0.015071029 0.00012576359 0.015753265 0.10964627 0.0029128515 0.008037901 0.0028179158 0.013855744
00000000: 4bc7 dc3a f5c5 1d3b e48d a83c 9cba a43b
00000010: c805 903c a253 6c3d cf91 b5bc af14 473c
00000020: 6841 32bd 80d5 303d 68bb 2abd 309e a4bb
00000030: 8e5c 4e3d c8c9 433c 18ea 24bc 7443 82bc
00000040: f01f 2c3d 8083 a43a 0cdf 5fbd 567c 16bd
00000050: 3465 393d ea09 173d b874 20bc 203b 483d
00000060: 3197 f03d 12be 1b37 a334 fb3d 736c 923d
00000070: b81f 0a3e 270c f93d 02d2 2f3d 232d 7b3a
00000080: 0c66 b5bb 943e 0abb 4620 513d ae96 d63c
00000090: fedd 4c3b 48fe 10bd 42f3 c93a d7fd 5a3d
000000a0: 3197 54bd 3605 873c c43a 573d 9ab4 523d
000000b0: 10a9 ad3b fe7e b13c 73a3 adbc 74f3 9c3c
000000c0: 76ce 5c3d f811 7d3d 38b5 c13c 2601 343d
000000d0: 28fe b73c a0f2 e8bc 8689 723d c4b4 d13c
000000e0: 8011 6dbc 626c 60bd e421 f6bc 8c33 103d
000000f0: 884a d03c 2c9e 933c b0e1 713c cc3f 8cbc
00000100: 14f8 e03c 0046 97ba 0071 663a 1013 2fbd
00000110: b245 4abd 0aa3 143d 6cf4 8cbc 80ed 75bd
00000120: 608c 06bc 006f ccb9 a46a 2abd 50cc 2cbc
00000130: aa8b 23bd 60c4 b0bc 8e5e 753d 1670 6fbd
00000140: 23fc 0b3b 4968 aab9 5e56 533d e8c7 093c
00000150: 931d 103d 5f53 ee3c 9dfa aa3c 18ef 923b
00000160: a85a 483d 2826 15bc 8ac7 26bd 2c8e 1c3d
00000170: 321d 2e3d f812 ccbc 8072 5b3b 9acc 773d
00000180: f1c9 943c 1ba6 6a31 b518 123e 6e49 1f3c
00000190: 300d 163e 7204 0e3e 7469 843d 2bb3 84ba
000001a0: cb18 473e 7504 3731 de7e 933c 76f8 ef3d
000001b0: 1419 a83c 9fbf ff3c e3d7 1e3c 018d 833b
000001c0: dc20 11bd 4a81 11bd 547c b03c e215 773d
000001d0: 18db 71bd 1e27 38bd 8053 28bc 3aa4 423d
000001e0: 7aec 763c 68df 0339 fe0c 813c 398e e03d
000001f0: 8ae5 3e3b 66b1 033c c8ac 383b 3403 633c

decoder.deconv.0.weight f4 [8, 64, 7]
0.080666035 0.05566645 -0.0069902553 -0.0050970335 -0.052521583 -0.028736666 -0.09127647 0.09035074
-0.05027888 -0.09067809 -0.089958236 -0.06536994 -0.06255172 -0.001385396 0.08108056 0.09765817
0.034042895 -0.029854063 -0.09094744 -0.10777278 -0.017658215 0.07740067 -0.017960226 -0.06937067
-0.08902979 -0.0943047 -0.11015562 -0.04869055 -0.008204846 -0.046692666 -0.01702523 -0.041161608
0.004814444 0.030571721 -0.002150683 -0.04648839 -0.024877235 -0.020885484 -0.012648308 -0.017189423
0.010048229 0.021498894 0.11598149 0.045433998 -0.12391422 -0.110511325 -0.09339254 -0.1314118
-0.014968589 0.07739062 -0.05781443 -0.07657777 -0.10865072 -0.1145483 -0.120963305 -0.010213737
0.08286032 -0.011457671 -0.069406696 -0.04868675 -0.05392942 -0.08354921 -0.010656365 0.039999265
0.03281174 -0.098264895 -0.072443314 -0.103125446 -0.1234458 -0.110821486 0.014119085 -0.046389855
-0.02512907 -0.022420943 0.016152771 -0.031400856 -0.022470308 0.033614162 -0.0438783 -0.097047605
-0.08733718 -0.06627245 -0.1171519 -0.042621654 0.054390315 0.044955198 -0.094664544 -0.117937766
-0.09261394 -0.11803742 -0.08812174 0.0978478 -0.027807018 -0.060702283 -0.090360306 -0.149912
-0.06874138 -0.034236267 0.00877279 -0.04394603 -0.11319053 -0.103055954 -0.065582305 -0.12242585
0.014333385 0.04244228 0.0011284776 -0.022275077 0.022585304 -0.041159466 0.01715381 -0.034927983
-0.006002415 -0.03023278 -0.04448934 0.0014616394 -0.019683423 0.03311823 0.028952856 0.0441542
-0.07155127 -0.076072425 -0.09471996 -0.09657117 -0.1105042 -0.058620222 0.0975407 0.053416412
-0.03902639 -0.0943012 -0.09032245 -0.119060636 -0.06354796 0.035608307 -0.020740122 -0.11692809
-0.07501482 -0.12767495 -0.062005166 0.00934448 -0.030522604 0.022017222 -0.017255403 0.0241593
-0.044294868 -0.002908855 0.030342821 0.040283315 -0.0427346 0.014982881 -0.029536331 -0.008789222
-0.02451838 0.04225582 -0.008359211 -0.012782618 -0.009619547 -0.045996524 -0.02916577 -0.04011289
-0.00054025446 -0.012354235 -0.0068295524 -0.046092447 0.028864121 -0.044189863 0.043854296 -0.014267614
0.03306965 0.03054196 0.033429965 -0.042280026 -0.010888686 0.016650397 -0.022663007 0.015889714
-0.029667558 -0.018392093 0.013311817 0.008778149 -0.04126129 0.024627311 0.026075616 -0.046437383
-0.12200514 -0.05266145 -0.085241474 -0.08334997 -0.063522376 -0.026217915 0.019785358 -0.03454585
0.03140775 0.02499498 -0.044507526 0.030362776 0.00089367497 0.042500444 0.016161682 -0.02455501
-0.012364051 -0.032732666 -0.026252957 0.038681496 -0.08272066 -0.12497436 -0.109093405 -0.09560874
-0.056305196 0.009515398 0.042590834 -0.0049551576 -0.053806785 -0.0834226 -0.085943356 -0.14297809
-0.09990089 0.027974783 0.002497666 0.037670273 0.0012689874 -0.03198698 -0.03133283 -0.023287049
0.081048116 -0.038228493 -0.11520189 -0.14643432 -0.06761282 -0.13271572 -0.036316644 0.12734938
-0.001861364 -0.05294514 -0.061495874 -0.09837917 -0.07507148 0.0013771814 0.07451781 -0.0103140725
-0.12335596 -0.09169856 -0.07879551 -0.12440948 -0.06813187 0.09417246 -0.03643983 -0.0647921
-0.059216484 -0.13025136 -0.12575 -0.024798812 -0.027198447 -0.0024678833 0.03959523 -0.04606276
00000000: 3c34 a53d 8102 643d 830e e5bb 0405 a7bb
00000010: df20 57bd 2869 ebbc 28ef babd cf09 b93d
00000020: 3af1 4dbd 6fb5 b9bd 063c b8bd ade0 85bd
00000030: 1e1b 80bd 2d96 b5ba 910d a63d 0201 c83d
00000040: 9070 0b3d 8290 f4bc a742 babd fab7 dcbd
00000050: f6a7 90bc 3e84 9e3d 5321 93bc 3612 8ebd
00000060: 4055 b6bd d322 c1bd 4599 e1bd be6f 47bd
00000070: 9e6d 06bc cf40 3fbd 7f78 8bbc 1399 28bd
00000080: 7cc2 9d3b 8c71 fa3c 79f2 0cbb 9c6a 3ebd
00000090: 58cb cbbc 0918 abbc d93a 4fbc d5d0 8cbc
000000a0: 54a1 243c 731e b03c b487 ed3d 0019 3a3d
000000b0: bdc6 fdbd c353 e2bd 9744 bfbd d190 06be
000000c0: d03e 75bc f97e 9e3d d3ce 6cbd ced4 9cbd
000000d0: 4584 debd 4d98 eabd 9cbb f7bd 8557 27bc
000000e0: acb2 a93d f5b8 3bbc 1925 8ebd c26b 47bd
000000f0: 18e5 5cbd d91b abbd 0998 2ebc 45d6 233d
00000100: 9a65 063d 1b3f c9bd 295d 94bd 6f33 d3bd
00000110: 27d1 fcbd 60f6 e2bd bc53 673c 4a03 3ebd
00000120: 7bdb cdbc 20ac b7bc d152 843c 2f9e 00bd
00000130: a713 b8bc 01af 093d bbb9 33bd e5c0 c6bd
00000140: d6dd b2bd dab9 87bd 56ed efbd 0b94 2ebd
00000150: 61c8 5e3d f122 383d 7cdf c1bd 5b89 f1bd
00000160: 61ac bdbd 9abd f1bd 2c79 b4bd 6d64 c83d
00000170: 8bcb e3bc f5a2 78bd d30e b9bd 8882 19be
00000180: 48c8 8cbd 543b 0cbd c0bb 0f3c c100 34bd
00000190: 70d0 e7bd 000f d3bd 0450 86bd 67ba fabd
000001a0: 93d6 6a3c f5d7 2d3d 6de9 933a 397a b6bc
000001b0: d104 b93c d496 28bd 2686 8c3c a510 0fbd
000001c0: e8af c4bb bcaa f7bc 743a 36bd 7b94 bf3a
000001d0: 213f a1bc fba6 073d 8a2e ed3c 09db 343d
000001e0: 7989 92bd dccb 9bbd 8afc c1bd 1bc7 c5bd
000001f0: 0750 e2bd c21b 70bd 6bc3 c73d 2bcb 5a3d
00000200: 23da 1fbd fd20 c1bd fafa b8bd 10d6 f3bd
00000210: 6f25 82bd 04da 113d 30e7 a9bc ff77 efbd
00000220: 5fa1 99bd 39bd 02be 21f9 7dbd 9719 193c
00000230: 8a0a fabc 765d b43c 345b 8dbc b9e9 c53c
00000240: 896e 35bd 7da2 3ebb 8291 f83c 1e00 253d
00000250: 7a0a 2fbd c27a 753c 2df6 f1bc ab00 10bc
00000260: c5da c8bc 7014 2d3d 12f5 08bc 306e 51bc
00000270: 4e9b 1dbc da66 3cbd 0eed eebc 6a4d 24bd
00000280: dd9f 0dba 6b69 4abc 70ca dfbb 6fcb 3cbd
00000290: 7374 ec3c 6e00 35bd 90a0 333d b6c2 69bc
000002a0: 0b74 073d 2233 fa3c dced 083d d22d 2dbd
000002b0: 7666 32bc 6a66 883c c5a7 b9bc 252b 823c
000002c0: 6109 f3bc 04ab 96bc cf19 5a3c 3ad2 0f3c
000002d0: 9901 29bd 37bf c93c 889c d53c 2035 3ebd
000002e0: d5dd f9bd 88b3 57bd 1593 aebd 64b3 aabd
000002f0: 0518 82bd f4c6 d6bc e714 a23c f37f 0dbd
00000300: 6aa5 003d 46c2 cc3c 864d 36bd 5bbb f83c
00000310: 8345 6a3a f214 2e3d 8165 843c 9727 c9bc
00000320: 9792 4abc b012 06bd 7110 d7bc 7d70 1e3d
00000330: 7369 a9bd 8ff2 ffbd 5d6c dfbd 84ce c3bd
00000340: 47a0 66bd 79e6 1b3c ba73 2e3d e05e a2bb
00000350: 8164 5cbd 78d9 aabd 1203 b0bd d968 12be
00000360: d698 ccbd 5f2b e53c e2af 233b 254c 1a3d
00000370: 2754 a63a c804 03bd db56 00bd 7bc4 bebc
00000380: 8efc a53d 7b95 1cbd f8ee ebbd e1f2 15be
00000390: 9778 8abd a1e6 07be c3c0 14bd e067 023e
000003a0: 03f9 f3ba 01dd 58bd 19e3 7bbd 057b c9bd
000003b0: 13bf 99bd 8a82 b43a cb9c 983d 5bfc 28bc
000003c0: 0da2 fcbd 74cc bbbd 8a5f a1bd 66ca febd
000003d0: b988 8bbd 7edd c03d ee41 15bd b8b1 84bd
000003e0: fc8c 72bd 9d60 05be 9cc4 00be e126 cbbc
000003f0: 47cf debc 36bc 21bb 9c2e 223d 4eac 3cbd

decoder.deconv.0.bias f4 [64]
0.013993218 0.017791873 0.033225942 0.043521594 -0.008612485 -0.015996175 0.046938628 0.06414299
0.040545862 0.03520544 -0.011752219 0.018615266 0.031181462 0.033271447 0.061554346 -0.040637206
-0.023482472 0.04927409 0.02048671 0.03225637 -0.037160072 -0.036512222 -0.012200298 -0.03220936
-0.026508447 -0.017108327 0.016055893 -0.026154643 -0.042220797 0.021201631 0.018713307 -0.017562956
0.036831394 0.054244936 0.04267803 0.02395498 -0.030591248 0.03797841 0.0034498181 -0.016458876
0.023309672 0.04285029 -0.023353666 0.028361978 0.015296226 -0.040320374 -0.033063367 0.0460237
0.05242335 -0.020802489 0.030592808 0.017139856 0.02512502 0.018381821 0.03519243 0.04866078
-0.03795496 0.056919582 0.04336951 -0.032450456 -0.010110472 0.026813362 0.030557226 0.06534778
00000000: cf43 653c 43c0 913c ed17 083d b343 323d
00000010: 611b 0dbc 690a 83bc b842 403d 665d 833d
00000020: 6b13 263d 9433 103d 618c 40bc 0b7f 983c
00000030: 4470 ff3c a447 083d 6920 7c3d 3373 26bd
00000040: 505e c0bc a1d3 493d bfd3 a73c 411f 043d
00000050: 2935 18bd d78d 15bd c2e3 47bc f6ed 03bd
00000060: 3e28 d9bc c326 8cbc a687 833c 4342 d6bc
00000070: b7ef 2cbd 0baf ad3c a64c 993c 30e0 8fbc
00000080: 84dc 163d f02f 5e3d 28cf 2e3d 3c3d c43c
00000090: 7f9a fabc 408f 1b3d 5816 623b c4d4 86bc
000000a0: edf3 be3c c983 2f3d 3050 bfbc 6157 e83c
000000b0: 069d 7a3c fa26 25bd 746d 07bd 5983 3c3d
000000c0: deb9 563d fb69 aabc c59d fa3c e268 8c3c
000000d0: fcd2 cd3c 7995 963c f025 103d 8750 473d
000000e0: a976 1bbd 8224 693d 3aa4 313d c5ea 04bd
000000f0: 65a6 25bc b2a7 db3c 2653 fa3c 0fd5 853d

decoder.deconv.2.weight f4 [64, 64, 3]
-0.039345723 0.038332928 0.034619536 -0.032554563 0.040556483 0.030506616 0.071570896 0.050889526
-0.020569323 0.066108465 -0.058128696 0.04737205 -0.022359818 0.022843566 -0.029072337 0.05684703
0.05192554 -0.027545916 -0.03694695 0.0051747067 0.017271822 -0.01677141 -0.028513223 0.06995995
0.041304808 -0.036064286 0.0573292 -0.023362365 -0.069985725 -0.06797895 -0.045720007 -0.01740599
-0.05837074 0.07035271 -0.055355553 0.045571603 0.060785256 0.008372116 -0.06932519 -0.062158085
-0.06575056 -0.0072810943 -0.06548144 -0.0024537414 -0.04030976 0.002304304 -0.028890612 -0.0022477896
0.039707072 -0.059320204 0.0625765 -0.025290502 0.047999825 0.01751882 -0.042950552 -0.0362574
-0.0017461721 -0.053965345 0.02596464 -0.05379009 -0.05722438 0.0149754 0.020530341 0.039569173
0.059297096 -0.023366941 -0.00401713 0.041255537 0.005955446 0.01484716 -0.03160209 0.048122067
0.0560919 0.060068827 0.04734504 0.043086167 -0.03248543 0.062475707 0.0017508265 0.055725988
-0.024405105 0.045452345 -0.019908726 -0.044599544 -0.017430121 0.0074206293 0.022387581 -0.054532364
-0.040175542 -0.05718447 -0.0005756308 -0.0022353667 0.015057164 0.04587852 0.047889594 -0.002768231
0.02543724 -0.053681467 -0.061064377 -0.0056571905 -0.053811092 -0.042155337 0.03795118 -0.05080227
0.0062613063 -0.03592746 0.042556554 -0.051244948 -0.048757352 0.0072204587 -0.0010611776 0.01912144
-0.05117251 0.014471674 -0.040899992 0.012740368 0.021877643 0.04311779 -0.024434812 -0.028813
-0.042257816 -0.0651084 -0.045990963 -0.010041591 0.045365915 -0.06517731 0.009110709 0.027424756
0.00850445 -0.018028783 -0.023069788 -0.029266587 -0.07180567 -0.061000545 0.002382636 0.045568824
-0.018254032 -0.023459323 -0.050143097 -0.061628334 -0.04521864 0.018454237 -0.05409676 0.043313548
-0.010724331 0.025403505 0.043966915 -0.027868792 0.036759853 -0.048341345 -0.061859176 -0.044787895
-0.0021229917 0.0026310186 -0.02545564 0.02339862 -0.059755955 0.0329404 0.045586605 -0.057388436
0.056608777 -0.0024633599 -0.0076660523 0.042731464 -0.049389526 -0.055207714 0.054681227 -0.056532588
-0.011206153 -0.07149948 0.04205922 0.016223146 -0.043808956 -0.029249096 0.058977935 -0.03559328
0.0066807983 -0.01378668 -0.0026409985 -0.059056155 0.004256445 0.0480006 0.047098495 0.055128746
-0.009009114 0.027315324 -0.010449726 -0.040423993 -0.06294336 -0.056059286 0.071211666 0.046525024
0.01082447 -0.00612574 -0.05786643 -0.048801143 -0.09076866 0.07856621 -0.015334413 0.06021999
0.019459622 0.02130375 -0.009584725 0.057109844 0.06260032 0.054988932 -0.024281768 -0.03872476
-0.0033544349 0.06456039 0.019954726 -0.0034133228 -0.05992098 -0.010089014 -0.026778013 0.082519665
-0.054195356 -0.048627056 -0.05852549 0.031393602 0.037995644 -0.0036506078 -0.025138717 0.042338874
-0.032194357 -0.036901742 0.0117501635 -0.0048716627 0.0023475024 -0.04113627 -0.058837585 -0.03042046
0.04999466 0.009178163 0.03963731 -0.0016416268 -0.037758198 -0.03232411 0.026643561 0.04047909
-0.0013934413 -0.04887193 -0.04796267 0.072712675 -0.0076595256 -0.045811974 0.06470696 0.016429538
-0.02952813 -0.033455975 -0.06765873 0.027406197 0.04269004 0.04741745 0.022215577 -0.0026526386
00000000: fb28 21bd fd02 1d3d 37cd 0d3d ef57 05bd
00000010: 8e1e 263d 03e9 f93c c393 923d 8971 503d
00000020: ff80 a8bc e063 873d 5b18 6ebd 3209 423d
00000030: f02b b7bc 6e22 bb3c 1c29 eebc 6ed8 683d
00000040: e0af 543d f9a7 e1bc af55 17bd 9690 a93b
00000050: a37d 8d3c 3264 89bc 9094 e9bc 2a47 8f3d
00000060: 3b2f 293d 25b8 13bd 06d2 6a3d 6e62 bfbc
00000070: ad54 8fbd 8c38 8bbd e744 3bbd 0297 8ebc
00000080: 2816 6fbd 1515 903d 81bc 62bd 4aa9 3a3d
00000090: f6f9 783d 332b 093c 5dfa 8dbd 7a99 7ebd
000000a0: 3ba8 86bd 3f96 eebb 221b 86bd f3ce 20bb
000000b0: d91b 25bd ce03 173b 01ac ecbc a74f 13bb
000000c0: e2a3 223d bef9 72bd 1c28 803d 072e cfbc
000000d0: 779b 443d a183 8f3c ebec 2fbd a482 14bd
000000e0: d0df e4ba c40a 5dbd ccb3 d43c ff52 5cbd
000000f0: 1d64 6abd 615b 753c 3f2f a83c 4913 223d
00000100: 83e1 723d 076c bfbc 21a2 83bb 91fb 283d
00000110: e725 c33b 8141 733c 3171 01bd a51b 453d
00000120: 9fc0 653d bb0a 763d dfec 413d 1f7b 303d
00000130: 710f 05bd 87e6 7f3d fd7b e53a ef40 643d
00000140: 37ed c7bc 3d2c 3a3d a017 a3bc 03ae 36bd
00000150: 9dc9 8ebc c028 f33b 2966 b73c 545d 5fbd
00000160: 1c8f 24bd 433a 6abd eee5 16ba 3b7f 12bb
00000170: 53b2 763c 1deb 3b3d e127 443d 366b 35bb
00000180: c261 d03c 19e1 5bbd a41e 7abd f45f b9bb
00000190: 0569 5cbd 13ab 2cbd b272 1b3d 0b16 50bd
000001a0: a52b cd3b ac28 13bd c84f 2e3d 39e6 51bd
000001b0: cab5 47bd 9999 ec3b 3617 8bba 91a4 9c3c
000001c0: 449a 51bd 9a1a 6d3c c086 27bd fabc 503c
000001d0: be38 b33c 489c 303d 842b c8bc 3e09 ecbc
000001e0: 8816 2dbd 8e57 85bd 0561 3cbd 7c85 24bc
000001f0: 9cd1 393d ae7b 85bd 1545 153c e2a9 e03c
00000200: 4056 0b3c 19b1 93bc dafc bcbc 7bc0 efbc
00000210: da0e 93bd b5db 79bd 0026 1c3b 60a6 3a3d
00000220: 7b89 95bc c42d c0bc d962 4dbd fe6d 7cbd
00000230: 2e37 39bd 572d 973c 9094 5dbd 8c69 313d
00000240: 1bb5 2fbc 031b d03c a716 343d 184d e4bc
00000250: 8091 163d 9301 46bd 0c60 7dbd 8373 37bd
00000260: e421 0bbb 2b6d 2c3b 5988 d0bc 76ae bf3c
00000270: a9c2 74bd 83ec 063d 05b9 3a3d 2310 6bbd
00000280: 9bde 673d 5270 21bb 8233 fbbb 3007 2f3d
00000290: ac4c 4abd 7c21 62bd 6cf9 5f3d b78e 67bd
000002a0: 039a 37bc 526e 92bd 4a46 2c3d 67e6 843c
000002b0: 0571 33bd cd9b efbc d992 713d 42ca 11bd
000002c0: 99ea da3b 87e1 61bc 9a14 2dbb dee4 71bd
000002d0: a679 8b3b 479c 443d 5aea 403d aece 613d
000002e0: f69a 13bc 63c4 df3c 5435 2bbc a193 25bd
000002f0: 73e8 80bd 6c9e 65bd 6cd7 913d 0691 3e3d
00000300: 1e59 313c 6eba c8bb 5a05 6dbd b5e3 47bd
00000310: ebe4 b9bd 52e7 a03d 313d 7bbc 3ca9 763d
00000320: c969 9f3c 3485 ae3c 4009 1dbc 03ec 693d
00000330: 9934 803d 133c 613d 8fea c6bc db9d 1ebd
00000340: 14d6 5bbb 3d38 843d 1878 a33c 0eb2 5fbb
00000350: b46f 75bd 644c 25bc 905d dbbc 1200 a93d
00000360: f3fb 5dbd 2a2d 47bd 6db8 6fbd 9496 003d
00000370: 52a1 1b3d 093f 6fbb b6ef cdbc 876b 2d3d
00000380: 3bde 03bd 4826 17bd c283 403c 78a2 9fbb
00000390: 8ed8 193b 817e 28bd aeff 70bd 5434 f9bc
000003a0: 33c7 4c3d 0160 163c bb5a 223d db2b d7ba
000003b0: 57a8 1abd 4966 04bd 9943 da3c 67cd 253d
000003c0: 22a4 b6ba ef2d 48bd 8174 44bd 62ea 943d
000003d0: c2fc fabb 56a5 3bbd 1585 843d 3d97 863c
000003e0: fae4 f1bc 2209 09bd a990 8abd f682 e03c
000003f0: c0db 2e3d cd38 423d 71fd b53c e4d7 2dbb

decoder.deconv.2.bias f4 [64]
-0.034316283 0.027089117 0.063053705 0.022672731 -0.029768962 -0.022136763 0.039652202 -0.06620914
-0.067702904 0.017622795 -0.05485051 0.04964241 -0.062390734 -0.020170685 -0.0144839585 0.017021013
0.080414705 0.0421103 0.06614462 0.0071872575 0.0032807144 0.06841297 0.08891332 -0.05983007
-0.037699837 0.0772408 -0.0114951115 -0.0061984174 -0.032481626 -0.00875384 -0.054105055 0.07965058
0.023735236 -0.034632877 -0.042125404 0.040762637 0.023218878 -0.067562066 -0.018469844 0.07150362
-0.012994945 0.032636356 0.079440795 -0.021397691 0.09539182 -0.057448957 -0.068303704 0.06302161
-0.033583917 0.06109478 -0.051481 0.0764621 0.05005026 0.037647467 0.009804272 0.09513427
0.06135156 -0.041996613 -0.0033792553 0.09153732 0.06578401 -0.029026473 -0.063230954 0.04408986
00000000: 3b8f 0cbd ffe9 dd3c 4d22 813d 2abc b93c
00000010: 0ade f3bc 2858 b5bc 596a 223d a898 87bd
00000020: d2a7 8abd ae5d 903c eeaa 60bd d755 4b3d
00000030: 6d8d 7fbd fe3c a5bc 204e 6dbc a76f 8b3c
00000040: 77b0 a43d da7b 2c3d d576 873d 1683 eb3b
00000050: 4101 573b 191c 8c3d 3018 b63d 6010 75bd
00000060: 256b 1abd 6d30 9e3d fe55 3cbc 181c cbbb
00000070: 740b 05bd 446c 0fbc 439d 5dbd d81f a33d
00000080: 6670 c23c 34db 0dbd b08b 2cbd b9f6 263d
00000090: 8435 be3c fb5d 8abd 124e 97bc 7d70 923d
000000a0: c0e8 54bc b3ad 053d dbb1 a23d 364a afbc
000000b0: c95c c33d 994f 6bbd d0e2 8bbd 7911 813d
000000c0: 4a8f 09bd 853e 7a3d bedd 52bd 2998 9c3d
000000d0: 8001 4d3d 3b34 1a3d 19a2 203c c2d5 c23d
000000e0: c64b 7b3d a404 2cbd 7f76 5dbb eb77 bb3d
000000f0: c4b9 863d edc8 edbc 3b7f 81bd 9297 343d

decoder.deconv.4.weight f4 [64, 64, 3]
-0.05328684 0.031473227 -0.047530513 -0.06917214 0.007389133 -0.038447052 0.007855684 -0.06333756
-0.052436147 0.068678625 0.049068566 -0.048124116 -0.057334863 -0.043689225 -0.018279877 0.019480193
0.018698791 -0.0014412234 -0.017442347 0.061802763 -0.026831988 0.03044883 0.033764377 -0.05277616
0.019885696 -0.06688008 0.06683206 -0.064757824 0.06921092 -0.06983071 -0.03312221 -0.04648195
0.025439579 0.0041263304 -0.04395846 0.04350269 -0.041021097 -0.020843953 -0.040316258 0.039032876
0.015050101 -0.04018432 0.024356918 0.057814654 -0.0053883493 -0.030156346 0.04440976 0.037013896
0.05381886 -0.064618334 0.054435227 -0.024245655 -0.029526534 -0.038132697 0.010473859 0.06559639
0.048409473 0.04584409 -0.036015436 -0.04486674 0.028165137 0.008464248 -0.06771987 0.025390144
-0.016409121 0.006269729 0.03454706 -0.03066088 -0.026088707 -0.024690844 -0.03184547 0.0068669366
0.0676215 0.02569322 -0.06363093 0.057558786 -0.009987391 0.023960415 0.020112803 0.06757441
-0.061714616 0.06350373 0.034782454 -0.022965336 -0.047464482 0.06453753 0.031155212 -0.02617263
-0.022605877 -0.015463063 -0.041286644 0.051217135 0.07042029 0.047034394 -0.04410516 0.037251163
0.015828338 -0.042774938 0.02844309 0.020973887 0.015292229 -0.003444777 0.029965708 -0.039285474
0.01485049 -0.055902973 0.05985654 0.015518915 -0.0069368547 -0.03281198 -0.026164062 0.011262651
0.020448826 -0.07002379 0.056354787 0.06324847 -0.049907662 0.030232381 -0.013924434 -0.010975166
-0.02604114 -0.064714044 0.07088664 0.014126307 -0.041799523 0.028029183 0.056178704 -0.032266263
0.07007987 0.0033185943 0.024982018 0.005487088 0.019201992 -0.022503646 -0.059485305 -0.04652904
0.07040493 0.023227071 -0.015105626 -0.022793049 0.0044777365 0.03917758 -0.042449143 -0.057453405
0.00069638516 0.06505942 0.07144776 0.007372916 0.046397652 0.070206635 0.044699598 0.05467854
0.047721934 0.035617523 0.010696595 0.032609098 0.026850415 -0.01116583 0.037267063 0.015910152
0.00126072 0.026648052 -0.00525069 -0.05297854 0.03294507 0.02936444 -0.0064128 -0.04735826
-0.020870244 -0.018390143 -0.018058473 -0.017054912 -0.04129289 0.020348083 -0.028746499 -0.06475803
-0.016045714 -0.0043411693 0.012114426 -0.00671614 0.013480579 0.06108187 -0.04485781 0.020925622
-0.04707371 -0.024738058 0.06710917 -0.04418019 0.032648176 -0.059312623 0.0522458 -0.0006245313
-0.022878151 0.0012067866 -0.06170271 -0.04412259 -0.0031259041 -0.0010248679 -0.072043955 -0.05613088
-0.0556878 -0.0051923813 0.0047801407 0.071387194 -0.044699125 0.02256816 0.06046114 0.029752137
-0.0211609 -0.04863814 -0.031345267 0.06367008 -0.010490317 -0.016036466 0.02019646 -0.038253203
0.018934906 -0.1216606 -0.03732544 0.0023505941 -0.046480913 -0.05041706 -0.045742907 -0.03349316
0.06200464 -0.006237647 -0.027339369 -0.02639011 0.015179357 -0.026847947 1.1260051e-05 0.06213193
-0.024131991 -0.070042945 -0.007012623 -0.08988651 -0.06282715 0.031171395 -0.03428394 0.059988283
-0.07522004 0.028165916 -0.0008768427 -0.08029181 -0.06295063 -0.011441049 -0.023915108 -0.03847005
-0.019169826 -0.004585725 -0.07609405 -0.08807703 -0.022091439 -0.05057943 -0.014793406 -0.024208393
00000000: 4d43 5abd 12ea 003d 5baf 42bd 1faa 8dbd
00000010: 8a20 f23b a87a 1dbd 20b5 003c 1fb7 81bd
00000020: 49c7 56bd 61a7 8c3d 1ffc 483d cb1d 45bd
00000030: f6d7 6abd 79f3 32bd aebf 95bc ed94 9f3c
00000040: 352e 993c 6fe7 bcba 41e3 8ebc e524 7d3d
00000050: c2ce dbbc d36f f93c 844c 0a3d d12b 58bd
00000060: 54e7 a23c 6cf8 88bd 3fdf 883d c09f 84bd
00000070: 74be 8d3d 6703 8fbd 28ab 07bd db63 3ebd
00000080: aa66 d03c 2b36 873b c90d 34bd e02f 323d
00000090: bd05 28bd f0c0 aabc a922 25bd f0e0 1f3d
000000a0: b394 763c 5098 24bd 2988 c73c 0fcf 6c3d
000000b0: c090 b0bb 710a f7bc 02e7 353d e29b 173d
000000c0: 2a71 5c3d 9e56 84bd 79f7 5e3d d39e c6bc
000000d0: a1e1 f1bc 0831 1cbd 8c9a 2b3c 6657 863d
000000e0: 0349 463d 03c7 3b3d ec84 13bd 30c6 37bd
000000f0: 93ba e63c a1ad 0a3c b7b0 8abd fefe cf3c
00000100: 6c6c 86bc 4d72 cd3b 3881 0d3d 872c fbbc
00000110: fcb7 d5bc 7444 cabc 6570 02bd 0a04 e13b
00000120: 247d 8a3d 967a d23c ef50 82bd c3c2 6b3d
00000130: 27a2 23bc a248 c43c 9bc3 a43c 7464 8a3d
00000140: 77c8 7cbd 3e0e 823d 0c78 0e3d cd21 bcbc
00000150: 1e6a 42bd 412c 843d 3739 ff3c fc67 d6bc
00000160: f62f b9bc c958 7dbc 2f1c 29bd 0fc9 513d
00000170: 8338 903d 23a7 403d 9da7 34bd ad94 183d
00000180: 6eaa 813c c634 2fbd 7c01 e93c 6ed1 ab3c
00000190: 428c 7a3c c5c1 61bb a57a f53c cee9 20bd
000001a0: 784f 733c 84fa 64bd 222c 753d 0c43 7e3c
000001b0: 8e4e e3bb db65 06bd 0456 d6bc fb86 383c
000001c0: 4c84 a73c a268 8fbd 47d4 663d 6a88 813d
000001d0: fa6b 4cbd e6a9 f73c 4f23 64bc 2fd1 33bc
000001e0: 3b54 d5bc cc88 84bd 042d 913d 0772 673c
000001f0: fa35 2bbd 759d e53c a41b 663d a129 04bd
00000200: 0986 8f3d c67c 593b 17a7 cc3c 08cd b33b
00000210: 7f4d 9d3c 9159 b8bc dda6 73bd 3c95 3ebd
00000220: 7630 903d b346 be3c 967d 77bc 7db8 babc
00000230: fab9 923b ac78 203d 27df 2dbd 4354 6bbd
00000240: 9e8d 363a e03d 853d 3453 923d 8198 f13b
00000250: 770b 3e3d 7fc8 8f3d ed16 373d 9bf6 5f3d
00000260: 1378 433d aee3 113d c540 2f3c 1e91 053d
00000270: 67f5 db3c e3f0 36bc 59a5 183d 0256 823c
00000280: be3e a53a 044d da3c fb0d acbb 0700 59bd
00000290: 69f1 063d b28d f03c 7722 d2bb bcfa 41bd
000002a0: 13f8 aabc eda6 96bc 5def 93bc beb6 8bbc
000002b0: bc22 29bd 06b1 a63c c77d ebbc dc9f 84bd
000002c0: 4d72 83bc 5e40 8ebb 967b 463c 1113 dcbb
000002d0: a5dd 5c3c fc30 7a3d d3bc 37bd 366c ab3c
000002e0: 5dd0 40bd 78a7 cabc 8870 893d 49f6 34bd
000002f0: 18ba 053d cbf1 72bd b1ff 553d 96b7 23ba
00000300: f66a bbbc 0a2d 9e3a fbbb 7cbd e4b9 34bd
00000310: f8db 4cbb dc54 86ba c88b 93bd 7ee9 65bd
00000320: e418 64bd da24 aabb baa2 9c3b 7333 923d
00000330: 6e16 37bd dde0 b83c 1aa6 773d c1ba f33c
00000340: a059 adbc c938 47bd e563 00bd 7565 823d
00000350: 94df 2bbc e85e 83bc 0c73 a53c 64af 1cbd
00000360: 601d 9b3c 3129 f9bd 90e2 18bd 6d0c 1a3b
00000370: c562 3ebd 1e82 4ebd ea5c 3bbd 2030 09bd
00000380: 94f8 7d3d 2d65 ccbb d0f6 dfbc 1230 d8bc
00000390: d6b2 783c 3af0 dbbc 8de9 3c37 0d7e 7e3d
000003a0: 74b0 c5bc ad72 8fbd 25ca e5bb 6b16 b8bd
000003b0: 85ab 80bd 275b ff3c 516d 0cbd 46b6 753d
000003c0: f70c 9abd 35bc e63c ebdb 65ba 0870 a4bd
000003d0: 43ec 80bd 3d73 3bbc 9ee9 c3bc c592 1dbd
000003e0: 0a0a 9dbc d943 96bb 33d7 9bbd bb61 b4bd
000003f0: 1bf9 b4bc 602c 4fbd 0b60 72bc ae50 c6bc

decoder.deconv.4.bias f4 [64]
-0.038405817 0.035700895 -0.009419118 -0.003365834 0.0068397247 -0.026410708 -0.011477527 -0.06563444
0.04993393 0.07608872 -0.011824913 0.029302968 -0.0822735 -0.04769004 -0.009742512 -0.03709764
0.060215235 0.07734842 0.038718536 0.035221074 0.06631011 -0.067769535 0.023321535 0.038945694
0.05338095 0.04115156 0.08677636 0.013107578 -0.061548207 -0.042468306 0.036888264 -0.0017176588
-0.00076817756 -0.027029065 -0.017817069 0.05880819 0.05889276 0.019714484 -0.050853934 0.04195266
-0.061685134 -0.03294728 0.049510647 -0.048145916 0.05787205 0.014203967 0.08985134 -0.051939256
-0.04904804 0.041419383 0.08595766 -0.0040541887 -0.05489394 -0.05532286 -0.004365991 0.04031406
0.034512904 0.08734186 0.04420023 0.06902302 0.036005262 -0.060607594 0.055949226 -0.04158151
00000000: 6b4f 1dbd 1a3b 123d a552 1abc 5395 5cbb
00000010: c51f e03b 455b d8bc 3d0c 3cbc 596b 86bd
00000020: 8587 4c3d 67d4 9b3d 48bd 41bc c70c f03c
00000030: 027f a8bd a256 43bd 0f9f 1fbc b2f3 17bd
00000040: 40a4 763d d968 9e3d 5497 1e3d f943 103d
00000050: 98cd 873d c1ca 8abd ce0c bf3c 8585 1f3d
00000060: fca5 5a3d 8a8e 283d ceb7 b13d 2bc1 563c
00000070: f919 7cbd 3ff3 2dbd 2618 173d 1123 e1ba
00000080: 865f 49ba 0f6c ddbc 1af5 91bc dbe0 703d
00000090: 8939 713d 4580 a13c 374c 50bd 8dd6 2b3d
000000a0: 8da9 7cbd baf3 06bd adcb 4a3d a734 45bd
000000b0: 3e0b 6d3d c1b7 683c fb03 b83d 42be 54bd
000000c0: 99e6 48bd 5fa7 293d 920a b03d 00d9 84bb
000000d0: 78d8 60bd 399a 62bd 9610 8fbb 5b20 253d
000000e0: 675d 0d3d 4ae0 b23d 4d0b 353d f15b 8d3d
000000f0: 417a 133d ab3f 78bd 042b 653d 6051 2abd
