model/vqvae/num_embedding_64_commitment_cost_0.4.pt (torch, 270788 bytes, 17 tensors)

encoder.conv.0.weight f4 [64, 5, 5]
0	0xbda6c5e4	-0.081432134
1	0x3e423a88	0.1896764
2	0xbdc1a421	-0.09455133
3	0xbd5a71b4	-0.053331092
4	0x3e4bc35a	0.1989874
5	0x3e0fe3d8	0.14051759
6	0x3d2750a2	0.04084838
7	0x3d17e98b	0.03708796
8	0xbda4af86	-0.08041291
9	0xbdc21291	-0.094761975
10	0x3dca82ac	0.09888205
11	0xbd2dcd15	-0.04243191
12	0x3e1af552	0.15132645
13	0xbdb186f2	-0.08668317
14	0xbdb6c005	-0.089233436
15	0xbdbcff50	-0.092283845
16	0xbe474098	-0.19458234
17	0xbd913d7b	-0.070918046
18	0xbd2d4953	-0.042306256
19	0xbe5064ed	-0.20351
20	0xbe2529a7	-0.1612917
21	0xbd01b283	-0.031664383
22	0x3e22c6c6	0.15896139
23	0xbe2fb3f3	-0.17158489
24	0x3c8382be	0.016053554
25	0xbe518c94	-0.20463783
26	0xbe1c1ba5	-0.1524492
27	0xbd56a8a5	-0.052406926
28	0x3e2152c6	0.15754232
29	0x3dfda4a6	0.1238492
30	0x3d3f63f9	0.0467262
31	0x3e3d23ec	0.18470734
32	0x3ddd093c	0.10792777
33	0x3e26ab32	0.16276243
34	0xbda8db57	-0.08244961
35	0x3b011c36	0.0019700653
36	0x3e45f809	0.19332899
37	0x3d8f0855	0.06984011
38	0x3c686475	0.014184107
39	0x3e01f3dd	0.12690683
40	0xbd9d7019	-0.076873966
41	0xbde1dce4	-0.1102846
42	0x3d1cecc5	0.03831174
43	0xbd2bea4a	-0.041971482
44	0xbda286f6	-0.07935898
45	0xbe048c55	-0.12944157
46	0xbe092550	-0.1339314
47	0xbda46f82	-0.08029081
48	0xbe029276	-0.12751183
49	0xbe1a91b4	-0.15094644
50	0x3e1f321c	0.15546459
51	0xbdadd382	-0.084876075
52	0x3daab1b1	0.08334673
53	0xbe13cc2e	-0.14433357
54	0xbd8fbdef	-0.07018649
55	0xbdfc7a9b	-0.12328073
56	0x3e2924b3	0.16517906
57	0x3e04b059	0.12957896
58	0x3c68201a	0.01416781
59	0x3dbf4fc5	0.09341387
60	0x3b7445b9	0.0037273003
61	0xbe027ae6	-0.12742195
62	0xbe0f7181	-0.14008142
63	0x3e31dc85	0.17369278
64	0xbd259784	-0.0404277
65	0xbe43018d	-0.1904356
66	0x3bcdd9ce	0.006282068
67	0xbe35a71b	-0.17739527
68	0x3c566b7f	0.0130871525
69	0x3e054007	0.13012706
70	0xbd8464e6	-0.06464557
71	0x3e37248b	0.17885034
72	0x3d7e1aa6	0.062037133
73	0xbe214ecc	-0.15752715
74	0xbd3e751c	-0.046498403
75	0x3d34e015	0.044159014
76	0xbbb89f44	-0.0056342203
77	0xbe231191	-0.1592467
78	0x3e2a9677	0.1665896
79	0xbe163bef	-0.146713
80	0x3dc47859	0.09593267
81	0x3dd8a1f9	0.10577769
82	0xbdd68725	-0.104749955
83	0x3db70cfb	0.08938023
84	0x3e295897	0.165377
85	0xbe33d6a4	-0.17562348
86	0x3d96a6b1	0.073560126
87	0xbd4a4f8f	-0.04939228
88	0xbd86a95b	-0.06575271
89	0x3db3c213	0.08777251
90	0xbd6a4eef	-0.057204183
91	0x3d1210c4	0.03566052
92	0xbd284f98	-0.04109153
93	0xbde7aa62	-0.11311795
94	0x3de9649e	0.11396144
95	0x3dfbabaa	0.12288602
96	0x3e2d048a	0.16896263
97	0x3e2a70cc	0.16644591
98	0xbcbc6de9	-0.023001628
99	0x3db86780	0.09004116
100	0xbd9f2942	-0.07771541
101	0xbe20edab	-0.15715663
102	0x3dea461f	0.11439156
103	0xbdf0cd16	-0.11757867
104	0x3e420c04	0.18949896
105	0xbe00da35	-0.1258324
106	0x3e099ffa	0.13439932
107	0xbd521883	-0.051292907
108	0x3def042b	0.11670717
109	0x3d1d5562	0.038411506
110	0xbcad5271	-0.021157475
111	0x3de5f34b	0.11228045
112	0x3d44b3d3	0.048023056
113	0x3e0c045e	0.13673541
114	0x3e0d4bc5	0.13798435
115	0x3d9c66dd	0.07636807
116	0x3d341a81	0.04397059
117	0xbe38f45d	-0.18061967
118	0xbd975a71	-0.07390297
119	0xbdb5aeab	-0.08871206
120	0x3e3e3494	0.18574744
121	0x3de07d91	0.1096145
122	0xbe2b94ac	-0.16755933
123	0x3db18bdd	0.08669255
124	0x3e263ecd	0.16234894
125	0x3e33d5bd	0.17562003
126	0x3e528389	0.20557989
127	0xbe34ce54	-0.17656833
128	0x3e118749	0.14211763
129	0x3dc48f22	0.09597613
130	0x3e0a1ae8	0.13486826
131	0xbdd3f560	-0.10349536
132	0xbdf8a355	-0.12140528
133	0xbd700f86	-0.058608554
134	0x3e16d119	0.14728202
135	0x3d5c01a3	0.0537125
136	0xbe1cf0ab	-0.15326183
137	0xbe0d18fb	-0.1377906
138	0xbdee5f28	-0.11639243
139	0xbe258b3d	-0.16166396
140	0x3a19922b	0.00058582675
141	0xbe127a08	-0.14304364
142	0xbd3747bc	-0.044746146
143	0xbe1746c3	-0.14773087
144	0xbe20c8ab	-0.15701549
145	0x3df04c82	0.11733343
146	0xbe08702c	-0.1332404
147	0x3dfb8fd8	0.122832954
148	0xbdbeee3b	-0.093227826
149	0x3d02cad5	0.031931717
150	0xbd7dbec9	-0.061949525
151	0xbe1824ac	-0.14857739
152	0xbd9bea01	-0.07612992
153	0xbe0a8729	-0.13528122
154	0xbd2ad884	-0.04171039
155	0x3db15434	0.086586386
156	0x3b5e2405	0.003389598
157	0xbe412381	-0.188612
158	0xbd9282ad	-0.07153831
159	0x3d73178b	0.059348624
160	0xbe1f10e9	-0.15533794
161	0x3e2b43cf	0.16725086
162	0xbcd78587	-0.026308788
163	0xbd9540f6	-0.07287781
164	0xbdf8e104	-0.12152293
165	0x3d7d2c21	0.061809663
166	0xbdef051b	-0.11670896
167	0x3da19798	0.07890242
168	0x3cac08aa	0.021000225
169	0xbd90b86b	-0.07066425
170	0xbe272e94	-0.16326362
171	0xbc7d2ec9	-0.015453049
172	0x3e4bdaa4	0.19907624
173	0x3c9e5212	0.019326244
174	0x3d615ae1	0.05501831
175	0xbe25b7be	-0.16183373
176	0xbdc79c41	-0.097466
177	0x3e41cec1	0.18926527
178	0x3deeab45	0.11653761
179	0xbd60c79f	-0.054877874
180	0xbde4fcf7	-0.11181062
181	0x3c616496	0.013756892
182	0x3d7e9a55	0.0621589
183	0x3d818f13	0.06326117
184	0xbe3ca00b	-0.18420427
185	0xbdad8739	-0.08473057
186	0x3e1bc170	0.1521051
187	0x3d6981b9	0.05700848
188	0x3e04bf2c	0.12963551
189	0x3e1a0ff6	0.15045151
190	0x3e0f97dd	0.14022775
191	0x3cf8c800	0.030368805
192	0xbd2b0371	-0.04175133
193	0x3e299137	0.16559301
194	0x3e3b5ead	0.18297835
195	0x3e2df537	0.16988073
196	0x3dc3e7d6	0.095657036
197	0xbe0d6a45	-0.1381007
198	0x3e2c685e	0.16836688
199	0x3e1d1911	0.15341593
200	0xbdf04a4b	-0.1173292
201	0xbcecd453	-0.028909838
202	0x3e0ce601	0.13759615
203	0x3e245902	0.16049579
204	0x3e489699	0.19588698
205	0xbe1bb024	-0.15203911
206	0x3d60981a	0.054832555
207	0x3e29b53c	0.16573042
208	0xbd307b85	-0.043086547
209	0xbe1bd2ac	-0.15217084
210	0xbcd7064f	-0.026248125
211	0xbdba6a70	-0.091023326
212	0xbd3601d4	-0.044435337
213	0x3d302302	0.043002136
214	0xbe0c4bce	-0.13700792
215	0xbe41e8ff	-0.18936537
216	0x3e00a5f5	0.12563308
217	0xbe07e374	-0.1327036
218	0xbd1341d3	-0.035951447
219	0xbdc315e0	-0.09525657
220	0xbdd7bf2c	-0.1053451
221	0xbd3ca745	-0.04605796
222	0x3dd0216b	0.10162624
223	0x3c8eba0b	0.017422697
224	0xbe0cee38	-0.13762748
225	0x3d993a9c	0.07481882
226	0xbc04e774	-0.008111823
227	0x3dd7832f	0.10523068
228	0xbb7e56a0	-0.0038808957
229	0x3e13bbf8	0.14427173
230	0xbe2161d9	-0.15759982
231	0xbe495f22	-0.19665197
232	0xbcdc621d	-0.026902253
233	0xbd10232f	-0.035189804
234	0x3e07a145	0.13245113
235	0xbe273fb9	-0.16332902
236	0xbcdcc7f6	-0.026950818
237	0x3d73ebb0	0.05955094
238	0x3e1029c2	0.1407843
239	0x3d9ba962	0.076006666
240	0x3cafea0f	0.021473913
241	0xbe2daffa	-0.16961661
242	0xbd9b4198	-0.075808704
243	0x3de0108c	0.10940656
244	0x3e036671	0.12832047
245	0x3d856424	0.06513241
246	0xbb458255	-0.0030137498
247	0x3e1a095d	0.15042634
248	0xbc96fd4b	-0.018431326
249	0xbe3cf127	-0.18451367
250	0x3e42015f	0.18945836
251	0x3ccee09a	0.025253583
252	0xbd972d3b	-0.07381674
253	0xbd6df10c	-0.05809121
254	0xbe24d5f8	-0.16097248
255	0xbe503756	-0.20333609

encoder.conv.0.bias f4 [64]
0	0x3d2eb49e	0.04265272
1	0x3e4750c6	0.19464406
2	0xbb272157	-0.002550205
3	0x3d39baf9	0.045344327
4	0xbdff12d9	-0.12454767
5	0xbe2f39c1	-0.17111875
6	0x3e1c9ca4	0.15294129
7	0x3e12942d	0.14314337
8	0xbdccf386	-0.10007386
9	0xbc5e2509	-0.013558635
10	0x3d9d3bf0	0.07677448
11	0xbe15e723	-0.14638953
12	0x3d28f323	0.0412475
13	0xbcd7bf48	-0.026336327
14	0x3e4d3d2e	0.2004287
15	0x3d123a58	0.035700172
16	0xbdf49790	-0.11942971
17	0xbd11d721	-0.035605554
18	0x3dcb1a22	0.09917094
19	0xbe3c38ab	-0.18380992
20	0x3d7caea3	0.061689984
21	0x3c942c06	0.018087398
22	0xbe350952	-0.17679337
23	0x3cc7dbce	0.024396803
24	0x3d7d4e16	0.061842047
25	0x3c2e8629	0.010652103
26	0xbd9dec91	-0.07711137
27	0x3e34cf92	0.17657307
28	0xbd813c27	-0.06310301
29	0x3d766245	0.06015231
30	0xbd1a6a85	-0.03769924
31	0x3e0e1e65	0.13878782
32	0xbd2e146c	-0.042499945
33	0xbda2a0b2	-0.079408064
34	0x3e2178e7	0.15768777
35	0xbe0a98d3	-0.1353486
36	0x3cf60e3c	0.030036084
37	0x3e478db1	0.19487645
38	0x3e30a4d9	0.17250384
39	0xbd0eb280	-0.0348382
40	0x3d3ca2a7	0.046053555
41	0x3e031275	0.1280001
42	0xbd719c9a	-0.058987238
43	0xbdc96315	-0.098333515
44	0x3c05d3b6	0.008168152
45	0xbdfa5f11	-0.12225164
46	0x3daa93eb	0.08328994
47	0x3dd7b089	0.10531718
48	0x3d13690e	0.03598886
49	0xbe00f467	-0.12593232
50	0xbdbf129f	-0.093297236
51	0x3e4cc699	0.19997634
52	0xbbe00a72	-0.0068371827
53	0xbd2dca97	-0.042429533
54	0x3ddf8b5e	0.10915254
55	0x3e10b634	0.14132005
56	0xbd77ef85	-0.060531158
57	0xbd8fecdd	-0.070276
58	0x3d71c20e	0.059022956
59	0x3de6ff19	0.11279125
60	0x3a53bbf3	0.0008077018
61	0xbe1f1b5e	-0.15537784
62	0xbe040576	-0.12892708
63	0xbdad4991	-0.08461297

encoder.conv.2.weight f4 [64, 64, 5]
0	0xbd32de2e	-0.04366892
1	0x3c34e8a4	0.011041794
2	0x3d6a2442	0.057163484
3	0x3c9d9be3	0.019239372
4	0xbd24b93e	-0.040215723
5	0x3c901879	0.017589794
6	0xbd68b210	-0.05681044
7	0xbc23db11	-0.01000096
8	0xbc879451	-0.016550215
9	0x3ca0e82a	0.019641954
10	0xbc8e2807	-0.01735307
11	0x3b73acad	0.003718178
12	0x3c49a208	0.012306698
13	0xbc035cf3	-0.008017766
14	0x3ba37da8	0.0049893446
15	0x3d5e9d3f	0.05434918
16	0xbc725619	-0.014791035
17	0x3d3dfd53	0.046384167
18	0x3d25990e	0.040429167
19	0x3c1109e8	0.0088524595
20	0x3d08c409	0.03339008
21	0x3cd47196	0.025933068
22	0x3d15d132	0.036576457
23	0x3c95d356	0.01828925
24	0xbd3f5fef	-0.04672235
25	0xbafb0e9c	-0.0019154134
26	0x3d091dc3	0.03347565
27	0x3d162632	0.03665752
28	0xba5dbc45	-0.00084585353
29	0x3c93e7e7	0.018054916
30	0xbd20ad49	-0.039227758
31	0x3cffaa4c	0.031209134
32	0xbd3fbf4b	-0.04681329
33	0x3d4837fc	0.048881516
34	0xbd15182f	-0.036400016
35	0xbbc946d2	-0.0061424756
36	0x3a2c9581	0.0006583557
37	0xbca83a17	-0.020535512
38	0x3ce17866	0.02752323
39	0xbc8b88b1	-0.017032953
40	0x3b8d588f	0.0043135355
41	0x3cdcc2a9	0.02694829
42	0xbc2c540c	-0.010518085
43	0xbca389e3	-0.01996321
44	0x3c832eab	0.016013464
45	0xbd4b38bc	-0.049614653
46	0xbc8cb627	-0.0171767
47	0x3cd527ad	0.026019895
48	0x3bd59876	0.006518419
49	0xbadd6dbe	-0.0016893668
50	0xbc126cab	-0.008937041
51	0xbd368277	-0.044558015
52	0x3cab67ed	0.02092358
53	0xbd123805	-0.035697956
54	0xbbdf266a	-0.0068099992
55	0xbbdb8332	-0.0066989893
56	0xbb9ec806	-0.004845622
57	0x3c0bbaec	0.008528452
58	0xbd205554	-0.039143875
59	0x3c3f1169	0.011661866
60	0x3d508610	0.050909102
61	0x3cdb2f0d	0.026755834
62	0x3d2f9581	0.042867187
63	0x3d2731d4	0.040819004
64	0xbd224550	-0.039616883
65	0xbb22c2f3	-0.0024835437
66	0xbccd9075	-0.025093297
67	0x3c5b6174	0.013389934
68	0x3cfe8196	0.03106765
69	0x3cb7cfb9	0.022437917
70	0x3a896692	0.0010482839
71	0xbc530fd4	-0.012882192
72	0xbd075957	-0.033044185
73	0xbc092974	-0.0083717
74	0x3b201a33	0.0024429678
75	0x3cf91862	0.030407134
76	0xbd154001	-0.036437992
77	0x3cf7907c	0.030220263
78	0xbcecf2d3	-0.028924381
79	0xbd305a45	-0.043054838
80	0x3bec4384	0.007210197
81	0x3b2262da	0.0024778158
82	0xbd57e658	-0.052709907
83	0xbd336a04	-0.043802276
84	0x3d3b0050	0.045654595
85	0x3cd6da2b	0.026227077
86	0xbd337d46	-0.043820642
87	0xbbe943cd	-0.007118678
88	0xbd57a08b	-0.05264334
89	0xbc82dc9a	-0.015974332
90	0x3d4688cd	0.048470307
91	0x3b07b568	0.0020707492
92	0x3bec7109	0.0072156233
93	0x3d1428d4	0.03617175
94	0x3cca9efc	0.024734013
95	0x3d54af0e	0.051924758
96	0x3ba19c70	0.004931979
97	0x3d31820a	0.043336906
98	0x3cc6e1e0	0.024277627
99	0xbd06ac72	-0.0328793
100	0x3c4754f7	0.012166253
101	0x3d510342	0.051028498
102	0xbd63e68d	-0.055639792
103	0x3d090af5	0.033457715
104	0x3c02281e	0.007944135
105	0xbcc96a5b	-0.024586847
106	0xbc1dfa96	-0.009642264
107	0x3b900532	0.0043951506
108	0xbb77e7bc	-0.0037827333
109	0x3cfdb4e4	0.030970044
110	0xbcbf0040	-0.023315549
111	0x38df1eff	0.00010639242
112	0xbcd2831c	-0.025697283
113	0xbd5d4585	-0.054021377
114	0x3d3a2aa8	0.045450836
115	0x3d4b7fa4	0.049682274
116	0xbc486146	-0.012230223
117	0xbc3ac49e	-0.011399416
118	0xbb5b339f	-0.0033447517
119	0xba889c2c	-0.0010422519
120	0xbca05d6d	-0.019575799
121	0xbd00c9b2	-0.03144235
122	0xbbfc40a4	-0.0076981355
123	0x3ce3395f	0.027737318
124	0x3c00148a	0.007817397
125	0x3c19ac84	0.00937951
126	0xbd0f45e1	-0.03497875
127	0xbccf32a9	-0.025292711
128	0x3d0ff56a	0.035146154
129	0x3d09af04	0.033614174
130	0xbc49fb48	-0.0123279765
131	0x39e1ec97	0.00043091617
132	0x3d1bd4e8	0.03804484
133	0x3d1f6b24	0.038920537
134	0x3d280bf1	0.041027013
135	0xbccb7c0b	-0.024839422
136	0xbc7ff71f	-0.015622883
137	0x3cdd99e6	0.027050924
138	0xbc97e42f	-0.018541424
139	0xbd41bd83	-0.047299873
140	0xbd058e85	-0.03260662
141	0x3cb2f91e	0.021847304
142	0xbc86ffb7	-0.016479356
143	0xbd05a0d0	-0.032624066
144	0xbc4363eb	-0.011925678
145	0xbca64d65	-0.020300576
146	0xbc9544de	-0.018221315
147	0xbd09b56a	-0.033620276
148	0x3bf5edea	0.007505168
149	0xbcf478cd	-0.029842759
150	0xbd4cdeef	-0.050017294
151	0xbd0d2310	-0.034457266
152	0x3b33defc	0.0027446141
153	0x3ca82eed	0.020530188
154	0xbcdd49b4	-0.027012683
155	0x3cfa4c8a	0.030554075
156	0xbd3c3ad6	-0.045954548
157	0x3be39030	0.0069446787
158	0xbd05ed25	-0.03269686
159	0xbbb67b06	-0.0055688648
160	0xbbc1abd5	-0.0059103766
161	0x3d290c71	0.04127163
162	0x3d1ab8d7	0.037773933
163	0xbd087593	-0.033315253
164	0x3ba77923	0.005110876
165	0xbd0f7dd2	-0.0350321
166	0xbc3b51a1	-0.011433036
167	0x3d06f6b4	0.03295012
168	0xbd58996c	-0.05288069
169	0x3d3a6b86	0.0455127
170	0xbd47097f	-0.04859304
171	0x3c361bda	0.011115039
172	0x3d1f015d	0.03881966
173	0x3cdc497b	0.026890507
174	0x3cf1ff6b	0.029540738
175	0xbd557565	-0.05211391
176	0x3d04e953	0.032449078
177	0x3ce3a977	0.027790768
178	0x3c2f1164	0.010685299
179	0xbd388a96	-0.04505404
180	0x3d013ee6	0.031554125
181	0xbd2faa1e	-0.042886846
182	0xbd327811	-0.043571535
183	0xbc9e44e3	-0.019319957
184	0x3cd135fe	0.02553844
185	0xbc9ce5b1	-0.019152494
186	0xbd2882f7	-0.041140523
187	0xbce32273	-0.027726388
188	0xbc3f0db1	-0.011660979
189	0xbb28996f	-0.002572622
190	0xbc9f0c68	-0.019415095
191	0xbbd11f00	-0.0063818693
192	0xbc9215d0	-0.017832667
193	0xbd430747	-0.047614362
194	0x3c996992	0.018727098
195	0x3d2aec8e	0.041729502
196	0xb8d37072	-0.000100822086
197	0xbd6a4b2d	-0.0572006
198	0xbd5b082b	-0.053474586
199	0xbc904f9f	-0.017616091
200	0x3c5b1691	0.0133720795
201	0x3d360c4f	0.044445332
202	0x3c220ace	0.009890271
203	0xbd6022e3	-0.05472077
204	0xbd499256	-0.049211822
205	0x3d48cd1a	0.049023725
206	0xbd48d547	-0.049031522
207	0xbcf73c13	-0.030180013
208	0xbd68c5bc	-0.0568292
209	0xbd250f12	-0.040297575
210	0xbd2f4dcc	-0.042798802
211	0xbd34372a	-0.04399792
212	0x3d54dba2	0.05196727
213	0x3cccc098	0.02499418
214	0x3d06a904	0.03287603
215	0x3cf17d8c	0.02947881
216	0xbd60cf5c	-0.054885253
217	0x3d385d98	0.045011133
218	0x3cc7fa26	0.024411272
219	0x3b36c66f	0.0027889272
220	0x3d33937b	0.04384182
221	0x3d3faa2b	0.046793144
222	0xbbab5f80	-0.0052298903
223	0x3d416a0a	0.047220267
224	0xbd52951a	-0.051411726
225	0x3d31ba93	0.04339082
226	0x3c1d1aad	0.0095888795
227	0xbcb323e5	-0.021867702
228	0xbc61bddc	-0.013778176
229	0xbd1c5e8c	-0.038176104
230	0x3ceaeab7	0.028676374
231	0xbcd29e0f	-0.025710134
232	0xbd0aebc0	-0.033916235
233	0xbd5d5d78	-0.054044217
234	0x398193f7	0.0002471504
235	0xbd49b250	-0.049242318
236	0x3c4203b7	0.011841706
237	0x3d638a93	0.055552077
238	0xbd58e179	-0.052949402
239	0x3d58f5fb	0.05296896
240	0x3b2d2b48	0.0026423503
241	0x3cd69478	0.026193842
242	0x3c6e0333	0.01452713
243	0xbca03ef4	-0.019561268
244	0xbc3e8924	-0.011629377
245	0x3d21b04d	0.039474774
246	0xbd50dbf0	-0.050991
247	0xbcc35e0d	-0.023848558
248	0xbcd4917d	-0.02594828
249	0xbc3ccd3c	-0.011523541
250	0x3c3de8bd	0.011591134
251	0x3d134588	0.035954982
252	0xbd10f9f6	-0.03539463
253	0x3d3bf9a1	0.04589236
254	0xb97fb080	-0.00024384446
255	0xbd4f6a00	-0.0506382

encoder.conv.2.bias f4 [64]
0	0x3d442623	0.047887933
1	0x3c9602df	0.018311916
2	0xbce81112	-0.028328452
3	0xbc23585f	-0.0099698
4	0xbb073eb1	-0.0020636732
5	0xbc0d1fd0	-0.008613542
6	0x3b84af2c	0.0040492024
7	0xbd131b73	-0.03591485
8	0x3d6617ab	0.056174915
9	0xbd6b57a7	-0.05745664
10	0xb9b56e47	-0.00034605173
11	0x3cf50729	0.02991064
12	0x3d77b6d7	0.060477104
13	0x3d5cd60f	0.05391508
14	0x3ca65142	0.020302419
15	0x3d054d1c	0.03254424
16	0xbcd7a54a	-0.026323933
17	0xbcc1567a	-0.023600806
18	0x3d09e27b	0.033663254
19	0x3ca9fb55	0.020749727
20	0x3cbc858f	0.023012904
21	0xbc854996	-0.01627044
22	0xbd4b5ce1	-0.049649123
23	0x3d02638c	0.031833217
24	0xbc7b5ba5	-0.015341674
25	0xbcc9d1c2	-0.024636153
26	0x3cc381c9	0.023865597
27	0xbc0c0d76	-0.008548131
28	0xbcc8291d	-0.024433667
29	0x3ccccefa	0.025001038
30	0x3cef1bf0	0.029188126
31	0x3d77d8e6	0.060509585
32	0x3c34ad7a	0.011027688
33	0x3cbc12e0	0.022958219
34	0x3cceb199	0.02523117
35	0x3d2cfeb8	0.042235106
36	0xbc5e4350	-0.013565853
37	0xbd20418c	-0.03912501
38	0xbaa1b6f7	-0.0012337853
39	0x3c38891f	0.011263161
40	0x3cf3d79a	0.029765893
41	0xbd37e6e6	-0.044897936
42	0x3d04bb6c	0.032405302
43	0xbd5f044b	-0.054447453
44	0x3c58adf7	0.01322507
45	0xbc9d50fe	-0.01920366
46	0x3a78b806	0.0009487871
47	0xbc87980c	-0.016551994
48	0x3ae230ea	0.0017257009
49	0xbd2bf0bb	-0.041977625
50	0x3d74f21b	0.059801202
51	0xbd046f29	-0.032332573
52	0x3d356b64	0.04429187
53	0x3c701a95	0.014654775
54	0xbccccc02	-0.024999622
55	0xbc7289f6	-0.0148034
56	0xbca584a1	-0.020204844
57	0xbd63ae9d	-0.055586446
58	0xbd135853	-0.035972904
59	0x3c671687	0.014104492
60	0x3d52a8e3	0.051430594
61	0x3c0ee145	0.008720701
62	0x3b4a0a3f	0.003082886
63	0xbd4cb26e	-0.04997485

encoder.conv.4.weight f4 [8, 64, 3]
0	0xbcccab95	-0.02498416
1	0xbcc9bde5	-0.024626682
2	0x3d033ee1	0.032042388
3	0xbd86cb37	-0.06581729
4	0x3d82fa32	0.06395377
5	0xbd4799a7	-0.04873052
6	0xbd1e73da	-0.038684703
7	0xbd30e1ca	-0.04318408
8	0xbd83706e	-0.06417929
9	0xbce04e06	-0.027380954
10	0x3cb6bea1	0.022307696
11	0x3cb3fbdf	0.021970687
12	0xbd477970	-0.048699796
13	0xbccb2a66	-0.02480049
14	0x3d0bd856	0.03414186
15	0xbd63fc6e	-0.055660658
16	0xbcb16206	-0.021653187
17	0x3c7a75d0	0.015286878
18	0xbc98c680	-0.01864934
19	0xbbfd2e47	-0.007726464
20	0xbc0357f1	-0.008016572
21	0xba540304	-0.00080876076
22	0x3c971e4b	0.018447062
23	0x3c377beb	0.011198978
24	0xbcf5e70f	-0.030017404
25	0x3d875558	0.06608075
26	0xbd0df10e	-0.034653716
27	0x3d916cb8	0.071008146
28	0x3d822843	0.063553356
29	0x3bc14cd6	0.005899052
30	0xbd591b41	-0.053004507
31	0x3d0856b8	0.033285826
32	0x3c4ed228	0.012623347
33	0x3cc73d2a	0.024321157
34	0xbca5fa97	-0.020261092
35	0xbcde0b7d	-0.027105087
36	0xbc77bd02	-0.015120747
37	0x3c86a38f	0.016435413
38	0x3d1367c4	0.03598763
39	0x3ce3d8dc	0.027813368
40	0xbd934fb9	-0.0719294
41	0xbc0e3865	-0.008680438
42	0x3d2a74b8	0.041615218
43	0x3cdc5eae	0.026900616
44	0xbd862b55	-0.06551234
45	0x3ac49c1d	0.0015000139
46	0xbd881bee	-0.06645952
47	0xbd611224	-0.05494894
48	0xbd1df70e	-0.038565688
49	0xbb20abe2	-0.0024516513
50	0xbd125177	-0.035722222
51	0xbd9198e7	-0.07109242
52	0xbc0875cc	-0.008328866
53	0xbc7ae326	-0.0153129455
54	0xbd42dd5b	-0.047574382
55	0xbd5a944a	-0.053364076
56	0xbcff5d8d	-0.031172538
57	0x3d03fb34	0.032221988
58	0x3d391c35	0.045192916
59	0x3c2503ff	0.0100717535
60	0x3d162a17	0.036661234
61	0xbcc1a1ac	-0.023636661
62	0xbd552608	-0.052038223
63	0x3ce17599	0.027521895
64	0xbae70d67	-0.0017627896
65	0xbc53e1a9	-0.01293222
66	0xbd4b6fc8	-0.04966715
67	0x3d251a53	0.040308308
68	0xbd8bb905	-0.06822399
69	0x3d2c18ab	0.042015713
70	0x3ce8944e	0.02839103
71	0xbd41cd04	-0.04731466
72	0x3d8f8119	0.07007045
73	0x3cc3ba59	0.023892568
74	0x3d81f0fe	0.06344794
75	0x3d87059e	0.06592868
76	0x3d12c55e	0.035832755
77	0xbceb000f	-0.028686551
78	0xbd1179f4	-0.035516694
79	0x3d0e2839	0.034706328
80	0xbd82eeb3	-0.063931845
81	0x3c7908f7	0.015199891
82	0x3d316855	0.04331239
83	0x3b266883	0.0025391884
84	0x3d242d1e	0.04008209
85	0x3d703591	0.058644835
86	0x3a2b8de1	0.0006544274
87	0xbd2793cb	-0.04091243
88	0x3cfc8be0	0.030828416
89	0xb82257fb	-3.8705748e-05
90	0x3d85e7fb	0.065383874
91	0xbd243620	-0.04009068
92	0x3d91dd64	0.07122305
93	0xbd3c2e23	-0.045942437
94	0x3d5ea81f	0.05435955
95	0xbce38fec	-0.027778588
96	0x3d52fb91	0.051509444
97	0x3cf05931	0.029339405
98	0x3d014722	0.03156198
99	0x3b5fa047	0.0034122632
100	0xbd8f2e83	-0.06991293
101	0xbd81dbcf	-0.06340753
102	0xbcdcf5f0	-0.02697274
103	0xbcc95f6d	-0.024581635
104	0xbd804897	-0.062638454
105	0x3d2d711b	0.042344194
106	0xbd0d7aa5	-0.03454079
107	0xbd456141	-0.04818845
108	0x3d48658c	0.048924968
109	0x3c92ebf1	0.017934771
110	0x3cb2e232	0.021836374
111	0xbd5a8220	-0.053346753
112	0xbd26323b	-0.040575247
113	0xbd16a0bf	-0.036774393
114	0xbd7f9486	-0.062397502
115	0xbd626989	-0.055276427
116	0x3ce9a447	0.028520716
117	0xbd7398d2	-0.059471913
118	0xbd3c2bb9	-0.045940135
119	0x3d8f55ab	0.06998762
120	0xbd65e680	-0.056128025
121	0x3cd8e340	0.026475549
122	0xbcc52fcf	-0.024070648
123	0x3d094689	0.033514533
124	0xbc9257ae	-0.017864075
125	0x3cb936d1	0.022609146
126	0x3d8b3f61	0.06799198
127	0xbc79663b	-0.015222128
128	0x3d224cc5	0.039623994
129	0xbd483d78	-0.048886746
130	0x3c427987	0.011869795
131	0xbd61bea2	-0.055113442
132	0xbd8ea216	-0.06964509
133	0x3c5d273f	0.0134981265
134	0xbd90a414	-0.070625454
135	0xbd44a52a	-0.048009075
136	0xbd5e47c0	-0.054267645
137	0xbcba89d5	-0.022770802
138	0xbd4fda19	-0.050745104
139	0xba4acddf	-0.00077363657
140	0xbc0f4e63	-0.008746716
141	0x3d386597	0.04501876
142	0x3d4a59cc	0.049402043
143	0x3cde6b79	0.027150856
144	0x3acafa17	0.001548591
145	0xbcb13526	-0.021631788
146	0x3d37ebdf	0.04490268
147	0xbd73af23	-0.059493195
148	0xbd0364b2	-0.032078452
149	0x3d0bdfea	0.034149088
150	0x3b856731	0.0040711393
151	0x3d68a115	0.056794245
152	0x3b85efe5	0.0040874355
153	0x3d3cfcc5	0.046139497
154	0xbd31ae67	-0.043379214
155	0x3c1acd65	0.009448384
156	0xbd7b7908	-0.06139472
157	0x3c862170	0.016373366
158	0x3d926e36	0.07149927
159	0xbb16a2c3	-0.0022985197
160	0x3c793dcb	0.0152124865
161	0x3bf48631	0.007462286
162	0xbbc00db3	-0.005861008
163	0x3cea4a49	0.028599875
164	0xbbd53cc1	-0.0065074866
165	0xbc36b680	-0.01115191
166	0xbd6b79bf	-0.057489153
167	0x3d8d7e8d	0.06908903
168	0xbccba54a	-0.02485909
169	0xbd8ee311	-0.06976903
170	0xbd33a094	-0.04385431
171	0xbc2ada53	-0.010428029
172	0xbbf0ee66	-0.007352638
173	0xbc2a2565	-0.010384892
174	0xbd3cd4ef	-0.046101507
175	0x3c391250	0.01129587
176	0xbba9736e	-0.005171231
177	0xbc6340db	-0.013870443
178	0xbd06c152	-0.03289921
179	0xbd128dd1	-0.035779778
180	0xbd694b09	-0.056956325
181	0xbd0977e1	-0.03356159
182	0xbcd625a0	-0.026140988
183	0xbbfc602a	-0.0077018933
184	0x3c863e1b	0.016387036
185	0xbce60c09	-0.02808191
186	0x3bf68b10	0.0075239018
187	0x3be9aa65	0.0071309083
188	0xbd1b3891	-0.037895743
189	0x3c50ed52	0.012751894
190	0x3d038406	0.03210833
191	0xbcae9ba6	-0.021314453
192	0x3cde8978	0.02716516
193	0x3d00f5ea	0.031484522
194	0x3cf288e4	0.02960629
195	0xbd8ce711	-0.0688001
196	0xbc5bac6a	-0.013407806
197	0xbd382bd3	-0.04496367
198	0xbd2f690d	-0.042824794
199	0x3bfeee32	0.00777986
200	0x3b2d427c	0.0026437333
201	0x3d4b0576	0.049565755
202	0x3c0bd83d	0.008535442
203	0xbd760689	-0.060064826
204	0x3c4c4e66	0.0124698635
205	0x3d391ff2	0.04519648
206	0x3c8201f4	0.015870072
207	0x3d64dddb	0.05587564
208	0x3cfb7f3e	0.030700322
209	0xbc96a191	-0.018387588
210	0x3c8cdb99	0.017194556
211	0xbc2db54f	-0.010602309
212	0xbc872f82	-0.016502146
213	0x3ca35036	0.019935708
214	0xbcfed633	-0.031107998
215	0x3d1e6084	0.038666263
216	0xbc0e4d03	-0.008685353
217	0x3d7855d1	0.060628716
218	0x3d853c0b	0.06505593
219	0xbcc16777	-0.023608906
220	0xbc06f283	-0.00823653
221	0x3c38aaab	0.011271159
222	0x3cd970e2	0.026543085
223	0x3c70527b	0.014668102
224	0x3d85c0a5	0.06530885
225	0x3d5843bb	0.052798968
226	0x3d1fed3a	0.039044596
227	0x3d1df04a	0.038559236
228	0xbd2ed09e	-0.04267942
229	0xbba5a87f	-0.0050554867
230	0x3b2ee856	0.0026688776
231	0xbbe29ae3	-0.0069154366
232	0x3b9348cc	0.004494762
233	0xbcd47040	-0.025932431
234	0x3ce0ce47	0.02744211
235	0xbd1b7a53	-0.037958454
236	0x3d0b3b03	0.033991825
237	0xbd91909b	-0.071076594
238	0xbd126cc3	-0.035748255
239	0xbd6af0d8	-0.057358593
240	0x3d861600	0.06547165
241	0xbcc93792	-0.02456263
242	0x3c488b50	0.012240246
243	0x3b308201	0.0026932957
244	0xbd5531aa	-0.052049316
245	0xbd2ed23a	-0.042680956
246	0x3d1b3052	0.03788788
247	0x3cbbe8d9	0.022938179
248	0x3d8370a0	0.06417966
249	0x3b68e2eb	0.0035535644
250	0xbc438290	-0.011932984
251	0xbcc048aa	-0.023472149
252	0xbd67f924	-0.056634083
253	0x3d598705	0.05310728
254	0x3cd8c401	0.02646065
255	0x3d1bc979	0.038033936

encoder.conv.4.bias f4 [8]
0	0xbc509d52	-0.012732821
1	0x3d2b92d4	0.041888073
2	0xbd94133b	-0.072302304
3	0xbd1a1713	-0.03761966
4	0x3a2a9202	0.0006506742
5	0xbd5ab37a	-0.05339382
6	0xbd849f87	-0.0647574
7	0x3d62466f	0.055242952

vq.embedding.weight f4 [64, 8]
0	0xb923a580	-0.00015606545
1	0xbc1dcb36	-0.009630969
2	0xbaf34730	-0.0018560644
3	0xbc656534	-0.0140011795
4	0xbb23b170	-0.0024977587
5	0x3c02a7aa	0.007974545
6	0x3bc6ec40	0.0060706437
7	0x3c51a2d4	0.012795169
8	0x00000014	2.8e-44
9	0x00000078	1.68e-43
10	0x000000a6	2.33e-43
11	0x8000003d	-8.5e-44
12	0x80000040	-9e-44
13	0x80000011	-2.4e-44
14	0x8000006a	-1.49e-43
15	0x00000007	1e-44
16	0x3c245582	0.010030152
17	0xbbddb480	-0.006765902
18	0xbbcb0d14	-0.0061966274
19	0xbb2666a0	-0.002539076
20	0xbc549706	-0.01297546
21	0xbbfa9030	-0.007646583
22	0xbbb953b8	-0.005655732
23	0x3c11f83e	0.008909283
24	0xbb299698	-0.0025877114
25	0xbc3c299a	-0.011484528
26	0xbbd09db0	-0.006366454
27	0x3c5f76ca	0.013639161
28	0x3b50c0c8	0.0031853188
29	0x3c7a3406	0.015271192
30	0x3c24b25e	0.010052292
31	0xbc14571e	-0.0090539735
32	0x3bea8878	0.0071573816
33	0xbc0344ce	-0.00801201
34	0xbc7f4694	-0.015580792
35	0xba153fa0	-0.000569338
36	0xbbed01c8	-0.0072328784
37	0x3be9ee58	0.0071390085
38	0x3c73ed0e	0.014888061
39	0xbc18f036	-0.0093346145
40	0xbbd582bc	-0.006515829
41	0xb9434a00	-0.00018624216
42	0xbbbdedf4	-0.0057961885
43	0xbc520902	-0.01281953
44	0xbc675a18	-0.014120601
45	0x3b83268c	0.004002398
46	0xbc715aaa	-0.014731089
47	0xbbb7471c	-0.0055931937
48	0xbc3c93c0	-0.011509836
49	0x3bcad178	0.0061895214
50	0xbb6e6928	-0.0036378596
51	0x3b3b1150	0.0028544255
52	0xbc344e90	-0.011005059
53	0xbc1425b4	-0.009042192
54	0x388cb900	6.710179e-05
55	0x3c70a688	0.014688142
56	0xbbabd04c	-0.005243337
57	0xbafa2f70	-0.0019087624
58	0xbafb01a0	-0.0019150265
59	0xbaef9820	-0.001827959
60	0xbc6ef536	-0.01458483
61	0x3be0fbc0	0.0068659484
62	0xbab07000	-0.0013461113
63	0xbb89c2f8	-0.0042041503
64	0x3c232c56	0.009959301
65	0xbbf7ff27	-0.0075682583
66	0x3aa12782	0.00122951
67	0xbb3b4482	-0.002857477
68	0x3c42bf34	0.011886407
69	0x3a075e17	0.0005163862
70	0xba17e6c1	-0.0005794578
71	0x3c41c2d3	0.011826235
72	0xbbcd25e8	-0.0062606223
73	0x3aefca10	0.0018294472
74	0xbc696fa6	-0.0142478105
75	0xbc4fa348	-0.012673207
76	0xbc23726e	-0.009976013
77	0x3c1e3e22	0.009658368
78	0x3c72a312	0.014809387
79	0xbc738ef0	-0.014865622
80	0xbb541958	-0.003236374
81	0xbc40bd1a	-0.011763835
82	0x3945a580	0.00018849038
83	0xbc049d20	-0.008094102
84	0xbc5fa47a	-0.013650054
85	0x3c2e8ac0	0.010653198
86	0x3a81dd50	0.0009907875
87	0x3bb6fa70	0.0055840537
88	0x3c60799c	0.013700869
89	0xbc744b98	-0.014910601
90	0x3b163dc0	0.002292499
91	0x3b9a8ce0	0.0047165006
92	0xbc3a1de8	-0.011359669
93	0xbacb9400	-0.0015531778
94	0x3c4cbd06	0.012496239
95	0xbbd04c1c	-0.006356729
96	0xbb4a0818	-0.0030827578
97	0xbc7d0ae8	-0.015444495
98	0x3c5e6a82	0.013575198
99	0x3bb14460	0.0054097623
100	0xbb669b38	-0.0035187732
101	0x3bf674e0	0.007521257
102	0x3c7dec20	0.015498191
103	0x3c3c3448	0.011487074
104	0x3b44ade4	0.0030010873
105	0x3c8da1d5	0.017289082
106	0xbc151b64	-0.009100769
107	0x3baf3218	0.005346548
108	0x3b88b84d	0.004172361
109	0x3a674931	0.0008822857
110	0xb9858b50	-0.00025471533
111	0x3b96cfaa	0.004602392
112	0xb90257f2	-0.00012430528
113	0xb92bbb91	-0.00016377705
114	0x39683c6c	0.00022147753
115	0xba125dd1	-0.0005583438
116	0x39bb41f8	0.0003571657
117	0x396dec19	0.00022690035
118	0x3a1a897d	0.0005895121
119	0x3c45d097	0.0120736575
120	0x39094180	0.00013089739
121	0x3bd5cbc0	0.006524533
122	0xbabf17b0	-0.0014579203
123	0x3bf30d5c	0.007417364
124	0xbc524f56	-0.012836298
125	0xbc6aa81c	-0.014322307
126	0x3bd7454c	0.00656954
127	0x3c773ba6	0.015089905
128	0xbbe84508	-0.0070883073
129	0x3bbf022c	0.0058291163
130	0xbabdb120	-0.0014472343
131	0xbb59d518	-0.0033238586
132	0x3c6a3a16	0.014296075
133	0x3c7ac868	0.01530657
134	0xbbffa358	-0.0078014545
135	0x3b2f62e0	0.0026761815
136	0xbc7a106e	-0.015262706
137	0x3b280a18	0.0025640782
138	0xba104580	-0.00055035204
139	0xbc037780	-0.0080240965
140	0x3c134ba2	0.0089902
141	0xbbf29988	-0.0074035563
142	0xbc65af6c	-0.014018875
143	0x3b757898	0.0037455913
144	0x3a1fe201	0.0006099046
145	0x3c8f7a87	0.01751448
146	0xbc34fd10	-0.011046663
147	0xbba6b7a2	-0.0050878087
148	0xba959e91	-0.0011415054
149	0xba048d23	-0.00050564314
150	0xbbc6804c	-0.0060577746
151	0x3c6e363c	0.014539298
152	0x3c6d3ff4	0.01448058
153	0x3c69fb66	0.014281129
154	0xbc7064f8	-0.01467251
155	0xbc1d7df2	-0.009612547
156	0xbc428cae	-0.011874361
157	0xbb9e7d48	-0.004836712
158	0x3c73a148	0.014869995
159	0x3c2687e6	0.010164237
160	0x3b2413d0	0.0025036223
161	0xbbac0e84	-0.005250754
162	0xbc6a1d62	-0.014289232
163	0xbc6e42e2	-0.014542313
164	0xbbbebdd4	-0.005820969
165	0x3b03c420	0.0020105913
166	0x3c74c0e2	0.014938565
167	0xbbdc55e8	-0.006724108
168	0xbba12540	-0.0049177706
169	0x3c00f796	0.007871529
170	0x3c0e82d0	0.00869818
171	0xbc6bb6d4	-0.014386851
172	0x3b9bcbfc	0.0047545414
173	0x3bfc1cc8	0.0076938607
174	0x3b0b2ee8	0.0021237675
175	0x3c6b0254	0.014343817
176	0x3c7fe684	0.015618924
177	0x3bff9f4c	0.007800972
178	0x3bbc0760	0.005738184
179	0xbc20f7ce	-0.009824706
180	0x3c4a9c2e	0.012366338
181	0x3bb01cd0	0.0053745285
182	0x3c43f81c	0.011961009
183	0x3c3aacdc	0.011393752
184	0x3c1dfb72	0.009642469
185	0x3ba092ac	0.004900297
186	0x3b337d48	0.0027387906
187	0xbc376bc0	-0.011195123
188	0x3c29cc08	0.010363586
189	0xb8613a00	-5.3698197e-05
190	0xbbe63eec	-0.007026544
191	0xbb9806c0	-0.0046394765
192	0x3bd4b3bc	0.0064911526
193	0xbb4f3ed0	-0.0031623133
194	0xbbe7ca74	-0.007073695
195	0xbc77cfba	-0.015125209
196	0xbc26d42a	-0.01018242
197	0xba52ebc0	-0.0008045994
198	0xbab0a880	-0.0013477951
199	0x3bbd1aac	0.005771002
200	0x3af2d5f9	0.0018526904
201	0x3b9cd0d3	0.004785636
202	0x394b7aa9	0.00019405283
203	0x3b9ad9be	0.004725664
204	0x3b23b3bd	0.0024978959
205	0xba1160e7	-0.00055457506
206	0xbc433931	-0.011915491
207	0x3c4ab457	0.012372098
208	0xbc1bc926	-0.009508407
209	0x39fd28c0	0.00048286282
210	0x3c7353d2	0.014851527
211	0xbc6dd6d0	-0.014516547
212	0x3c3ebb58	0.011641346
213	0xbb7149a8	-0.0036817584
214	0x395c3980	0.00021002255
215	0x3b9e04ec	0.004822364
216	0xbc26320e	-0.01014377
217	0x3c45d79c	0.012075331
218	0xbc035632	-0.008016156
219	0xbc0ce8be	-0.008600412
220	0xbc0a67c0	-0.0084475875
221	0x3b96aa8c	0.0045979675
222	0x3c19de40	0.009391367
223	0xbb6f0e50	-0.0036477037
224	0xbc6ab4bc	-0.014325317
225	0xbc0c1418	-0.008549713
226	0xba6a2980	-0.00089325756
227	0x3c29be34	0.010360289
228	0xbc61efc4	-0.013790075
229	0x3c7d0c8a	0.015444884
230	0xbc6c0572	-0.014405595
231	0x3c7ce116	0.015434524
232	0xbc1dd19a	-0.009632492
233	0x3b7229a0	0.003695108
234	0xbaff25d0	-0.0019466225
235	0xbb8f8088	-0.004379336
236	0xbc0a87f8	-0.008455269
237	0xbc536398	-0.012902163
238	0x3c619852	0.013769226
239	0x3c53c03c	0.01292425
240	0x3c5bb1d8	0.0134091005
241	0xbc56bd1a	-0.013106609
242	0x3c10a3fa	0.008828158
243	0xbb11e9e0	-0.0022264645
244	0x3c2d3ee4	0.010574076
245	0xbc0a1ff8	-0.0084304735
246	0xba017da0	-0.0004939679
247	0x3c180924	0.009279523
248	0xbc6db4dc	-0.014508452
249	0xbc299d8c	-0.0103525035
250	0x3c5b8afe	0.013399838
251	0x3c4299c6	0.011877483
252	0x3b49c678	0.0030788463
253	0xbc7aee18	-0.015315555
254	0xbc3d0dd6	-0.011538943
255	0xbc7fe9c6	-0.015619701

decoder.deconv.0.weight f4 [8, 64, 7]
0	0xbcc9445e	-0.024568733
1	0xbd28c96e	-0.041207723
2	0xbd04f4d7	-0.03246006
3	0xbc8f5f12	-0.017501388
4	0x3cbe5a66	0.023236465
5	0x3bd6b340	0.00655213
6	0x3b8fd82b	0.004389783
7	0xbc439d65	-0.011939381
8	0xb9ba48ea	-0.0003553101
9	0x3bfe81c3	0.0077669336
10	0x3ceb0624	0.028689452
11	0xbc8543fa	-0.016267765
12	0x3b80df2d	0.0039328546
13	0xbd108100	-0.035279274
14	0xbd35d16a	-0.044389166
15	0x3b2bf206	0.0026236787
16	0x3d24229f	0.04007208
17	0xbd0f6006	-0.035003684
18	0x3d128334	0.035769656
19	0xbc83e627	-0.016100956
20	0xbbe2d4b6	-0.00692233
21	0xbd312857	-0.04325136
22	0xbb95d3c9	-0.004572366
23	0x3b846694	0.0040405486
24	0x3d2e154d	0.042500783
25	0x3c39c3c6	0.01133818
26	0x3bc67f4a	0.0060576545
27	0x3d01cd39	0.031689856
28	0xbc9b0467	-0.018922998
29	0xbd035ccc	-0.03207092
30	0x3d082d2e	0.03324621
31	0xbbace56f	-0.005276374
32	0x3b933259	0.004492086
33	0x3ac97179	0.00153689
34	0x3c3989cd	0.011324358
35	0xbac2a284	-0.0014849459
36	0xbd2c2de4	-0.042035952
37	0xbcd9e3af	-0.026597826
38	0xbd0f6bee	-0.03501504
39	0xb8a0316d	-7.638601e-05
40	0x3ce84f42	0.028358106
41	0xbc97220e	-0.018448856
42	0x3d00fa40	0.031488657
43	0xbcef0c43	-0.029180652
44	0xbc901676	-0.017588835
45	0x3c9a40aa	0.018829662
46	0x3cfb1eed	0.030654395
47	0xbd1c37f9	-0.038139317
48	0xbd1acd34	-0.037793353
49	0xbd1413ec	-0.03615181
50	0xbb2f7346	-0.002677159
51	0x3cc92960	0.024555862
52	0xbca0fee5	-0.019652793
53	0x3d1112d4	0.035418347
54	0xbb3cc546	-0.0028804108
55	0x3d43888f	0.047737654
56	0x3cc71d1a	0.024305869
57	0xbd3b231c	-0.04568778
58	0x3d274380	0.040835857
59	0xbc4388dc	-0.011934485
60	0x3d145bbb	0.036220293
61	0x3d303b51	0.04302532
62	0xbc9761ed	-0.018479312
63	0xbd41116e	-0.047135763
64	0xbbc852a6	-0.006113368
65	0xbca0d47e	-0.019632574
66	0x3d22ad8e	0.039716296
67	0xb91a3992	-0.00014708031
68	0xbb21efad	-0.0024709508
69	0x3cd49587	0.025950206
70	0x3cce3cb1	0.025175424
71	0xbbe42e93	-0.00696356
72	0x39eeac3c	0.00045523222
73	0x3b9f8ddc	0.004869206
74	0xbd17cef3	-0.037062597
75	0x3cdb5d53	0.026777899
76	0xbc2761ef	-0.01021622
77	0xbd1b10dc	-0.037857875
78	0xbc6bd805	-0.014394765
79	0xbcb44ac7	-0.022008313
80	0xbccc44c7	-0.02493514
81	0x3c29bb93	0.010359663
82	0x3c027bca	0.007964084
83	0xbc367191	-0.011135475
84	0xbc312961	-0.010813088
85	0x3d14b9c0	0.036309958
86	0x3c0c1c6f	0.008551701
87	0x3d1165d9	0.03549752
88	0x3c344420	0.01100257
89	0xbd36fbb9	-0.044673655
90	0xbc1732f3	-0.009228456
91	0x3cc62b7d	0.024190659
92	0x3c088831	0.008333252
93	0x3ca4eb7e	0.020131823
94	0x3cc111d6	0.023568075
95	0x3c7b990b	0.0153563125
96	0x3c43cae2	0.0119502265
97	0xba848ec9	-0.0010113354
98	0x3d26a0ee	0.04068082
99	0xbd33608f	-0.043793257
100	0xbd3ff654	-0.046865776
101	0x3ce82a8f	0.028340606
102	0xbd0ddef2	-0.034636445
103	0xbc7843aa	-0.015152851
104	0x3be9eb9f	0.007138684
105	0xbcaead48	-0.021322861
106	0xbd049777	-0.03237101
107	0xbd1adedc	-0.03781019
108	0xbd1dd82d	-0.03853624
109	0xbc82a4fa	-0.015947808
110	0xbc1e6419	-0.00966742
111	0xba472d4c	-0.00075979973
112	0x3c974a47	0.018468035
113	0x3cb08f4a	0.0215527
114	0xbd3567a2	-0.044288285
115	0x3c6cee1f	0.014461069
116	0x3d2e5322	0.04255975
117	0xbd41d645	-0.047323484
118	0xbcb0400c	-0.021514915
119	0xbb782dcb	-0.0037869092
120	0xbc98b5ac	-0.018641315
121	0x3b96c668	0.0046012886
122	0x3cdeaa67	0.027180864
123	0xbd29ecb3	-0.0414855
124	0x3d2f9fd4	0.042877033
125	0xba912c38	-0.00110758
126	0x3d21c250	0.03949195
127	0xbd59227b	-0.0530114
128	0x3cb295da	0.02179997
129	0xbd2cba22	-0.042169698
130	0xbd36d8e7	-0.044640448
131	0xbd18240b	-0.03714375
132	0x3d131b30	0.0359146
133	0xbb19625a	-0.002340457
134	0xbad86bbb	-0.0016511598
135	0xbcdc0a1a	-0.026860286
136	0x3d3bd918	0.045861334
137	0xbbb14374	-0.0054096524
138	0x3d40e38f	0.047092017
139	0x3cc97ba7	0.024595095
140	0x3d38e05e	0.04513585
141	0xbcbd9019	-0.02314
142	0x3b7a2cda	0.0038173706
143	0x3c35ad9d	0.011088756
144	0x3cfc9e5f	0.030837236
145	0x3d3f0e34	0.046644405
146	0x3c621706	0.0137994345
147	0xbc926045	-0.01786817
148	0xbc431d23	-0.011908802
149	0xbccc8a53	-0.024968302
150	0xbcc1108c	-0.02356746
151	0x3d20457f	0.039128777
152	0x3be1e796	0.0068940623
153	0xbc3d578f	-0.01155652
154	0x3d2caded	0.042158056
155	0x3d2fe106	0.04293921
156	0x3b4cc3cc	0.0031244634
157	0xbc653065	-0.013988589
158	0x3cf7e775	0.030261735
159	0xbd30ec2f	-0.043193992
160	0xbba15978	-0.0049239956
161	0xbcd27c6a	-0.02569409
162	0x3cd2f506	0.025751602
163	0x3ce8d3c3	0.028421288
164	0xbc6bb12f	-0.014385506
165	0x3cc31147	0.02381195
166	0x3d1774ab	0.036976498
167	0xbcddf9de	-0.027096685
168	0xbc2d0ca6	-0.010562098
169	0x3c5a657f	0.013329863
170	0xbcf081e4	-0.029358812
171	0xbc8d2d9d	-0.017233664
172	0x3d235995	0.039880354
173	0x3c9e1f0a	0.01930191
174	0x3cf793dc	0.030221872
175	0x3d23d62c	0.039999172
176	0x3c92097b	0.017826786
177	0x3c525563	0.012837741
178	0x3d3f7f35	0.046752173
179	0x3a674f51	0.000882377
180	0xbc448300	-0.011994123
181	0x3d0dd038	0.0346224
182	0x3c3a671a	0.01137712
183	0x3c7d93df	0.01547715
184	0xbbf76175	-0.0075494596
185	0x3cbe13c9	0.023202794
186	0xbbbbec13	-0.0057349293
187	0xbcde65a6	-0.02714808
188	0x3d38e54e	0.045140557
189	0x3c25309a	0.010082388
190	0xbc4ca021	-0.01248935
191	0x3d3c2dcf	0.045942124
192	0xbd009d1f	-0.031399842
193	0x3d097977	0.033563104
194	0xbbb0bbc4	-0.005393477
195	0x3cea214f	0.028580336
196	0xbcb5183c	-0.022106282
197	0x3b387ac1	0.002814934
198	0xbd16493c	-0.036690935
199	0xbcc67a33	-0.024228191
200	0xbcd2f764	-0.02575273
201	0xbcaeca1d	-0.02133661
202	0x3bc554ef	0.0060220878
203	0xbbff97ef	-0.0078000943
204	0x3b2202fc	0.0024721017
205	0x3c5f332e	0.013623042
206	0x3d326274	0.043550923
207	0x3b80da48	0.003932271
208	0x3c6c0670	0.014405832
209	0xbb228a34	-0.0024801614
210	0xbac93138	-0.0015349751
211	0xbcf5f1e3	-0.030022567
212	0x3d2505b8	0.040288657
213	0xbca28229	-0.019837456
214	0xbb5d0f95	-0.0033731211
215	0xbd3a53a0	-0.045489907
216	0xbc6351b9	-0.013874465
217	0x3d088143	0.0333264
218	0x3d34b4cc	0.044117734
219	0xbce608bb	-0.028080335
220	0xbd00ae47	-0.031416204
221	0xbcd69bdd	-0.026197368
222	0x3cb5fe1f	0.022215901
223	0x39d5ce8c	0.00040780415
224	0x3d1b418b	0.037904304
225	0x3cb4de1a	0.022078563
226	0xbce164c1	-0.027513864
227	0xbd0e21d0	-0.034700215
228	0x3d20d0d7	0.039261665
229	0xbd160ddc	-0.03663431
230	0x3c027392	0.007962124
231	0xbc1bb9bf	-0.009504735
232	0xbcd7c077	-0.026336892
233	0xbd284cdb	-0.04108892
234	0xbd26d234	-0.04072781
235	0x3ba4cf57	0.0050295996
236	0x3b1bde91	0.0023783783
237	0xbba5d561	-0.005060837
238	0x3c0d49cf	0.008623554
239	0xbc14bd38	-0.009078316
240	0x3d07ac36	0.033123218
241	0x3c998a28	0.018742636
242	0x3c050428	0.008118667
243	0x3ca736dd	0.020411903
244	0xbcfc5554	-0.030802406
245	0xbd2b64e6	-0.04184427
246	0xbd1ead2a	-0.03873936
247	0x3ced2ef7	0.028953059
248	0xbd223d2e	-0.039609127
249	0x3c9c5bea	0.019086797
250	0xbb202769	-0.0024437553
251	0x3d019733	0.031638335
252	0xbc3bb631	-0.011457012
253	0x3cd2ef5d	0.025748903
254	0x3c29af8d	0.010356796
255	0x3bc1399a	0.005896759

decoder.deconv.0.bias f4 [64]
0	0x3d438376	0.047732793
1	0x3d417be4	0.047237292
2	0xbcd3655e	-0.025805172
3	0xbd06288e	-0.03275352
4	0xbc8ac955	-0.016941706
5	0x3cd0e442	0.025499467
6	0xbd0d1f1f	-0.034453508
7	0x3d8e8643	0.06959202
8	0xbd2495fb	-0.040182095
9	0x3d458e10	0.048231184
10	0x3d94ab52	0.07259239
11	0xbce4106e	-0.027839866
12	0x3d480040	0.048828363
13	0xbd355e77	-0.04427954
14	0x3d51563e	0.051107638
15	0xbcccea23	-0.025013989
16	0x3d453bbf	0.04815268
17	0x3d2a6bb7	0.04160663
18	0x3d85fa03	0.065418266
19	0xbd02a16f	-0.031892236
20	0xbc1bb4b9	-0.009503537
21	0xbd40d218	-0.04707536
22	0xbc688123	-0.014190945
23	0x3d46e41c	0.048557386
24	0xbc99975c	-0.018748932
25	0xbcc3038e	-0.023805406
26	0xbca25314	-0.019815005
27	0xbc730989	-0.014833816
28	0xbc6373c4	-0.013882581
29	0xbc430878	-0.011903875
30	0xbcd4b055	-0.025962988
31	0xbceaa1a1	-0.028641524
32	0xbd0d1e89	-0.03445295
33	0x3d9b2f2f	0.07577359
34	0x3d2bd7e1	0.041953925
35	0xbd235f7a	-0.039885975
36	0xbb67f198	-0.0035391804
37	0x3d3dcb34	0.046336368
38	0xbd3042a0	-0.04303229
39	0x3d6a783b	0.057243567
40	0xbcf9c5e1	-0.030489864
41	0x3d7eff50	0.062255204
42	0xbb895dc4	-0.004192086
43	0x3d0630fd	0.032761563
44	0xbbfc1c69	-0.0076938164
45	0xbc083ff4	-0.008316029
46	0x3d885c6f	0.06658255
47	0x3d1f237a	0.038852192
48	0xbc9a9934	-0.018871881
49	0xbd1a34ca	-0.037648
50	0x3d2f75c3	0.042836916
51	0x3d98692c	0.07441935
52	0xbd0cdebf	-0.034392115
53	0x3d89886d	0.06715474
54	0xbbeb4951	-0.007180371
55	0x3d820781	0.063490875
56	0x3d35f9cf	0.04442769
57	0xbd1721ac	-0.036897346
58	0xbcbb7d48	-0.022886887
59	0xbd3fe374	-0.046847776
60	0xbd14b3e5	-0.036304373
61	0x3cf216e8	0.029551938
62	0xbcbf5746	-0.023357045
63	0xbd1a5b31	-0.037684623

decoder.deconv.2.weight f4 [64, 64, 3]
0	0x3c126700	0.00893569
1	0x3da1d1e6	0.07901363
2	0xbd2bd732	-0.041953273
3	0x3bbbf779	0.005736288
4	0x3d8357c5	0.06413225
5	0xbd2a02d2	-0.041506596
6	0x3c89a137	0.016800506
7	0xb9f2ecb5	-0.00046334197
8	0xbc19488c	-0.009355675
9	0x3c0d8ee8	0.008640029
10	0x3d8e5494	0.06949726
11	0xbcdd6fbb	-0.027030816
12	0xbd719f12	-0.058989592
13	0x3c9a787d	0.018856281
14	0x3d40ef2e	0.0471031
15	0x39f1ae11	0.00046096792
16	0xbbeeef08	-0.0072916783
17	0xbd4407ad	-0.047858883
18	0xbb8c4a13	-0.0042812913
19	0xbd35287d	-0.044228066
20	0xbd5ad27e	-0.053423397
21	0xbc2b2db0	-0.0104479045
22	0x3dc2d1ff	0.0951271
23	0xbd8c6334	-0.06854859
24	0xbccaeef8	-0.024772152
25	0x3bf72955	0.007542769
26	0x3d84ee9c	0.064908236
27	0xbcdc9d0a	-0.02693035
28	0x3dc77117	0.09738367
29	0xbc8a4f7e	-0.016883608
30	0xbd066429	-0.032810364
31	0x3c90b7d9	0.01766579
32	0x3a314a9c	0.0006763132
33	0x3d17613f	0.036957975
34	0x3d587163	0.05284251
35	0xbd6d5f91	-0.057952467
36	0xbcb1b94c	-0.021694802
37	0x3d16de9b	0.036833387
38	0xbcd9d2fe	-0.026589867
39	0xbb4385ab	-0.002983431
40	0xbc779d98	-0.015113257
41	0x3d8e0aa6	0.06935625
42	0xbd76b0fc	-0.06022738
43	0x3d28e318	0.0412322
44	0x3d20b10e	0.039231353
45	0x3d567dc8	0.052366048
46	0xbd0ac891	-0.03388268
47	0xbd1af27d	-0.03782891
48	0xbd81c991	-0.06337274
49	0x3d9eeeb9	0.077603765
50	0xbda5f850	-0.081040025
51	0xbd5934be	-0.053028814
52	0x3bf64aad	0.0075162263
53	0xbd1946bc	-0.037420973
54	0x3d1e7aac	0.038691208
55	0x3becdbcb	0.00722835
56	0xbd09260b	-0.033483546
57	0xbd1e25a2	-0.03861011
58	0x3d4a1f29	0.049346123
59	0xbd82d4e4	-0.06388262
60	0x3d1fa860	0.038978934
61	0xbd47dcf4	-0.0487947
62	0xbd059f46	-0.032622598
63	0xbcb1eca0	-0.021719277
64	0xbd60dde6	-0.05489912
65	0x3d4e790c	0.050408408
66	0x3bc36b66	0.0059637306
67	0xbcea0169	-0.028565126
68	0xbcae6b42	-0.021291379
69	0x3d89e014	0.06732193
70	0x3d96a32d	0.07355342
71	0x3ce306a9	0.027713137
72	0x3d4ea3f4	0.050449327
73	0xbbe99e45	-0.007129463
74	0xbcb0f8c4	-0.021602996
75	0xba8616a6	-0.0010230138
76	0x3d6988b8	0.05701515
77	0xbcded7ff	-0.027202604
78	0x3cee4795	0.029086867
79	0xbd8ef80e	-0.069809064
80	0x3c861f74	0.01637242
81	0xbd33cfd0	-0.043899357
82	0xbd3e9147	-0.046525266
83	0x3d24e089	0.040253196
84	0xbd66abe4	-0.05631627
85	0x3ce6627a	0.02812313
86	0x3cd69079	0.026191937
87	0xbd852e9a	-0.06503029
88	0xbbdd3e22	-0.0067517916
89	0xbb2cd1eb	-0.0026370238
90	0x3d37e256	0.044893585
91	0x3c1e7cc0	0.009673297
92	0x3d86bc5e	0.06578897
93	0xbd91a509	-0.07111556
94	0x3d84a035	0.064758696
95	0xbd13add5	-0.03605445
96	0x3c76bf47	0.0150602525
97	0xbc987423	-0.018610066
98	0x3d4a5565	0.049397845
99	0xbcd93909	-0.026516454
100	0x3dd0ff49	0.10204942
101	0xbd93fb43	-0.07225659
102	0xbceca36a	-0.028886516
103	0xbbe8aa94	-0.0071004126
104	0x3d277f77	0.040893044
105	0xbb984f35	-0.004648114
106	0x3cf0ea73	0.02940867
107	0xbd8f5236	-0.06998102
108	0xbd3e2624	-0.046423092
109	0x3d7473a4	0.059680596
110	0xbcc19b9a	-0.023633767
111	0x3b2bd29b	0.002621806
112	0xbb8159bd	-0.003947465
113	0xbd718288	-0.058962375
114	0xbd67cdeb	-0.056592863
115	0x3d4a43db	0.04938112
116	0x3ce2fcc0	0.027708411
117	0x3d21586f	0.039390977
118	0xbce729e9	-0.028218227
119	0xbc51f687	-0.012815124
120	0x3af0567c	0.0018336321
121	0xbd5c8708	-0.053839713
122	0x3d4f8e93	0.05067308
123	0xbd1534ff	-0.036427494
124	0x3dc82910	0.09773457
125	0xbd870a8f	-0.06593811
126	0x3cd52012	0.026016269
127	0x3cdeadc7	0.027182473
128	0x3c1d0afe	0.00958514
129	0x3cd8b50c	0.026453517
130	0x3bf15683	0.0073650493
131	0xbdaa665a	-0.08320303
132	0xbd8b31ce	-0.06796609
133	0x3d3ecfd6	0.046584927
134	0xbc673fba	-0.014114315
135	0xbd8923aa	-0.066962555
136	0x3cf7d860	0.030254543
137	0x3c81d44e	0.015848305
138	0x3d26a98f	0.040689047
139	0x3d8368a0	0.0641644
140	0xbd554a83	-0.052073013
141	0xbc9ec77e	-0.019382235
142	0xbcaafb0f	-0.020871667
143	0xbd8c83d5	-0.068610825
144	0xbd9372fe	-0.071996674
145	0x3cc3f07b	0.023918381
146	0x3d5acc1d	0.053417314
147	0x3d300655	0.04297479
148	0x3cd01eee	0.025405373
149	0xbd687b80	-0.056758404
150	0xbcbe0c0a	-0.0231991
151	0x3d5c3419	0.05376062
152	0xbc831d41	-0.01600516
153	0xbc874266	-0.016511153
154	0x3cc1f31f	0.0236755
155	0x3d32291d	0.04349624
156	0x3c886125	0.016647885
157	0xbbfef7c2	-0.007781
158	0xbd4383eb	-0.04773323
159	0x3b993a83	0.0046761646
160	0xbcafae76	-0.021445494
161	0xbd87315e	-0.06601213
162	0x3caa4567	0.020785047
163	0xbd2d8110	-0.04235941
164	0xbbc255d7	-0.005930643
165	0x3d190f50	0.03736812
166	0x3d9057ee	0.07048021
167	0xbd77cf99	-0.060500715
168	0xbd0ca824	-0.03434004
169	0x3db24b70	0.08705795
170	0xbc055728	-0.008138455
171	0x3d12fe38	0.035886973
172	0xbd1f4f48	-0.038893968
173	0xbcdf1397	-0.02723102
174	0x3c9b810f	0.018982438
175	0xbc91b9cb	-0.017788788
176	0xbd2a964e	-0.041647248
177	0xbc220b7b	-0.0098904325
178	0x3d658344	0.056033388
179	0x3d2ff1f9	0.042955372
180	0xbb43b8c4	-0.0029864768
181	0xbd2551bb	-0.040361147
182	0xbd85a91b	-0.06526395
183	0xbd3058e1	-0.04305351
184	0x3c6365fb	0.0138792945
185	0x3d10c64e	0.035345368
186	0x3c9ae7e6	0.018909406
187	0xbd8c99ef	-0.06865298
188	0x3d5f32b4	0.054491714
189	0x3d0aae5a	0.03385768
190	0xbd68626f	-0.0567345
191	0xbd90e6eb	-0.07075294
192	0x3d029af3	0.031886052
193	0x3d8266d1	0.06367267
194	0xbaea8439	-0.0017892189
195	0xbd0a65b5	-0.0337884
196	0x3c1cf2d7	0.009579382
197	0x3c3fdb70	0.011710033
198	0xbc0f88aa	-0.008760611
199	0x3d4362a9	0.04770151
200	0xbcd0c362	-0.02548379
201	0x3c35a6e5	0.011087154
202	0xbd675101	-0.056473736
203	0xbc6d268b	-0.014474521
204	0x3c5ba711	0.013406531
205	0xbceec4af	-0.02914652
206	0x3d5b542e	0.053547077
207	0x3d9c8a74	0.07643595
208	0x3dae5830	0.08512914
209	0x3cc92842	0.02455533
210	0x3d77ccee	0.06049817
211	0xbbb9a857	-0.0056658196
212	0xbd79043d	-0.060795058
213	0x3dae815e	0.085207686
214	0xbd169e93	-0.036772322
215	0x3d0401cf	0.032228287
216	0x3c4a3c83	0.012343529
217	0xbae6846a	-0.001758707
218	0x3d2ebdf7	0.042661633
219	0x3cabb9d1	0.020962628
220	0xbc93ee58	-0.018057987
221	0xbd7d164c	-0.061788842
222	0xbcab752d	-0.020929897
223	0x3bdb333e	0.006689458
224	0xbc4d5d4f	-0.0125344535
225	0x3c4d7c39	0.012541824
226	0x3c9599b8	0.018261775
227	0xbc2492fb	-0.0100448085
228	0xba996aaf	-0.0011704768
229	0x3ca0bae2	0.019620363
230	0xbd20051d	-0.039067376
231	0xbd1964db	-0.0374497
232	0xbd362a8a	-0.044474162
233	0xbcb09b9d	-0.021558577
234	0x3d74490a	0.059639968
235	0x3db00582	0.085948005
236	0x3d06e4c8	0.032933027
237	0x3cabfcc4	0.020994551
238	0xbc2c82e4	-0.010529254
239	0x3d4bbc45	0.049740095
240	0x3c68a4ec	0.014199477
241	0x3d454176	0.04815813
242	0x3d7bd4b6	0.061482154
243	0x3daa0330	0.08301389
244	0xbc1d3f8d	-0.009597671
245	0x3a01448d	0.00049311743
246	0x3dadded9	0.084897704
247	0x3d95636e	0.07294355
248	0xbd7db1da	-0.06193719
249	0xbd83c407	-0.064338736
250	0x3c81dc43	0.0158521
251	0x3b43b5e1	0.0029863047
252	0xbad9d316	-0.0016618695
253	0xbd820ab1	-0.063496955
254	0xbd4b53ae	-0.04964035
255	0xbd89f917	-0.06736963

decoder.deconv.2.bias f4 [64]
0	0x3d8431dd	0.06454823
1	0x3d7e22b8	0.06204483
2	0x3d78846b	0.06067316
3	0x3dad4389	0.08460147
4	0x3c19bae7	0.00938294
5	0x3d837466	0.064186856
6	0x3d786a66	0.060648344
7	0x3d79b9cf	0.060968217
8	0x3d1cb025	0.038253922
9	0xbc22a10b	-0.009926091
10	0x3d803171	0.0625943
11	0x3d4995cc	0.049215123
12	0x3da2b715	0.079450764
13	0x3da76c4e	0.08174954
14	0xbd8373a3	-0.0641854
15	0x3d725f8f	0.059173163
16	0xbd8bda6a	-0.068287686
17	0xbc996ebf	-0.018729566
18	0x3c3c949f	0.011510043
19	0x3dadc800	0.084854126
20	0xbc258774	-0.010103095
21	0x3c404df8	0.011737339
22	0x3d6cdf1a	0.057829954
23	0x3d62d232	0.05537624
24	0xbd37b672	-0.044851728
25	0xbc855bb6	-0.016279083
26	0x3dad69b8	0.0846743
27	0x3d8b1250	0.06790602
28	0xbd2da378	-0.042392224
29	0x3d806e41	0.06271029
30	0xbd2a6ea4	-0.04160942
31	0xbcc48a75	-0.023991803
32	0xbc40b55a	-0.011761988
33	0x3d2502c3	0.040285837
34	0x3da4176e	0.08012281
35	0x3d12759b	0.03575669
36	0x3d85d419	0.06534595
37	0x3c9c185a	0.01905458
38	0x3cadb43b	0.021204105
39	0xbd479d92	-0.048734255
40	0xbd13732e	-0.035998516
41	0x3c16c782	0.00920284
42	0x3dc713c7	0.09720569
43	0xbd2c8157	-0.042115536
44	0xbcb35ea2	-0.02189571
45	0xbcb642ab	-0.022248587
46	0x3d6d9e1a	0.058012106
47	0x3dae531e	0.08511947
48	0xbd4685d3	-0.04846747
49	0xbcb26b84	-0.021779783
50	0xbd7e7271	-0.06212086
51	0x3d9341e2	0.071903005
52	0xbd837828	-0.06419402
53	0x3dc6da46	0.09709601
54	0x3d5a999e	0.053369157
55	0xbd8bdef1	-0.06829632
56	0xbcf9a8ea	-0.030476052
57	0x3cd9e631	0.026599022
58	0x3d5812a4	0.052752152
59	0x3d03ec28	0.032207638
60	0x3d6b06ca	0.05737952
61	0xbd53d0db	-0.051712852
62	0x3c76e856	0.015070042
63	0x3dbe3208	0.092868865
