model/vqvae/num_embedding_16_commitment_cost_0.25.pt (torch, 269273 bytes, 17 tensors)

encoder.conv.0.weight f4 [64, 5, 5]
0	0xbda93c7a	-0.08263488
1	0x3d9cc0b5	0.076539434
2	0xbd0c2200	-0.034212112
3	0x3d11d700	0.03560543
4	0x3e18f937	0.14938818
5	0xbd2e2c4d	-0.042522717
6	0xbdaec73e	-0.08534096
7	0xbc78d9f1	-0.01518868
8	0xbe3e1df8	-0.1856612
9	0xbdf14de5	-0.11782435
10	0xbcdbd965	-0.02683706
11	0x3e4c4364	0.19947582
12	0x3e0acc5d	0.13554521
13	0x3e3b7e9b	0.18310015
14	0xbd34797b	-0.044061165
15	0xbddc6abb	-0.10762545
16	0xbd9d34e0	-0.07676101
17	0x3e519a5f	0.20469044
18	0x3e5544bc	0.20827001
19	0x3dc611e0	0.09671378
20	0x3dffd7b9	0.12492318
21	0xbccddb52	-0.025128994
22	0x3e2f83c6	0.17140111
23	0xbdbcd582	-0.09220411
24	0xbe36027a	-0.17774382
25	0xbd45e440	-0.04831338
26	0xbd928c28	-0.07155639
27	0x3c039ad2	0.0080325175
28	0xbc95ef76	-0.01830266
29	0xbe35339e	-0.17695472
30	0x3e16d509	0.14729704
31	0x3e0e6d63	0.13908915
32	0xbdadfa62	-0.08495022
33	0xbdc8dba1	-0.09807516
34	0xbd1a2214	-0.037630156
35	0xbe272d25	-0.16325815
36	0x3e1dc516	0.15407214
37	0x3e43b150	0.19110608
38	0xbe1a7283	-0.15082745
39	0xbce51ae7	-0.02796693
40	0x3e0ebc99	0.13939132
41	0x3c8c1fbc	0.017104976
42	0x3e102359	0.14075984
43	0xbe016b8e	-0.12638685
44	0xbd86bc38	-0.06578869
45	0x3c58298a	0.013193497
46	0xbe4db241	-0.2008753
47	0x3b028687	0.001991661
48	0xbdf17876	-0.11790554
49	0x3e2373a8	0.15962088
50	0x3c95b71e	0.018275794
51	0x3e2242e5	0.1584583
52	0xbd500555	-0.050786335
53	0xbcf1b9d9	-0.029507564
54	0x3e2ee57f	0.17079733
55	0xbe0bbc31	-0.13646008
56	0x3b38c1d0	0.0028191693
57	0xbdce970b	-0.10087403
58	0x3e3f0a2f	0.18656228
59	0x3dbcc738	0.092176855
60	0xbd29c0b0	-0.041443527
61	0x3e2c2f73	0.16814975
62	0xbe29e41a	-0.1659092
63	0x3db4ab7d	0.08821771
64	0xbe382b02	-0.17985156
65	0x3d26b214	0.040697172
66	0xbdf82049	-0.12115533
67	0x3e28a92f	0.16470788
68	0xbdd2f9b7	-0.103015356
69	0xbe0a3a6d	-0.1349885
70	0x3dcb9f5e	0.09942506
71	0xbd90121f	-0.07034706
72	0xbd02bf13	-0.031920504
73	0xbe497455	-0.19673283
74	0xbda39728	-0.07987815
75	0x3db53776	0.08848469
76	0x3dcd8c37	0.100365095
77	0xbdd9c3d8	-0.10633057
78	0x3d24579b	0.04012261
79	0x3d74a212	0.059724875
80	0x3d2261e0	0.039644122
81	0xbda6c24d	-0.08142529
82	0xbdb7d192	-0.08975519
83	0xbc8b9835	-0.017040351
84	0xbe4d56e9	-0.20052685
85	0x3c7400e0	0.014892787
86	0x3e082be0	0.13297987
87	0xbe0ea9d2	-0.13931969
88	0x3e2b8e98	0.16753614
89	0x3e19a47b	0.1500415
90	0xbdfcbc07	-0.12340551
91	0x3e22e438	0.15907371
92	0xbdf0ca21	-0.11757303
93	0x3e2923b6	0.16517529
94	0xbd0117d2	-0.031516857
95	0xbe49d62d	-0.19710608
96	0xbe1174b5	-0.14204676
97	0x3ddea243	0.10870793
98	0xbe53d9aa	-0.20688501
99	0x3d8c9b6d	0.068655826
100	0x3e0b702f	0.13617013
101	0x3d32d9b2	0.04366464
102	0xbcf13b13	-0.029447114
103	0x3b80d811	0.003932007
104	0x3e3cb137	0.18426977
105	0x3dc2c559	0.09510297
106	0xbe3b1cc2	-0.18272689
107	0xbdf836b6	-0.1211981
108	0xbd35d71f	-0.04439461
109	0xbe1a976d	-0.15096827
110	0xbdda6883	-0.10664465
111	0xbe179381	-0.14802362
112	0xbdf74006	-0.120727584
113	0xbe2c7b0b	-0.16843812
114	0xbdfb6b3b	-0.12276312
115	0x3d87fd9a	0.066401675
116	0xbc8405f0	-0.016116112
117	0x3ddb39c9	0.10704381
118	0x3d53dfa3	0.05172695
119	0x3c3531f1	0.01105927
120	0xbdc74e37	-0.09731715
121	0x3dfa9974	0.122363
122	0xbdd273e3	-0.1027601
123	0x3e40ffa3	0.18847518
124	0xbe22b954	-0.1589101
125	0x3dd32a08	0.10310751
126	0x3e2ad9f1	0.166847
127	0x3e3e34b3	0.1857479
128	0x3dd40b02	0.10353662
129	0x3d5bdb5c	0.053675994
130	0x3d8cef85	0.06881622
131	0xbe4d7588	-0.20064366
132	0xbdb85204	-0.09000018
133	0xbd44e833	-0.048073005
134	0xbdedfdbe	-0.11620663
135	0xbe34e31e	-0.17664763
136	0x3c084fe5	0.00831983
137	0xbe379731	-0.17928769
138	0x3e46c833	0.19412307
139	0x3d3e561c	0.04646884
140	0x3e1e6c68	0.15471041
141	0xbdb5c5db	-0.088756286
142	0x3d96ed04	0.07369426
143	0xbdca39d9	-0.09874315
144	0xbd8700b4	-0.06591931
145	0xbb232c1a	-0.0024898113
146	0x3e114c8a	0.14189354
147	0x3dedb4df	0.11606764
148	0xbd6438e6	-0.055718325
149	0xbbb71344	-0.0055870134
150	0xbc8c9706	-0.017161857
151	0xbde8085f	-0.11329722
152	0xbd7e6749	-0.06211022
153	0x3d7af7e4	0.061271563
154	0xbe229851	-0.15878417
155	0x3e08361e	0.13301894
156	0xbe340c5f	-0.17582844
157	0x3dcb8cea	0.099389866
158	0xbe06d383	-0.13166623
159	0x3e267fd1	0.16259696
160	0xbe2cd994	-0.16879874
161	0xba93c110	-0.0011272747
162	0x3e49d283	0.1970921
163	0x3dcb7c5b	0.09935828
164	0xbda3d8d9	-0.08000345
165	0x3e3e4f00	0.18584824
166	0xbdfe1686	-0.1240664
167	0xbdf0252e	-0.117258415
168	0x3b0c764c	0.0021432815
169	0xbdc68eb6	-0.09695189
170	0xbd5c64d4	-0.053807095
171	0x3d2f237f	0.04275846
172	0x3de483a4	0.11157921
173	0x3c93f88b	0.01806285
174	0xbe05cb38	-0.13065803
175	0xbdf48c3b	-0.11940809
176	0xbc90cbcf	-0.017675309
177	0x3e3f6eaa	0.18694559
178	0xba949f51	-0.0011338984
179	0xbdcbeb4f	-0.09956991
180	0xbdcfa825	-0.10139493
181	0x3d7dae0b	0.06193356
182	0xbdfd0d4b	-0.12356051
183	0xbdb6baa1	-0.089223154
184	0xbe021bd3	-0.12705927
185	0x3c866a5c	0.016408138
186	0xbe1ce6b6	-0.15322384
187	0x3e05c905	0.13064964
188	0xbe47cbc8	-0.1951133
189	0xbe46e650	-0.19423795
190	0xbc9ef52d	-0.019404018
191	0x3cf49550	0.029856354
192	0xbd563191	-0.052293364
193	0xbcd84e0f	-0.026404409
194	0x3d62b1ee	0.05534547
195	0x3c953d90	0.018217832
196	0x3e20f82f	0.15719675
197	0x3e293aeb	0.16526382
198	0xbe2d783d	-0.16940399
199	0x3d7ed38d	0.06221347
200	0xbbb7923a	-0.0056021484
201	0x3e347c7e	0.17625615
202	0x3e33be75	0.17553122
203	0xbe1603fd	-0.14649959
204	0x3e0ffd7f	0.14061545
205	0xbd2c7d31	-0.04211158
206	0x3e264eb1	0.16240956
207	0x3d761af2	0.06008429
208	0xbe3e44f3	-0.1858099
209	0x3cb630fa	0.02224015
210	0xbcde4934	-0.027134515
211	0x3e3f7675	0.18697532
212	0x3d560b31	0.052256767
213	0x3e23cd95	0.15996392
214	0x3d6316f0	0.055441797
215	0x3e05a332	0.13050535
216	0xbe3a5caf	-0.18199418
217	0xbe483eeb	-0.19555251
218	0xbd9e9725	-0.07743672
219	0xbdcc2635	-0.09968225
220	0xbd327dc4	-0.04357697
221	0x3e42b744	0.19015223
222	0xbe0495b7	-0.12947737
223	0x3de69a39	0.112598844
224	0x3e1fb2a2	0.15595487
225	0xbc11172d	-0.008855623
226	0xbcc20f57	-0.023688955
227	0x3d87dee2	0.066343084
228	0xba381a46	-0.0007022958
229	0xbe3de01d	-0.18542524
230	0x3dac5cfd	0.084161736
231	0x3da9572a	0.08268578
232	0x3dd0848e	0.10181533
233	0xbe4ac162	-0.19800332
234	0xbd39e6a3	-0.045385968
235	0xbe06d3aa	-0.13166681
236	0x3e3558b2	0.17709616
237	0x3bae1f0a	0.0053137587
238	0x3d1ec8c3	0.03876568
239	0xbdf83a36	-0.12120478
240	0xbd4c5e9e	-0.04989492
241	0xbd994e57	-0.07485645
242	0x3e506d08	0.20354092
243	0xbbd6863a	-0.006546763
244	0x3d8c51dc	0.06851551
245	0x3db26b5a	0.08711882
246	0xbe386310	-0.1800654
247	0xbd253957	-0.040337887
248	0x3d33cde1	0.043897513
249	0xbe123da6	-0.1428133
250	0x3e221b2a	0.15830675
251	0xbe03b377	-0.12861429
252	0x3e39e510	0.18153787
253	0xbe0b5c14	-0.13609344
254	0xbcc23455	-0.023706594
255	0x3df186cf	0.11793291

encoder.conv.0.bias f4 [64]
0	0xbe11b38a	-0.14228645
1	0xbd1d9a7e	-0.038477413
2	0x3d671016	0.056411825
3	0x3d3a8f36	0.045546733
4	0x3dea1cca	0.11431272
5	0xbe44f734	-0.19234926
6	0x3e308c36	0.17240986
7	0xbdb48297	-0.088139705
8	0xbe21ad70	-0.15788817
9	0xbd87a5bb	-0.066234075
10	0x3d779ec9	0.060454164
11	0xbd19c354	-0.037539795
12	0x3c922449	0.017839568
13	0x3dd74397	0.105109386
14	0x3e312bfe	0.17301938
15	0x3e3404dd	0.1757998
16	0x3d02afe1	0.031906012
17	0xbd836665	-0.064160146
18	0xbe26682d	-0.16250677
19	0x3ce7f6b6	0.028315883
20	0x3d0342fe	0.03204631
21	0x3e2dbaf1	0.16965844
22	0xbdc9bcc6	-0.09850459
23	0xbdc048bf	-0.09388875
24	0xbda2e80c	-0.07954416
25	0xbc91d78f	-0.017802982
26	0xbe07fcc9	-0.13280024
27	0xbb32e192	-0.0027295095
28	0xbdf0ee6c	-0.11764225
29	0xbe10e8f4	-0.14151365
30	0xbd8e67f9	-0.06953425
31	0xbd6d8617	-0.057989206
32	0x3be11a4a	0.006869589
33	0x3d787e1c	0.060667142
34	0x3cc2d7cc	0.02378454
35	0xbd515a83	-0.05111171
36	0x3e0a97aa	0.13534418
37	0xbe487c28	-0.19578612
38	0xbd4cb10c	-0.049973533
39	0xbe4e2b2e	-0.20133659
40	0x3e05cdca	0.13066784
41	0x3dfc7523	0.123270296
42	0xbe25874b	-0.16164891
43	0x3dde29eb	0.10847839
44	0xbd487a91	-0.048945013
45	0x3d6de518	0.05807981
46	0xbda603a4	-0.08106163
47	0x3d989527	0.074503236
48	0x3e1e7c50	0.15477109
49	0x3e3388ec	0.175327
50	0xbdf4cd4c	-0.1195322
51	0x3de86c67	0.11348801
52	0x3e36a555	0.17836507
53	0xbe4c2e22	-0.19939473
54	0x3d3969ce	0.04526692
55	0xbdd3eb9d	-0.10347674
56	0xbdf6d4c7	-0.12052303
57	0xbe14df26	-0.1453825
58	0x3d224dc9	0.039624963
59	0xbc3dbd67	-0.011580802
60	0xbe105d4d	-0.14098091
61	0x3db0a264	0.086247236
62	0xbe29b069	-0.16571201
63	0xbe1542b3	-0.14576225

encoder.conv.2.weight f4 [64, 64, 5]
0	0xbc885d33	-0.016646003
1	0xbceabcad	-0.02865442
2	0xbca251cb	-0.019814393
3	0x3c455c14	0.012045879
4	0xbd3c56c1	-0.045981172
5	0x3ca9626e	0.020676818
6	0xbd0cefb2	-0.03440828
7	0x3b5d89a7	0.003380397
8	0xbcb49802	-0.02204514
9	0x3d1d7e82	0.038450725
10	0x3d34f3fa	0.044177987
11	0x3c515020	0.012775451
12	0xbd187915	-0.037224848
13	0xbd41e44d	-0.047336865
14	0x3d0f49d1	0.034982506
15	0x3d1beb42	0.038066156
16	0xbc92548a	-0.017862577
17	0x3a35d30d	0.0006936051
18	0x3cac8321	0.02105862
19	0xbd5b57e4	-0.053550616
20	0x3c7223e5	0.014779066
21	0xbcdb50f4	-0.026772
22	0x3cf56bc9	0.029958623
23	0xbc867d47	-0.016417159
24	0x3bb7f16a	0.0056134956
25	0xbcb3761e	-0.021906909
26	0x3d2e7911	0.042595927
27	0xbd507b7c	-0.050899014
28	0x3c180158	0.009277664
29	0xbc8185be	-0.015810844
30	0xbcc02222	-0.023453776
31	0xbd63f7a7	-0.0556561
32	0x3ce888de	0.028385576
33	0xbd05bf32	-0.03265304
34	0x3b765327	0.0037586184
35	0xbccf5c08	-0.025312439
36	0xbc943f86	-0.018096697
37	0x3c7b1cb9	0.015326672
38	0x3c02f16a	0.007992128
39	0x3ca24cf0	0.019812077
40	0x3cdf8b43	0.027288085
41	0x3d3c36df	0.045950767
42	0x3c01cec3	0.007922831
43	0x3ce636cb	0.0281023
44	0x3cba3aaa	0.022733051
45	0x3c1525d5	0.009103258
46	0xbd2ae73b	-0.041724425
47	0xbcbe690a	-0.023243446
48	0xbd3d0281	-0.046144966
49	0x3d2ad060	0.041702628
50	0xbd7aabe7	-0.061199095
51	0x3cd21739	0.025645839
52	0xbc4cf35f	-0.012509196
53	0xbd3710f0	-0.044693887
54	0x3d059fa1	0.032622937
55	0x3be71fdf	0.00705336
56	0xbd817861	-0.063217886
57	0xbd3cd800	-0.04610443
58	0x3c601b5b	0.013678397
59	0x3d0c52d1	0.034258667
60	0x3d387bf2	0.04504008
61	0x3d53638e	0.051608615
62	0xbd4f0fcb	-0.05055217
63	0x3d2fef4c	0.04295282
64	0xbc4f1f1d	-0.012641695
65	0xbcfeb93f	-0.031094192
66	0xbd385559	-0.04500327
67	0xbc977518	-0.018488452
68	0xbd1bd45a	-0.03804431
69	0xbd3629c1	-0.044473413
70	0xbccd0b8d	-0.025029922
71	0xbd1a08b8	-0.03760597
72	0xbd3502a7	-0.044191983
73	0xbd45b9f3	-0.048273038
74	0xbd23486d	-0.039863992
75	0x3c9303ae	0.01794609
76	0xbd5e2321	-0.05423272
77	0x3c942716	0.018085044
78	0x3c60652e	0.013695998
79	0xbcb3678d	-0.021899963
80	0xbb8d6ee5	-0.004316198
81	0xbd4e3cc4	-0.05035092
82	0x3d0ce0ee	0.034394197
83	0xbcdaef7a	-0.02672552
84	0xbd4c165c	-0.04982601
85	0xbd20e8ad	-0.039284397
86	0x3d38fbde	0.045162074
87	0x3d06df28	0.032927662
88	0xbce9bda0	-0.028532803
89	0xbca94401	-0.02066231
90	0x3d58f4be	0.05296778
91	0xbd36dcff	-0.044644352
92	0x3c80cee3	0.015723651
93	0xbccae2cd	-0.02476635
94	0x3c0251fe	0.007954119
95	0xbd00b46d	-0.031422067
96	0x3d2bd351	0.041949574
97	0xbd81f91d	-0.06346343
98	0xbbc4af52	-0.006002345
99	0xbc33f58c	-0.010983836
100	0xbcef0e65	-0.029181669
101	0x3cba5c23	0.022749012
102	0x3b95bedc	0.0045698714
103	0xbba27ce2	-0.004958735
104	0xbd7a0c90	-0.061047137
105	0x3d4e57ff	0.05037689
106	0xbd2d0a95	-0.04224642
107	0xbce8bb63	-0.028409665
108	0x3d0c5f36	0.034270488
109	0xbd297bb8	-0.041377753
110	0x3b9b8f8d	0.004747337
111	0x3ce1b2a8	0.02755101
112	0x3d2f267e	0.04276132
113	0xbc1356e4	-0.008992884
114	0x3c9de4d6	0.019274157
115	0xbd69779a	-0.056998827
116	0xbd2cca11	-0.042184893
117	0x3c666481	0.014062048
118	0xbc85023c	-0.016236417
119	0xbc245e61	-0.010032267
120	0x3cb16502	0.02165461
121	0x3c58185a	0.0131894
122	0xbcd5fff1	-0.026123019
123	0xbd26cb8f	-0.040721472
124	0x3cb4cb86	0.022069704
125	0xbb64764d	-0.0034860552
126	0xbc0fcd05	-0.008776908
127	0xbd0f55bd	-0.034993876
128	0x3ce6cb54	0.028173126
129	0xbc1eec22	-0.009699853
130	0xbd4802e5	-0.048830885
131	0x3d253b34	0.040339664
132	0xbc641495	-0.013920923
133	0x3cd094aa	0.025461514
134	0x3ce85eee	0.028365579
135	0xbc30369f	-0.01075521
136	0xbc848055	-0.016174475
137	0xbc3f70cb	-0.011684607
138	0x3b017fb7	0.0019759962
139	0xbab51c61	-0.0013817662
140	0xbd18dabe	-0.037317984
141	0x3a96d0e3	0.0011506345
142	0xbccd3c4b	-0.025053164
143	0x3d982878	0.07429594
144	0x3d38257e	0.04495763
145	0x3d629cb9	0.055325244
146	0xbc550fbd	-0.013004241
147	0x3d390bc5	0.04517724
148	0xbc41e978	-0.011835448
149	0x3c28ff2d	0.010314745
150	0xbcc3d6cc	-0.023906134
151	0xbd15c04d	-0.036560345
152	0xbb1bd6cf	-0.002377916
153	0xbc954cd8	-0.018225119
154	0x3cb1f728	0.021724299
155	0x3be0061a	0.006836665
156	0x3c3c8dee	0.011508448
157	0x3d3c4dbe	0.04597258
158	0xbd6ff640	-0.05858445
159	0x3cf3fabe	0.02978265
160	0xbc9a11e3	-0.018807357
161	0x3d285527	0.041096833
162	0xbd101e4b	-0.03518514
163	0xbd513cc3	-0.051083338
164	0xbd4611b9	-0.048356745
165	0xbc9ddf08	-0.019271389
166	0x3ce05cd9	0.027388023
167	0xbbaf2208	-0.005344633
168	0x3d44c7f1	0.04804224
169	0x3c61efe2	0.013790103
170	0xbc6415c6	-0.013921207
171	0x3a7a9bc5	0.00095599546
172	0xbd3da4b1	-0.04629964
173	0xbd10c6db	-0.035345893
174	0x39f06540	0.00045851804
175	0xbd033315	-0.032031137
176	0xbc8711d3	-0.016487991
177	0xbd24202c	-0.040069744
178	0xbd2d7e5a	-0.042356826
179	0x3cc99d8d	0.024611259
180	0xbca847df	-0.020542083
181	0xbc8d9d8a	-0.017287035
182	0xbc885888	-0.016643777
183	0x3cdb7897	0.0267909
184	0x3d09ead6	0.033671223
185	0x3d0a1c86	0.03371861
186	0x3c643799	0.013929271
187	0x3c2bd664	0.010488126
188	0x3d0c9046	0.034317277
189	0x3c97a08a	0.018509168
190	0x3d311c89	0.043240104
191	0xbd576aed	-0.052592207
192	0x3d236e1c	0.03989993
193	0xbd5cced0	-0.05390817
194	0x3c2b275a	0.010446394
195	0xbd043e0f	-0.032285746
196	0x3d1da541	0.038487677
197	0x3d2517a5	0.040305752
198	0xbcd6a510	-0.026201755
199	0xbd6624ce	-0.056187443
200	0xbd0fd291	-0.03511292
201	0xbc669404	-0.014073376
202	0xbd5539da	-0.052057125
203	0x3bec411e	0.007209911
204	0xbcf3408b	-0.029693862
205	0xbce8ec69	-0.028433042
206	0xbd6548db	-0.055977684
207	0x3c2d1ab0	0.010565445
208	0x3cadcd31	0.021216007
209	0xbcdc9c9a	-0.026930142
210	0x3bd72982	0.0065662274
211	0xbd5d3d7a	-0.054013707
212	0x3cd6768a	0.02617957
213	0xbc21a68c	-0.009866368
214	0xbd01b80a	-0.031669654
215	0xbd39e324	-0.045382634
216	0xbcc392b2	-0.02387366
217	0xbc42e3a3	-0.011895093
218	0xbd633d0d	-0.055478144
219	0xbd0eeffe	-0.034896843
220	0xbd305b86	-0.043056034
221	0xbd40573d	-0.046958197
222	0xbd4fba3b	-0.050714713
223	0x3cadb957	0.021206541
224	0x3c0402e3	0.008057329
225	0xbaa84dad	-0.0012840532
226	0x3d49583b	0.04915641
227	0xbd3e9054	-0.04652436
228	0x3cab6f02	0.020926956
229	0xbc492b63	-0.012278411
230	0x3ba3c21a	0.004997504
231	0xbd45aacf	-0.0482586
232	0x3d0d49a3	0.034494054
233	0xbc3273ee	-0.010891898
234	0xbc0d9fa2	-0.008644016
235	0x3d561ebe	0.05227541
236	0xbd0eb2e2	-0.034838565
237	0x3cc05a8c	0.023480676
238	0x3a7c3174	0.0009620406
239	0xbd5f9c0d	-0.05459218
240	0x3cc5643f	0.024095653
241	0x3bb40e3f	0.0054948623
242	0xbc3370e4	-0.010952208
243	0x3d38ec81	0.045147423
244	0x3d0c3856	0.034233414
245	0x3cf05bfc	0.029340737
246	0xbd25deea	-0.04049579
247	0xbcea48c6	-0.028599154
248	0xba799170	-0.0009520268
249	0xbcc902b1	-0.024537416
250	0xbd4cc7b5	-0.049995143
251	0x3b7b77dd	0.0038371005
252	0xbc570ca9	-0.013125577
253	0x3d17b940	0.037041903
254	0xbadf81e1	-0.0017052257
255	0xbc9f97f0	-0.01948163

encoder.conv.2.bias f4 [64]
0	0x3cc19dc0	0.023634791
1	0xbcd1b18e	-0.02559736
2	0xbd7c7f86	-0.061645053
3	0xbc8fce32	-0.017554376
4	0xbd52162c	-0.051290676
5	0xbd340d54	-0.043958023
6	0x3cb89a55	0.022534529
7	0x3d35d6a8	0.044394165
8	0x3b35d4f8	0.0027745347
9	0x3be97f3c	0.007125763
10	0xbcc693eb	-0.024240455
11	0x3c987687	0.018611206
12	0x3cebf13e	0.028801557
13	0x3d0bcd68	0.034131438
14	0x3d17d473	0.03706784
15	0x3ce038e0	0.02737087
16	0xbcff74fc	-0.031183712
17	0x3b5ce68e	0.0033706757
18	0xbcb22c7d	-0.02174973
19	0xbceee6ad	-0.02916273
20	0xbd6e6bd1	-0.05820829
21	0xbcb41dcc	-0.021986865
22	0x3d8431d4	0.064548165
23	0xbcf67016	-0.030082744
24	0x3ce6c3d7	0.028169556
25	0xbc3eba54	-0.011641104
26	0x3d57e80c	0.05271153
27	0x3d4b7ad5	0.04967769
28	0xbd533492	-0.051563807
29	0x3cd49f0d	0.025954748
30	0xbcbb9c4a	-0.022901673
31	0x3c70f1e2	0.014706107
32	0xbd52f16b	-0.051499765
33	0xbccfe019	-0.025375413
34	0xbd1ad95c	-0.037804946
35	0x3c896154	0.016770042
36	0x3c71e403	0.014763835
37	0xbd4cc319	-0.049990747
38	0xbca34afb	-0.019933214
39	0x3d8c308d	0.06845198
40	0x3c7bc072	0.015365707
41	0x3c6aa944	0.014322583
42	0xbd5ec0c9	-0.054383073
43	0x3c6dbb76	0.014510026
44	0x3cb65b97	0.02226047
45	0xba9298d7	-0.0011184466
46	0x3d34d01d	0.044143785
47	0x3d1c8c18	0.03821954
48	0x3c0e859d	0.008698848
49	0x3cff938b	0.031198284
50	0xbcd6e2a1	-0.026231112
51	0x3d3143da	0.0432776
52	0xbd5aa458	-0.053379387
53	0xbd4ac36c	-0.049502775
54	0xbd37e83d	-0.044899214
55	0x3d49e0bc	0.04928659
56	0x3cc96d5a	0.024588276
57	0x3d15dd26	0.036587857
58	0xbd2260b2	-0.039642997
59	0xbcecd26f	-0.028908936
60	0x3bd884f0	0.0066076443
61	0x3d8a7242	0.06760074
62	0x3d0d586f	0.034508165
63	0xbc15fb18	-0.009154104

encoder.conv.4.weight f4 [8, 64, 3]
0	0xbc8c27ce	-0.017108824
1	0x3c995722	0.018718306
2	0x3d3b3434	0.04570408
3	0xbd4f00be	-0.050537817
4	0x3cc1daeb	0.023663959
5	0x3d32176e	0.043479376
6	0xbd2500a5	-0.040283818
7	0x3d5c0f87	0.053725746
8	0x3d903f32	0.070433035
9	0xbd515d76	-0.051114522
10	0x3d85efb6	0.06539862
11	0xbb96d6e4	-0.0046032537
12	0x3c8a0440	0.01684773
13	0xbd545c54	-0.051845863
14	0xbccf1767	-0.025279714
15	0xbcb164f7	-0.02165459
16	0xbd45293a	-0.04813502
17	0xbb802157	-0.0039102244
18	0xbd346f61	-0.04405153
19	0xbbc7dbaa	-0.006099184
20	0x3c8a4289	0.01687743
21	0x3c7ac24e	0.015305115
22	0xbd5a9189	-0.05336145
23	0xbd811cec	-0.063043445
24	0x3d84e41d	0.06488822
25	0x3bb095ce	0.005388952
26	0x3cb91e00	0.022597313
27	0x3d147a70	0.036249578
28	0x3c98bdac	0.01864513
29	0x3c793472	0.015210258
30	0xbd5709a0	-0.052499413
31	0x3ca84180	0.020539045
32	0x3d80b283	0.062840484
33	0x3cb644f1	0.02224967
34	0xbd4a57c8	-0.04940012
35	0xbd6025c2	-0.05472351
36	0x3cee7892	0.029110227
37	0xbd2d2d55	-0.04227956
38	0xbd30f5ad	-0.043203045
39	0xbcb8a028	-0.022537306
40	0xbd0754f2	-0.033039995
41	0x3d8c915d	0.06863663
42	0xbcbc3a6e	-0.02297708
43	0x3d34bf2e	0.044127636
44	0xbd4b79dd	-0.049676765
45	0x3d608826	0.05481734
46	0x3c105b89	0.008810886
47	0xbd80d986	-0.06291489
48	0xbd82e83b	-0.06391951
49	0xbd9a5957	-0.075365715
50	0xbc802c3d	-0.015646094
51	0xbd327387	-0.043567207
52	0x3d2b5414	0.04182823
53	0x3d0737d6	0.033012234
54	0x3d88d5f4	0.06681433
55	0x3d6f749a	0.05846081
56	0x3d3ae00c	0.045623824
57	0xbd90fef0	-0.070798755
58	0x3ce3f375	0.02782605
59	0xbd1310d1	-0.03590471
60	0xbd86a2e7	-0.0657404
61	0x3d182dbd	0.037152994
62	0xbd6a4ecf	-0.057204064
63	0x3d20b5fd	0.039236058
64	0xbd8cad3e	-0.06868981
65	0xbd86899e	-0.06569217
66	0x3d5f7acd	0.05456047
67	0x3b7e34c4	0.0038788775
68	0xbd826e41	-0.063686855
69	0xbc7d2050	-0.015449598
70	0x3d05777d	0.032584656
71	0xbbc9f806	-0.0061636
72	0x3ba5e0be	0.0050621917
73	0x3cc7401d	0.024322564
74	0xb725d09e	-9.883339e-06
75	0xbd78de9c	-0.06075917
76	0xbd5e207b	-0.054230195
77	0xbd24d4cb	-0.040241998
78	0xbcd07433	-0.025446033
79	0x3cf4b4c6	0.029871356
80	0x3d291917	0.041283693
81	0x3d4b95f4	0.049703553
82	0xbc90239a	-0.017595101
83	0x3d8d23e4	0.06891611
84	0xbc627dbc	-0.013823923
85	0xbd274837	-0.040840354
86	0xbd2e4334	-0.04254456
87	0x3bed6949	0.007245217
88	0x3c28932e	0.010288997
89	0xbd97cf81	-0.07412625
90	0x3d10aec4	0.03532292
91	0x3d4d8343	0.05017401
92	0x3d59bc00	0.053157806
93	0xbd878d5b	-0.06618758
94	0xbc8fa01a	-0.017532397
95	0x3d5334db	0.05156408
96	0x3bbaee01	0.005704642
97	0x3c24d359	0.010060155
98	0xbc644154	-0.013931591
99	0x3d1b6d19	0.03794584
100	0x3c660339	0.014038854
101	0xbd7824a3	-0.060581814
102	0xbd493722	-0.049124844
103	0x3b0f4c44	0.0021865526
104	0x3d86b63e	0.06577729
105	0xbcfcb59e	-0.03084832
106	0x3d651537	0.055928435
107	0x3d00ca43	0.03144289
108	0xbcc4c262	-0.02401847
109	0x3d67baef	0.05657476
110	0xbcff3070	-0.031151026
111	0xbc937049	-0.017997878
112	0x3d28e180	0.04123068
113	0xbcb3bd5b	-0.021940878
114	0xbc3db349	-0.011578389
115	0x3d00e5da	0.031469204
116	0x3d822ce8	0.063562214
117	0xbd614728	-0.0549995
118	0x3b725e38	0.0036982428
119	0xbc9c957e	-0.019114252
120	0x3d5d9492	0.054096766
121	0xbcc56ea2	-0.024100605
122	0x3d599d0a	0.05312828
123	0xbcf9cda2	-0.030493561
124	0x3ca10fa2	0.019660775
125	0xbd8bb833	-0.068222426
126	0xbc078c49	-0.008273193
127	0x3ad7095f	0.0016405991
128	0x3d7a4cbe	0.061108343
129	0x3ce53772	0.02798054
130	0x3d2d847d	0.04236268
131	0xbd4660ad	-0.04843204
132	0x3cf39e81	0.029738666
133	0x3d809023	0.06277492
134	0xbd991e12	-0.074764386
135	0xbd56d901	-0.052453045
136	0xbc2b37da	-0.010450328
137	0x3c38f7b1	0.011289523
138	0xbc00bb2c	-0.007857125
139	0x3d79aa04	0.060953155
140	0xbd90d288	-0.07071406
141	0x3d2e1eb2	0.042509742
142	0x3d4f12cc	0.050555035
143	0xbcf84111	-0.030304464
144	0x3ca3ceaf	0.019996015
145	0xbcdc488a	-0.026890058
146	0x3bb504a1	0.0055242334
147	0x3c4c7892	0.012479918
148	0xbd52a104	-0.051423088
149	0x3d600b9c	0.05469857
150	0xbbff5f61	-0.0077933525
151	0xbcbb7846	-0.0228845
152	0x3d7ee304	0.062228218
153	0x3c487c9b	0.0122367395
154	0x3d244b51	0.04011089
155	0x3d1cfa0b	0.038324397
156	0x3a8e5430	0.001085883
157	0xbd05fffe	-0.032714836
158	0x3d3f3515	0.046681482
159	0xbcf97968	-0.030453399
160	0xbd8d40fa	-0.06897159
161	0xbc950c1c	-0.01819425
162	0xbd777afa	-0.060420014
163	0x3d1c3680	0.038137913
164	0xbbf19fcf	-0.007373787
165	0xbd1e8b4e	-0.03870707
166	0xbd6ae6da	-0.057349063
167	0x3cf4c6bf	0.029879926
168	0xbd5de916	-0.054177366
169	0xbc450f32	-0.012027549
170	0x3c469b4c	0.012121987
171	0xbd58e447	-0.052952077
172	0xbd1acc47	-0.03779247
173	0x3d868e81	0.06570149
174	0x3d7cf120	0.061753392
175	0x3c3f95d1	0.011693434
176	0xbd0a192e	-0.03371542
177	0x3d8d59d8	0.06901902
178	0xbd73529b	-0.05940495
179	0x3d529f26	0.051421307
180	0xbd4cde62	-0.05001677
181	0xbd868643	-0.06568577
182	0xbd859ba6	-0.06523828
183	0x3cfc88ce	0.030826952
184	0xbc36e1de	-0.011162249
185	0xbb622c11	-0.003451113
186	0xbbc82f41	-0.0061091487
187	0xbc885b06	-0.016644966
188	0xbb59958d	-0.0033200711
189	0xbcf73442	-0.030176286
190	0xbd8794cd	-0.06620178
191	0xbcdc2151	-0.026871355
192	0xbd356356	-0.044284187
193	0xbcbc392a	-0.022976477
194	0x3cef313e	0.029198285
195	0xbd7ab4ba	-0.06120751
196	0xbc83de36	-0.01609717
197	0x3ada7148	0.001666584
198	0xbd4fa0ec	-0.050690576
199	0xbd3208c9	-0.04346541
200	0x3d4fa248	0.050691873
201	0xbd6448ce	-0.055733494
202	0x3ce17904	0.027523525
203	0xbcd3a33b	-0.02583467
204	0x3cb6d576	0.022318583
205	0x3d8cf1e4	0.068820745
206	0xbd17fe75	-0.037107904
207	0x3d24b8fc	0.040215477
208	0xbd528c48	-0.051403314
209	0x3d159e0d	0.036527682
210	0xbd256b5b	-0.040385585
211	0x3d36f428	0.04466644
212	0x3d25978a	0.040427722
213	0x3bc10b83	0.005891265
214	0x3d31e5a6	0.0434319
215	0x3c91d611	0.01780227
216	0x3d1b623f	0.03793549
217	0x3d8345f5	0.064098276
218	0x3c6d4256	0.014481148
219	0xbd3c8ba3	-0.046031605
220	0xbc389ff9	-0.011268609
221	0xbd074f03	-0.033034336
222	0xba0c8a4f	-0.0005361186
223	0xbd5ad359	-0.053424213
224	0xbd7aaa78	-0.061197728
225	0x3c1d9867	0.009618855
226	0xbcc10f6b	-0.023566922
227	0xbbe8b666	-0.0071018217
228	0x3cca82eb	0.02472063
229	0xbd54f2b2	-0.051989265
230	0x3b90e5df	0.004421934
231	0x3d997c5a	0.07494421
232	0xbd374ef3	-0.044753026
233	0x3cb4636e	0.022020068
234	0x3d454dbb	0.048169833
235	0xbceb0b1b	-0.028691819
236	0x3d083dac	0.03326194
237	0x3c46650e	0.012109054
238	0x3c80b956	0.015713375
239	0x3c8f02f4	0.017457463
240	0xbcffe90f	-0.03123906
241	0x3d05a220	0.032625318
242	0x3d7349ca	0.059396543
243	0xbd3d85e5	-0.04627027
244	0xbd51c8af	-0.051216777
245	0x3a3218fd	0.00067938847
246	0xbb8c5da4	-0.004283624
247	0xbd0a3637	-0.03374311
248	0x3ce4c136	0.027924161
249	0xbd5735a4	-0.05254139
250	0xbcd60863	-0.026127046
251	0xbd494f8d	-0.04914813
252	0x3c242152	0.01001771
253	0x3c7caf60	0.015422672
254	0xbccc894b	-0.02496781
255	0xbd579d86	-0.05264046

encoder.conv.4.bias f4 [8]
0	0xbd014e9c	-0.03156911
1	0xbd37d8cb	-0.044884484
2	0x3d6af6fa	0.05736444
3	0xbd3397b1	-0.043845836
4	0x3d1aabab	0.03776137
5	0xbd3391ac	-0.043840095
6	0xbd206bcf	-0.039165314
7	0x3d3febc5	0.046855707

vq.embedding.weight f4 [16, 8]
0	0x3d0305a2	0.031987794
1	0x3c87de68	0.016585544
2	0xbd7b1faa	-0.061309494
3	0xbc16fb30	-0.009215161
4	0x3d05a206	0.03262522
5	0xbd27e6ca	-0.040991582
6	0xbba894f0	-0.005144708
7	0x3d5b3a42	0.053522356
8	0xbd37f842	-0.04491449
9	0x3d3c76ce	0.04601174
10	0x3d0bf77e	0.034171574
11	0x3d167c58	0.036739677
12	0x3c40eb68	0.011774875
13	0x3d714ec4	0.058913007
14	0x3d5dc81c	0.054145917
15	0xbd64966a	-0.05580751
16	0x3cb20b6c	0.021733962
17	0x3c392558	0.011300407
18	0xbcb58cec	-0.022161923
19	0x3caf6a38	0.021412954
20	0xbcfe2058	-0.031021282
21	0x3cac4048	0.021026745
22	0xbcc6f3c8	-0.024286166
23	0xbcbe2588	-0.023211256
24	0x3cece104	0.02891589
25	0x3cbf36e7	0.02334161
26	0x3cc22667	0.023699952
27	0xbc3ba8d5	-0.011453827
28	0xbd230aac	-0.0398051
29	0xbb19eefa	-0.0023488388
30	0xbb04136b	-0.0020153176
31	0xbcb7b4a6	-0.022425007
32	0xbb981ebc	-0.0046423357
33	0x3d046201	0.032320026
34	0x3ceccb8e	0.028905656
35	0x3d92a914	0.07161155
36	0x3cba38c4	0.022732146
37	0x3b30b15e	0.0026961188
38	0x3d49d2f9	0.049273465
39	0x3cf1c00d	0.029510522
40	0xbd073206	-0.03300669
41	0x3d43d447	0.047809865
42	0x3d63faf5	0.055659253
43	0x3c6e4dae	0.0145448875
44	0x3d0ce5a8	0.034398705
45	0xbd4fc871	-0.050728265
46	0xbacf268a	-0.0015804332
47	0x3ce06da3	0.027396029
48	0xbd56fdd0	-0.05248815
49	0xbc571220	-0.01312688
50	0xbd56ea78	-0.0524697
51	0x3cdacbdc	0.026708536
52	0xbd7ae158	-0.06125006
53	0x3d442584	0.04788734
54	0x3d2fc004	0.04290773
55	0xbc896a1c	-0.01677423
56	0x3c2cbfb8	0.010543756
57	0x3cbbe280	0.022935152
58	0x3c91182c	0.017711721
59	0xbd60736c	-0.054797575
60	0xbc6d2338	-0.014473729
61	0xbd3e9c9a	-0.046536066
62	0xbcdc69c4	-0.026905902
63	0xbcc4a54c	-0.024004601
64	0xbd63f4ce	-0.055653386
65	0x3d2bef4a	0.04197625
66	0x3c954748	0.018222466
67	0xbd741a0e	-0.05959516
68	0xbd272b82	-0.040812977
69	0xbb950560	-0.00454776
70	0xbd25d99e	-0.04049074
71	0xbc808b68	-0.015691474
72	0x3d0d3dc0	0.034482718
73	0x3d4678d2	0.048455067
74	0x3cf59458	0.029977962
75	0x3c8500fc	0.016235821
76	0x3d37836e	0.044803075
77	0xbd582378	-0.0527682
78	0x3d761c18	0.060085386
79	0x3d5cd91c	0.05391799
80	0x3d635c70	0.055508077
81	0xbd2b239c	-0.041782007
82	0xbc3708d0	-0.011171535
83	0x3d6318a4	0.05544342
84	0x3c948fa8	0.018134907
85	0x3b9c4240	0.00476864
86	0x3d1d2574	0.038365796
87	0xbd447780	-0.047965527
88	0x3bf8d560	0.0075937957
89	0x3d132932	0.03592796
90	0xbd552026	-0.052032612
91	0x3d2487b0	0.040168464
92	0xbd0413a2	-0.032245286
93	0xbc488d60	-0.012240738
94	0xbca3e8f8	-0.02000855
95	0x3c7e3ac0	0.015516937
96	0x3c913c22	0.017728869
97	0xb9824a13	-0.00024850722
98	0x3c910886	0.01770426
99	0x3ca6806c	0.020324908
100	0x3b1d50a0	0.0024004355
101	0xbbe10c37	-0.006867911
102	0xb9805599	-0.00024477838
103	0x3d420330	0.04736632
104	0x3d530587	0.051518943
105	0x3d615f63	0.05502261
106	0x3d88e984	0.066851646
107	0x3aa40a55	0.0012515286
108	0x3d32fe97	0.043699827
109	0x3cefc61c	0.02926927
110	0x3d455951	0.048180882
111	0xbcc5aa3d	-0.024129028
112	0x3cbe2e8c	0.023215555
113	0xbd6a5766	-0.057212256
114	0xbd0d26e2	-0.03446091
115	0xbd75d02a	-0.060012974
116	0x3d74f0bc	0.059799895
117	0xbcb15034	-0.02164469
118	0x3d6cc9d2	0.05780966
119	0x3d7f4dee	0.06233018
120	0xbca4fa34	-0.020138837
121	0x3ca15f08	0.019698635
122	0xbc9039d0	-0.017605692
123	0xbd7ed568	-0.06221524
124	0xbd1fa2c0	-0.03897357
125	0xbbefecf0	-0.0073219463
126	0xbca5143c	-0.02015125
127	0x3d6d052a	0.057866253

decoder.deconv.0.weight f4 [8, 64, 7]
0	0x3cda80a3	0.026672667
1	0xbd2fa266	-0.042879485
2	0x3d0cb52f	0.034352478
3	0xbd3cfe02	-0.04614068
4	0xbd19b99b	-0.037530523
5	0xbd2a691a	-0.04160414
6	0xbd3de44f	-0.04636031
7	0x3d094ead	0.033522297
8	0x3d2038e5	0.03911676
9	0xbb7069d8	-0.0036684182
10	0xbd01ace3	-0.03165902
11	0x3cd7868b	0.026309272
12	0x3c31eac6	0.010859197
13	0xbce528e4	-0.0279736
14	0xbd20daa5	-0.039271016
15	0x3d1d8b58	0.038462967
16	0xbd365686	-0.04451611
17	0xbd005bce	-0.03133755
18	0xbc7fb344	-0.015606705
19	0x3d40ab3b	0.047038298
20	0x3cd60340	0.026124597
21	0x3d3c62dc	0.045992717
22	0xbc2da048	-0.010597296
23	0x3d1b4bee	0.03791421
24	0xbcfade1e	-0.030623492
25	0x3bb0e404	0.0053982753
26	0x3d739010	0.05946356
27	0x3b1e32ee	0.0024139243
28	0xbd7721a0	-0.0603348
29	0xbc2ade96	-0.010429045
30	0xbd4d20af	-0.050079998
31	0x3d6b3a83	0.057428848
32	0x3d855dac	0.06512007
33	0x3d65fde3	0.05615033
34	0x3c461281	0.012089373
35	0x3d2e9420	0.04262173
36	0x3d2039f3	0.039117765
37	0xbb73c1f1	-0.0037194456
38	0xbb30645c	-0.0026915288
39	0x3d1c5996	0.038171373
40	0x3cb7c9f0	0.022435158
41	0x3d9e9517	0.077432804
42	0x3bcbb922	0.006217138
43	0x3bc4ba9e	0.006003692
44	0xbc49b5a4	-0.012311373
45	0xbc5e2762	-0.013559194
46	0x3b863a07	0.004096273
47	0x3bb3235a	0.0054668607
48	0x3d66e8ad	0.05637424
49	0x3d9bcf83	0.07607939
50	0xbc27ba05	-0.010237222
51	0x3b9ec91f	0.004845753
52	0xbc8c1fbb	-0.017104974
53	0x3c8ce30d	0.01719811
54	0xbc784f63	-0.015155646
55	0xbc5031df	-0.012707203
56	0xbd017ead	-0.031614948
57	0x3b9cd2dd	0.004785879
58	0xbc7f3e8d	-0.015578878
59	0x3ad9b7ed	0.00166106
60	0xbcb26d9a	-0.021780778
61	0xbd0622dd	-0.032748092
62	0xbc6c9b1d	-0.014441279
63	0x3c94476f	0.018100468
64	0xbcd3e649	-0.025866644
65	0xbcbab419	-0.022790955
66	0xbc9e5a94	-0.0193303
67	0xbd19a77a	-0.037513234
68	0xbd21862d	-0.0394346
69	0x3d32b36e	0.04362815
70	0xbc0e5b81	-0.008688808
71	0x3d4a431f	0.049380418
72	0x3cb7cfa0	0.02243787
73	0xbcbc33bd	-0.02297389
74	0xbc7eb8de	-0.015547005
75	0x3d03ca52	0.03217537
76	0x3d018762	0.03162325
77	0x3d2992c4	0.041399732
78	0x3c87797d	0.016537422
79	0x3cdd91ca	0.027047057
80	0x3c6c5eac	0.014426868
81	0xbd064c2b	-0.032787483
82	0xbc53ca45	-0.012926643
83	0x3c73b47e	0.014874576
84	0x3c3fb9e6	0.0117020365
85	0x3c977604	0.018488891
86	0x3c34705c	0.011013117
87	0xbc37e079	-0.011222952
88	0x3c36bac0	0.011152923
89	0x3bd353fe	0.0064492216
90	0xbccca26e	-0.024979796
91	0x3c8606d6	0.016360682
92	0xbcde0e4f	-0.027106432
93	0x3cb96988	0.022633329
94	0xbc43bedd	-0.011947361
95	0x3cd5421f	0.026032506
96	0xbcf97e24	-0.030455656
97	0x3ce5fdc9	0.028075116
98	0x3cf45394	0.02982501
99	0x3c47af42	0.012187781
100	0x3d16981f	0.036766168
101	0xbc7fae75	-0.015605559
102	0x3d0fef21	0.03514016
103	0xbc705880	-0.014669538
104	0x3cb63914	0.022244014
105	0xbb0512dc	-0.002030543
106	0x3d10eb5f	0.035380717
107	0x3c7f1f45	0.01557142
108	0x3c4175aa	0.011807838
109	0xbd0a45dd	-0.033758033
110	0x3d255446	0.040363573
111	0xbbb204e9	-0.0054327142
112	0x3ccb2060	0.024795711
113	0x3be893d8	0.0070977025
114	0xbccea734	-0.025226213
115	0xbc1c0b96	-0.009524247
116	0x3c7a862b	0.015290777
117	0x3c6e343e	0.014538823
118	0x3cf2ddb1	0.029646726
119	0xbd12f1d4	-0.035875157
120	0x3d5a3db8	0.053281516
121	0xbd11186d	-0.035423685
122	0x3ced26b2	0.028949115
123	0xbcf5a236	-0.029984575
124	0xbd216651	-0.039404217
125	0x3caf8cc2	0.021429423
126	0xbcb4459b	-0.022005847
127	0x3d859de6	0.06524257
128	0xbcd57e08	-0.026061073
129	0x3d55fffe	0.052246086
130	0x3d6ddece	0.05807381
131	0x3cc95e25	0.024581024
132	0x3d366338	0.044528216
133	0xbc361582	-0.011113526
134	0xbd0596b1	-0.032614414
135	0x3cd948b9	0.026523935
136	0xbbc77bc5	-0.0060877525
137	0xbca8b759	-0.02059524
138	0xbd03a7c4	-0.032142416
139	0x3d3e3ec2	0.04644657
140	0x3d8bcf2c	0.06826624
141	0x3cd21951	0.025646837
142	0xbce6acfc	-0.028158657
143	0xbd08329e	-0.033251397
144	0x3acb2d26	0.0015501126
145	0x3d0f0ec8	0.034926206
146	0x3c742e1f	0.014903574
147	0x3d234dd1	0.039869133
148	0xbcf15505	-0.029459486
149	0x3d390610	0.045171797
150	0xbcc80a9b	-0.02441912
151	0x3ce4364c	0.027857922
152	0xbce19de2	-0.027541105
153	0xbcd1e971	-0.025624009
154	0x3d6d28cf	0.057900246
155	0x3d5a4609	0.053289447
156	0xbcaa431b	-0.020783952
157	0xbcee4a96	-0.0290883
158	0x3cc4f084	0.024040468
159	0xbcb767b4	-0.022388317
160	0x3cba12a9	0.022713976
161	0x3d10d4cc	0.03535919
162	0x3cb6af3f	0.02230036
163	0xbd1195c7	-0.03554323
164	0xbd31dea2	-0.04342521
165	0x3b90961c	0.0044124257
166	0x3b54df7c	0.003248184
167	0x3d2a0a7d	0.04151391
168	0xba68a076	-0.0008874008
169	0x3cd34a7c	0.025792353
170	0xbd1c4d6c	-0.038159773
171	0x3d1ffd59	0.03905997
172	0xbbb7ec07	-0.0056128534
173	0xbbe98e33	-0.007127547
174	0xbcc3bcfb	-0.023893824
175	0xbce58212	-0.028016124
176	0x3ccc4cee	0.024939027
177	0xbd121308	-0.03566268
178	0xbb4f3be3	-0.0031621389
179	0xbb6db65e	-0.003627203
180	0x3c317774	0.0108317025
181	0xbc09d2c0	-0.008412063
182	0x3c5546a2	0.013017328
183	0x3bb8a7de	0.0056352457
184	0x3d34e6c8	0.044165403
185	0x3d09e3b0	0.033664405
186	0xbd0e64e8	-0.0347642
187	0x3d4bc38b	0.04974703
188	0x3d8f59c6	0.06999545
189	0xbb0887c7	-0.0020832883
190	0x3c7c1538	0.015385918
191	0x3b26f8e8	0.002547795
192	0xbcd407d2	-0.025882635
193	0xbd3bd3a9	-0.04585615
194	0xbc22b25f	-0.009930222
195	0xbca7757f	-0.020441769
196	0xbd3f5c85	-0.046719093
197	0xbcf385eb	-0.029726943
198	0xbcf32489	-0.029680507
199	0xbc71a10d	-0.01474787
200	0x3d218e6d	0.03944247
201	0xbcb49da2	-0.022047821
202	0x3a83f15d	0.0010066439
203	0x39469db7	0.00018941505
204	0x3c4d3080	0.01252377
205	0x3b826adc	0.003980024
206	0xbca36308	-0.019944683
207	0xbc29a816	-0.010355016
208	0xbbceecbf	-0.0063148434
209	0x3c251001	0.010074616
210	0xbd2cb62f	-0.04216593
211	0x3c8ced2b	0.017202934
212	0x3c23d565	0.009999608
213	0x3d2c1073	0.042007875
214	0x3c110ae6	0.008852696
215	0x3cf6759c	0.030085377
216	0x3c8fb01c	0.01754003
217	0xbc416324	-0.011803422
218	0x3a982524	0.0011607748
219	0x3cc415ff	0.02393627
220	0x3d185449	0.037189756
221	0x3d2560da	0.040375568
222	0x3d516153	0.051118206
223	0xbb164914	-0.0022931742
224	0x3d55ea73	0.05222554
225	0x3d49cf47	0.04926994
226	0x3d6503ba	0.055911757
227	0xbd080f1d	-0.03321754
228	0xbceeb76b	-0.029140195
229	0x3d32f2c4	0.04368855
230	0x3d72a12e	0.059235744
231	0xbc6efdcb	-0.014586876
232	0xbd1cb5e0	-0.038259387
233	0x3c665a2e	0.014059586
234	0x3d1b8fd2	0.037978955
235	0xbb078cbb	-0.0020683247
236	0xbbac9f6b	-0.0052680275
237	0xbd0edf88	-0.034881145
238	0xbbacf106	-0.0052777557
239	0x3d4a70dd	0.04942404
240	0xbd0bb86f	-0.034111436
241	0xbd07c326	-0.033145092
242	0x3c068d13	0.008212346
243	0x3c259397	0.010105989
244	0x3d60b4bf	0.054859873
245	0x3d4750df	0.04866111
246	0xbc2fcdff	-0.010730266
247	0x3c93722d	0.01799878
248	0xbb88d288	-0.004175488
249	0x39363cf7	0.00017379584
250	0xbb858ee2	-0.004075871
251	0xbd66c80c	-0.056343123
252	0x3cc9d90f	0.024639634
253	0x3b0e3f68	0.0021705274
254	0x3d49d299	0.049273107
255	0x3d146927	0.036233094

decoder.deconv.0.bias f4 [64]
0	0xbbc0c0b4	-0.005882347
1	0xbcda3a78	-0.026639208
2	0xbc8d7095	-0.017265597
3	0x3ce1715e	0.027519878
4	0x3bf732fe	0.0075439205
5	0x3d881985	0.066454925
6	0x3d69bb6a	0.057063498
7	0x3d81e7db	0.06343051
8	0x3d46e615	0.048559267
9	0xbd14173c	-0.03615497
10	0x3c27c0ce	0.010238839
11	0xbbaed8f2	-0.0053359205
12	0xbc271ec4	-0.010200206
13	0x3c629513	0.013829487
14	0x3d6c0c3e	0.057628863
15	0x3b0906aa	0.0020908513
16	0xbccf33a1	-0.025293173
17	0x3a410d7a	0.0007364374
18	0x3cce5ebd	0.02519166
19	0xbcb1632e	-0.021653738
20	0x3ca5bd36	0.020231824
21	0xbd33f81f	-0.0439378
22	0x3cf0c38f	0.029390125
23	0xbcf2a8fd	-0.029621596
24	0xbc7b1320	-0.015324384
25	0x3ca251c2	0.019814376
26	0x3d2dc834	0.042427257
27	0x3cee2817	0.02907185
28	0xbcc94185	-0.024567375
29	0x3cc7451d	0.024324948
30	0xbc1e191c	-0.009649541
31	0x3c1e0acf	0.009646132
32	0x3d007d1f	0.031369325
33	0xbc8b7a5a	-0.017026115
34	0x3d56dad8	0.0524548
35	0x3cc385d9	0.023867534
36	0x3d34f4e6	0.044178866
37	0x3d3adb07	0.045619037
38	0x3d1fe795	0.039039213
39	0xbd145d26	-0.036221646
40	0x3d481e94	0.048857287
41	0x3d2b3f5a	0.041808464
42	0xbc93969b	-0.01801615
43	0xbd1b0870	-0.037849844
44	0xbd29bf32	-0.041442104
45	0xbd36752f	-0.04454535
46	0xbc8f8b0d	-0.01752236
47	0x3d4ca9a5	0.049966473
48	0x3d741469	0.059589777
49	0xbd1d5af0	-0.038416803
50	0x3d1d2349	0.03836373
51	0x3d608690	0.05481583
52	0xbd37973e	-0.04482197
53	0x3d468609	0.04846767
54	0xbcaf44c1	-0.02139509
55	0x3c2d0115	0.01055934
56	0x3c3114ed	0.010808212
57	0x3cd9c1bc	0.026581638
58	0xbd038011	-0.032104556
59	0x3d47ca13	0.048776697
60	0xbd04e7d4	-0.03244765
61	0xbcb33ddb	-0.02188008
62	0xbd3b0f55	-0.04566892
63	0x3ca21825	0.019786904

decoder.deconv.2.weight f4 [64, 64, 3]
0	0x3d4a83ce	0.049442105
1	0xbd91d50b	-0.07120713
2	0x3d422190	0.04739529
3	0xbd0faf23	-0.035079133
4	0xbc956dc9	-0.018240826
5	0xbd1e0fbf	-0.038589235
6	0xbd8b7482	-0.068093315
7	0xbc382204	-0.011238579
8	0x397a19d6	0.00023851483
9	0x3c32899e	0.010897068
10	0x3b9b147c	0.0047326665
11	0x3d6cae0c	0.05778317
12	0xbd754776	-0.059882604
13	0xbd539408	-0.051654845
14	0xbd426394	-0.047458246
15	0xbaef8849	-0.0018274869
16	0x3cbda79d	0.023151213
17	0x3c62d5f9	0.01384496
18	0x3cc3a267	0.02388115
19	0xbca20347	-0.019776953
20	0x3d3335d2	0.0437525
21	0x3d711ad2	0.05886347
22	0x3dbbc844	0.09169057
23	0x3d78ec32	0.06077213
24	0x3cca4f49	0.02469601
25	0xbcb752a6	-0.022378277
26	0x3d8e50e6	0.06949024
27	0xbd2572b9	-0.04039261
28	0x3d901793	0.070357464
29	0xbbe17fe2	-0.0068817
30	0x3cd38d3a	0.025824178
31	0xbd499785	-0.049216766
32	0xbd346c21	-0.044048432
33	0xbbf1d62f	-0.007380269
34	0xbcf4d489	-0.0298865
35	0xbd0461ac	-0.03231971
36	0x3caeeaf6	0.021352272
37	0xbd55d09a	-0.05220089
38	0x3d346ac4	0.044047132
39	0x3d9218c3	0.07133629
40	0xbd2bbfa0	-0.041930795
41	0xbd31eed5	-0.04344066
42	0x3d097b86	0.033565067
43	0xbc84a1db	-0.01619046
44	0x3d14517a	0.036210515
45	0xbcc66025	-0.024215767
46	0x3cf1cd29	0.029516773
47	0xbd0ff15d	-0.03514229
48	0xbd8100a6	-0.06298952
49	0xbbd8a9e5	-0.00661205
50	0x3d508ce5	0.050915617
51	0x3cf0adf2	0.029379819
52	0x3d988125	0.07446507
53	0xbd3ee23e	-0.04660248
54	0x3d3046e2	0.04303635
55	0xbce2803e	-0.027649041
56	0x3bd1b3fe	0.0063996306
57	0xbbd20bbc	-0.0064100903
58	0xbd2f79a6	-0.042840622
59	0x3d2bcb10	0.041941702
60	0xbb9d260f	-0.0047957967
61	0x3c810072	0.015747283
62	0x3d5adb36	0.053431712
63	0xbd369f05	-0.044585247
64	0xbca28de0	-0.019843042
65	0x3d1ebe0b	0.038755458
66	0x3d5dcb79	0.054149125
67	0x3d02265e	0.03177487
68	0x3dbc6ccc	0.09200439
69	0x3d24a815	0.040199358
70	0xbb97ae7c	-0.0046289545
71	0xbcd48cc1	-0.025946023
72	0xbb91a05f	-0.0044441666
73	0x3cbeac8c	0.023275636
74	0x3ccba352	0.02485815
75	0x3c7c31d4	0.015392739
76	0x3d4a365c	0.049368247
77	0xbd1eff11	-0.03881747
78	0x3b2f512d	0.0026751265
79	0xbd184d9f	-0.0371834
80	0x3b009945	0.0019622606
81	0x3cd03a6a	0.025418479
82	0x3d9f6761	0.0778339
83	0x3d254822	0.040351994
84	0xbd69b489	-0.057056937
85	0x3d34adbd	0.044111002
86	0x3b806d11	0.0039192517
87	0x3b9f6aa5	0.004865008
88	0x3d930fa9	0.07180721
89	0xbd217d46	-0.03942611
90	0x3cf755fb	0.030192366
91	0xbcedca09	-0.029027002
92	0xbc2c7f94	-0.010528464
93	0xbca4715a	-0.020073581
94	0x3da3c0ee	0.07995783
95	0xbb962b1f	-0.004582777
96	0x3d457c18	0.04821405
97	0xbcaf348c	-0.021387361
98	0x3d8fe9b1	0.07026995
99	0xbd741582	-0.059590824
100	0x3c2ef4bd	0.010678467
101	0x3d80d5bb	0.06290766
102	0xbc9c2098	-0.01905851
103	0x3bc8c116	0.0061265333
104	0xbbd1af7c	-0.006399093
105	0xbbaf7c00	-0.005355358
106	0xbd333d49	-0.043759618
107	0x3d41736c	0.047229216
108	0x3db590f8	0.08865541
109	0x3c54343a	0.012951905
110	0x3c3f6001	0.011680604
111	0xbd1127bf	-0.035438295
112	0x3d8518ca	0.06498869
113	0x3c2841b3	0.01026957
114	0xbcae5461	-0.02128047
115	0xbd112533	-0.035435867
116	0x3b82b9c4	0.00398943
117	0xbc1ebd1f	-0.009688645
118	0xbd3670cb	-0.04454116
119	0xbc020926	-0.0079367515
120	0xbcbe44eb	-0.023226222
121	0x3cf89a54	0.030347027
122	0x3d112a5f	0.0354408
123	0xbb7714c3	-0.0037701584
124	0x3d073773	0.033011865
125	0x3aae2422	0.0013285915
126	0xbd72c48b	-0.05926947
127	0xbabb3262	-0.0014281983
128	0xbba95aad	-0.00516828
129	0xbd3ca788	-0.046058208
130	0xbceb1c27	-0.028699948
131	0x3d049b34	0.032374576
132	0x3d13be02	0.036069877
133	0x39f6fbf0	0.00047108484
134	0x3d0381fd	0.03210639
135	0x3d257bac	0.040401146
136	0xbce89d22	-0.02839524
137	0x3c815419	0.015787171
138	0x3d887c94	0.066643864
139	0xbceef12d	-0.029167736
140	0xbcc96578	-0.024584517
141	0x3c88f0a3	0.016716307
142	0x3be2e67e	0.0069244495
143	0x3cf79e71	0.030226918
144	0x3d775ca4	0.060391083
145	0x3d1b414e	0.037904076
146	0x3d88b983	0.066760086
147	0xbd4397c2	-0.04775215
148	0xbd2cfbb6	-0.042232238
149	0xbcf2ef65	-0.029655168
150	0x3d0d129c	0.034441575
151	0x3d7efe98	0.06225452
152	0x3ad24d64	0.0016044793
153	0x3dc07ff9	0.09399409
154	0x3b80257b	0.003910718
155	0xbd347fbe	-0.044067137
156	0xbc80fa7b	-0.015744438
157	0x3ca5ccb3	0.02023921
158	0x3d6400b2	0.055664726
159	0x3ccd44f0	0.025057286
160	0x3d7b9c6b	0.06142847
161	0x3c2400b7	0.010009936
162	0xbac79a62	-0.0015228505
163	0xbd554d64	-0.05207576
164	0x3ab6c2bc	0.0013943533
165	0x3c5397ac	0.012914579
166	0x3d77e656	0.0605224
167	0x3b8d8c1b	0.0043196804
168	0x3d35d42d	0.0443918
169	0x3cdd2b0a	0.026998062
170	0x3c99e8bf	0.01878774
171	0x3db66866	0.08906631
172	0x3da0e125	0.07855443
173	0x3da6c660	0.08143306
174	0x3d7e3204	0.062059417
175	0xbd424d67	-0.047437098
176	0xbd41891f	-0.04724991
177	0xbc63dfc5	-0.013908331
178	0x3db8299b	0.089923106
179	0x3d5744a5	0.0525557
180	0x3b61ba69	0.0034443385
181	0xba2168f5	-0.00061573024
182	0xbd4194a7	-0.047260907
183	0xbd30d7f9	-0.043174718
184	0xbadcb008	-0.0016837129
185	0xbd041444	-0.03224589
186	0xbd6defde	-0.058090083
187	0x3d32d946	0.04366424
188	0xbc36b5f6	-0.011151781
189	0xbcc5c6cb	-0.024142643
190	0x3cef3515	0.029200116
191	0x3d7bb9ec	0.061456606
192	0xbc924fd6	-0.017860334
193	0xbd91d08d	-0.07119856
194	0x3b3bce40	0.002865687
195	0xbb861977	-0.004092391
196	0xbc62c2b1	-0.013840363
197	0x3d56d8f0	0.05245298
198	0xbc5920f9	-0.01325249
199	0xbcf25216	-0.029580157
200	0xbd5c449a	-0.05377636
201	0x3d4319bb	0.04763196
202	0x3d0f3b8b	0.034968894
203	0x3cb86c75	0.022512654
204	0xbd8e0910	-0.06935322
205	0xbcf8a46c	-0.03035184
206	0x3d5951b0	0.05305642
207	0x3d900d76	0.070338175
208	0x3cd64de5	0.02616019
209	0x3d9b3348	0.075781405
210	0x3d03662f	0.03207987
211	0xbcbdcbc5	-0.023168454
212	0xbd6b7163	-0.05748118
213	0xbd4d567f	-0.050131317
214	0xbc485871	-0.012228117
215	0x3d242fa5	0.0400845
216	0x3da2d2c2	0.07950355
217	0x3adbcdee	0.0016769746
218	0x3d08031a	0.033206083
219	0xbd5164c1	-0.051121477
220	0xbd7e4331	-0.062075797
221	0x3d033a9d	0.03203832
222	0xbbcdf055	-0.0062847533
223	0x3cc05b3d	0.023481006
224	0x3cc34772	0.023837779
225	0xbc656728	-0.014001645
226	0xbc915369	-0.017739968
227	0xbd3fef5d	-0.046859134
228	0x3c354810	0.011064544
229	0xbd4c6db3	-0.049909305
230	0xbd139cd6	-0.036038242
231	0x3c53714b	0.012905429
232	0x3d770ae5	0.060313124
233	0xbba51f69	-0.005039145
234	0xbd52e210	-0.05148512
235	0xbc21d0ff	-0.009876489
236	0x3d91499f	0.0709412
237	0x3b8bbed5	0.0042646923
238	0xbd52c84b	-0.051460546
239	0xbd719599	-0.058980558
240	0x3d919d89	0.071101256
241	0x3cdbf1b9	0.02684866
242	0xb87a7f73	-5.972334e-05
243	0xbd3be4a7	-0.045872357
244	0x3bce5856	0.0062971516
245	0x3d032b6a	0.032023825
246	0xbc54fcba	-0.012999708
247	0xbc88cd21	-0.016699376
248	0x3d255343	0.040362608
249	0x3d5adf2b	0.053435486
250	0x3cacfe1f	0.021117268
251	0x3d8fa981	0.07014752
252	0x3c2d99aa	0.010595718
253	0xbc734caa	-0.014849821
254	0x3d98f5b4	0.07468739
255	0x3cf4e3b4	0.029893734

decoder.deconv.2.bias f4 [64]
0	0x3db8de98	0.090268314
1	0x3da845ac	0.08216414
2	0xbd09d514	-0.033650473
3	0xbd1dffb5	-0.03857394
4	0x3db894db	0.09012767
5	0xbd6f6f6b	-0.058455866
6	0xbd53c987	-0.051705863
7	0xbd0c348f	-0.03422981
8	0x3d850b40	0.064962864
9	0xbd358d0c	-0.044323966
10	0x3dafdb8f	0.08586799
11	0x3d0f24c3	0.034947168
12	0xbc8949d1	-0.016758831
13	0x3d85fe7c	0.0654268
14	0x3cee8ef4	0.0291209
15	0xbd09363c	-0.033498988
16	0xbca32cf7	-0.019918902
17	0x3d13065f	0.035894748
18	0xbd7e50d4	-0.062088802
19	0xbd64cc59	-0.055858944
20	0x3cc2bce2	0.023771707
21	0xbcc55388	-0.024087682
22	0xbc6eae19	-0.014567875
23	0xbd8ac18e	-0.06775199
24	0xbd4fa6fa	-0.05069635
25	0x3caf0311	0.021363767
26	0xbd5b22c5	-0.053499956
27	0xbb9fae54	-0.0048730765
28	0xbd22002b	-0.03955094
29	0xbc57fa33	-0.013182211
30	0xbd359a92	-0.044336863
31	0x3d17badc	0.037043437
32	0x3d960c09	0.07326514
33	0x3c75da29	0.015005627
34	0xbc853628	-0.016261175
35	0xbd72c2f0	-0.059267938
36	0x3da4ffc1	0.08056594
37	0xbc4a3c68	-0.012343504
38	0xbaf074cc	-0.0018345355
39	0x3d23acc7	0.039959695
40	0xbd2ccd15	-0.04218777
41	0xbd4b6dae	-0.049665146
42	0x3d017d7b	0.031613808
43	0x3d9f01dc	0.077640265
44	0xbd5d808e	-0.054077677
45	0x3cc0f8e5	0.023556182
46	0xbd5d0c2f	-0.053966697
47	0x3d9be59c	0.07612154
48	0xbcc45699	-0.023967074
49	0xbadfbdf6	-0.0017070163
50	0xbd8a4d88	-0.06753069
51	0x3d4ab54c	0.049489304
52	0xbd433f78	-0.04766795
53	0xbd723551	-0.059132878
54	0xbc83294e	-0.016010907
55	0x3da927a1	0.08259512
56	0xbd5b404a	-0.053528108
57	0xbccba90e	-0.024860885
58	0x3db035fb	0.08604046
59	0x3b2d5724	0.0026449645
60	0x3b139e3b	0.0022524733
61	0x3bd442e2	0.0064776996
62	0xbc545e71	-0.01296197
63	0xbd764a18	-0.060129255
